weights/improved_cae_ne3_b8_icub_right.pth (torch, 351387 bytes, 36 tensors)

encoder.0.weight f4 [16, 3, 4, 4]
0	0xbe1f1857	-0.15536629
1	0xbd80715e	-0.06271623
2	0x3d2171c6	0.039415143
3	0xbe262e4f	-0.16228603
4	0xbe17f80b	-0.14840715
5	0x3b6933f9	0.0035583957
6	0xbda4933e	-0.08035897
7	0xbdf40368	-0.11914712
8	0xbcba6874	-0.022754885
9	0xbdda93a6	-0.10672693
10	0xbda818f9	-0.08207888
11	0xbe18db3b	-0.1492738
12	0xbd20505a	-0.03913913
13	0xbcd8eb6d	-0.026479447
14	0x3b8ca28b	0.0042918376
15	0x3d2762f3	0.04086585
16	0x3d7aad2c	0.061200306
17	0xbcce578b	-0.025188228
18	0xbc0db751	-0.008649663
19	0xbd8d8904	-0.06910899
20	0x3b037dec	0.002006407
21	0x3d318e4f	0.043348607
22	0xbcf9961d	-0.030467087
23	0x3d9b0123	0.07568576
24	0xbd6a84c0	-0.057255507
25	0xbd3c83d4	-0.04602416
26	0x3e0971ac	0.13422269
27	0xbd8731fc	-0.06601331
28	0xbde83ce4	-0.11339739
29	0xbda4d336	-0.08048098
30	0x3e28cab6	0.16483578
31	0xbc3f7f28	-0.011688031
32	0x3dcf16fb	0.10111805
33	0x399bb9eb	0.00029702423
34	0xbdb817bb	-0.08988901
35	0x3e157d18	0.145985
36	0x3e045c9f	0.12925957
37	0x3d417ed6	0.0472401
38	0xbd757eda	-0.05993543
39	0x3d49e266	0.049288176
40	0x3e1a1e0f	0.15050529
41	0xbd3a7d14	-0.04552944
42	0x3a933863	0.0011232015
43	0xbd7a09a2	-0.061044343
44	0xbd91464c	-0.07093486
45	0x3d0b6ea0	0.034041047
46	0x3d9dfe2f	0.07714497
47	0x3c5bf393	0.013424772
48	0x3d95df94	0.07318035
49	0x3be98d13	0.007127413
50	0xbdd90303	-0.105962776
51	0x3d92ec17	0.07173937
52	0xbd8b3faa	-0.06799252
53	0x3d911ac8	0.07085186
54	0x3c8f2f04	0.017478473
55	0xbdc65ecd	-0.096860506
56	0xbde90d43	-0.113794826
57	0x3d8d46c5	0.06898264
58	0x3d4c9513	0.049946856
59	0xbd63ff75	-0.055663545
60	0x3cba7206	0.022759449
61	0x3df147cb	0.117812715
62	0x3d9b452e	0.07581554
63	0x3da64a2d	0.08119617
64	0xbe02b01f	-0.12762497
65	0xbdfc155a	-0.1230876
66	0x3e1ac8d0	0.15115666
67	0x3ddbcbb1	0.107322104
68	0xbdbf1c3d	-0.09331558
69	0x3e11d8df	0.14242886
70	0x3d170ae9	0.03687564
71	0x3df57040	0.119843006
72	0x3e24a931	0.16080166
73	0xbd072b54	-0.033000305
74	0x3e0a29ff	0.13492583
75	0xbd573996	-0.052545153
76	0x3dd32195	0.1030914
77	0x3db44056	0.088013336
78	0x3dac9f24	0.08428791
79	0x3dffa2d1	0.12482227
80	0xbd2dd428	-0.042438656
81	0xbc59c7cd	-0.013292265
82	0xbe073f82	-0.1320782
83	0x3e104545	0.14088924
84	0xbdb21eee	-0.086973056
85	0xbd61842a	-0.055057682
86	0x3dc28ba5	0.09499291
87	0x3cde02c6	0.027100932
88	0x3c344c62	0.011004539
89	0x3e0a0130	0.13477015
90	0x3dd199e6	0.10234432
91	0x3dcbfe1a	0.099605754
92	0x3deb1862	0.1147926
93	0x3de114bd	0.10990284
94	0xbd5e919e	-0.05433809
95	0xbdf87b77	-0.12132924
96	0xbe025dd1	-0.127311
97	0x3e055697	0.13021313
98	0x3b126f3f	0.002234414
99	0xbc840d52	-0.016119633
100	0xbc97dd75	-0.018538216
101	0xbd478f54	-0.048720673
102	0x3da26a98	0.079304874
103	0xbda99c55	-0.08281771
104	0x3d586a9c	0.052836046
105	0xbe0728f2	-0.13199213
106	0xbcac498d	-0.021031165
107	0xbd4a85cf	-0.049444016
108	0xbdca16bd	-0.09867618
109	0x3d7ecbe3	0.06220616
110	0x3cee56db	0.02909415
111	0x3dffbded	0.12487397
112	0xbdbecdfa	-0.09316631
113	0xbdeb568f	-0.11491119
114	0xbe2c73c6	-0.16841039
115	0xbe1c281c	-0.15249676
116	0xbd40e66d	-0.04709475
117	0xbe40a64b	-0.18813436
118	0x3d33d8f6	0.043908082
119	0xba08b035	-0.0005214245
120	0xbe1e0c39	-0.1543435
121	0xbe026cc8	-0.12736809
122	0xba338520	-0.0006848145
123	0xbdf4542c	-0.11930117
124	0xbdf0f6da	-0.11765833
125	0xbe1c0df6	-0.152397
126	0xbe006dfe	-0.12541959
127	0xbc6e75d6	-0.014554461
128	0x3db2a048	0.087219775
129	0xbb60600e	-0.003423694
130	0xbceacfc9	-0.028663533
131	0xbd96a038	-0.07354778
132	0xbe38a0de	-0.18030116
133	0x3d1ff505	0.03905203
134	0xbd856309	-0.0651303
135	0xbcfd3846	-0.030910622
136	0x3dac2006	0.084045455
137	0xbd3d0d52	-0.04615528
138	0xbc125f16	-0.008933803
139	0xbd33b389	-0.04387239
140	0xbe120c57	-0.1426252
141	0xbd850102	-0.06494333
142	0x3d990d8e	0.074732885
143	0xbd67b0cf	-0.056565102
144	0xbb1f025e	-0.0024262886
145	0x3d028597	0.031865682
146	0xbc265aed	-0.010153514
147	0x3d2ad1e7	0.041704085
148	0x3dd8a2f8	0.10577959
149	0x3dbd8823	0.09254482
150	0xbdb756d5	-0.08952109
151	0x3dcfb228	0.101414025
152	0x3dcc8560	0.09986377
153	0xbc0878d6	-0.008329591
154	0xbd7fb9e9	-0.062433157
155	0xbde420b6	-0.111390516
156	0x3c8d8502	0.017275337
157	0xbe18b6d7	-0.14913498
158	0xbd450731	-0.04810256
159	0x3de8bf34	0.11364594
160	0x3dbdd308	0.09268767
161	0xbda20fb3	-0.07913151
162	0x3dcea464	0.10089949
163	0x3d7a66ed	0.061133314
164	0xbe1863ed	-0.14881869
165	0xbdc05f11	-0.093931325
166	0x3df8774e	0.121321306
167	0xbde69a0b	-0.1125985
168	0xbe0ad120	-0.13556337
169	0x3d6f4947	0.058419492
170	0x3e18f472	0.14936998
171	0x3e18089e	0.14847037
172	0x3d96542f	0.073402755
173	0xbe40bf99	-0.18823089
174	0x3d7688d4	0.060189083
175	0xbbc54eb8	-0.006021347
176	0x3e019c2d	0.12657233
177	0x3e0f6631	0.14003827
178	0xbcc72386	-0.024308931
179	0x3db9741d	0.0905535
180	0x3e181980	0.14853477
181	0x3dcc270e	0.099683866
182	0x3da7a1c9	0.08185155
183	0xbd714c7c	-0.05891083
184	0x3d9f2f04	0.077726394
185	0xbdcfb8aa	-0.10142644
186	0xbd935e5f	-0.07195734
187	0x3e207200	0.15668488
188	0xbdf18ea9	-0.117947884
189	0x3de98452	0.11402191
190	0xbe1b36f1	-0.15157677
191	0x3dbc1b99	0.09184951
192	0xbe1001c7	-0.14063178
193	0x3c30aaab	0.010782878
194	0x3cc24f59	0.023719477
195	0x3dd8f0c2	0.10592796
196	0xbe0a2e1c	-0.13494152
197	0xbe150e3d	-0.14556213
198	0xbc7bef21	-0.015376837
199	0xbdbd486c	-0.09242329
200	0x3db152c2	0.08658363
201	0xbda625fd	-0.081127144
202	0x3d9a4997	0.075335674
203	0x3da8cead	0.08242545
204	0x3ce0eab7	0.02745567
205	0x3c44fdfa	0.012023443
206	0xbd5b3511	-0.053517405
207	0x3dc38f6f	0.09548842
208	0xbd233dfd	-0.03985404
209	0x3d3ab251	0.045580212
210	0xbdaf9e84	-0.08575156
211	0x3d6d9ecb	0.058012765
212	0xbd1b528a	-0.037920512
213	0xbd474647	-0.048651006
214	0x3d968821	0.07350183
215	0xbd89016b	-0.066897236
216	0xbdac1829	-0.08403046
217	0x3c5fa005	0.0136489915
218	0x3bd6b3d4	0.006552199
219	0x3dc6a8cb	0.097001635
220	0x3c50dcac	0.012747925
221	0xbc2d0e8b	-0.010562549
222	0xbd982729	-0.07429344
223	0x3d1179a0	0.03551638
224	0x3c84227d	0.016129727
225	0x3bb19eef	0.0054205577
226	0x3d0837e8	0.03325644
227	0xbe006a42	-0.12540534
228	0xbd110503	-0.03540517
229	0x3d28d4fc	0.041218743
230	0xbe03ec59	-0.12883128
231	0xbd68fe85	-0.056883354
232	0x3bb39a1a	0.005481017
233	0xbd6bd012	-0.05757148
234	0xbdf6a579	-0.1204328
235	0x3de355f6	0.1110038
236	0x3d25f967	0.04052105
237	0xbcb3caf7	-0.021947367
238	0xbcd7d1fb	-0.026345244
239	0x3e109976	0.1412104
240	0xba92e77c	-0.0011207904
241	0x3d97d3f6	0.07413475
242	0xbdd1862c	-0.102306694
243	0x3d9bcf20	0.07607865
244	0x3d703894	0.058647707
245	0x3d08b56e	0.03337615
246	0x3dbafd29	0.09130318
247	0x3d9cb416	0.07651536
248	0x3e071488	0.13191426
249	0x3dea50f8	0.11441225
250	0xbda728cf	-0.081620805
251	0x3d07554d	0.033040334
252	0x3d609511	0.05482966
253	0xbd980b17	-0.0742399
254	0xbc409c75	-0.011756052
255	0xbdc4df00	-0.096128464

encoder.0.bias f4 [16]
0	0xbd80f4a1	-0.06296659
1	0xbdb41d24	-0.08794621
2	0xbda9ab68	-0.08284646
3	0xbde5db7e	-0.112235054
4	0x3dca566f	0.09879767
5	0xbd11a225	-0.035555024
6	0xbd921d68	-0.07134515
7	0x3b8486a1	0.0040443693
8	0xbcb8fd53	-0.022581732
9	0x3e127ff0	0.14306617
10	0xbcffb326	-0.031213354
11	0x3c69b94e	0.0142653715
12	0xbdfb78ac	-0.12278876
13	0xbdf299ec	-0.118457645
14	0x3de53743	0.11192181
15	0x3d51855f	0.051152583

encoder.1.weight f4 [16]
0	0x3f815a40	1.0105667
1	0x3f80b2b3	1.0054535
2	0x3f806687	1.0031289
3	0x3f8005df	1.0001792
4	0x3f808d05	1.0043036
5	0x3f7df756	0.9920553
6	0x3f80ff92	1.0077994
7	0x3f73f3e6	0.95294034
8	0x3f7ebbae	0.99505126
9	0x3f7e63d5	0.9937108
10	0x3f7f3362	0.9968778
11	0x3f7dc321	0.9912587
12	0x3f7fcf7d	0.99925977
13	0x3f8034ef	1.0016154
14	0x3f7e4ccb	0.99335927
15	0x3f7faf2d	0.9987667

encoder.1.bias f4 [16]
0	0xbd8bfea1	-0.06835676
1	0xbc34d163	-0.01103625
2	0xbd7e9234	-0.06215115
3	0xbcc7d4b7	-0.024393423
4	0xbd461669	-0.048361216
5	0xbd2eac00	-0.0426445
6	0xbc337601	-0.010953427
7	0xbd2dca92	-0.042429514
8	0xbc972b6a	-0.018453319
9	0xbdd86fcf	-0.10568201
10	0xbd6705a4	-0.056401864
11	0xbc599bc1	-0.0132817635
12	0xbdab1e74	-0.08355418
13	0xba8e1f82	-0.001084313
14	0xbd8a92c7	-0.06766277
15	0xbd19e033	-0.03756733

encoder.1.running_mean f4 [16]
0	0xbeb60def	-0.35557505
1	0x3f4f32f9	0.80937153
2	0xbf55aa4a	-0.83462965
3	0x3efacdbb	0.48985085
4	0xbe880068	-0.2656281
5	0x3e20875d	0.15676637
6	0x3f16c037	0.58887047
7	0x3e14fa32	0.14548567
8	0xbec4a9aa	-0.38410693
9	0xbf1c9f84	-0.611809
10	0x3f2f4a77	0.68473
11	0x3ede8a34	0.43464816
12	0x3ec40386	0.38283938
13	0x3e8ef189	0.27918652
14	0xbea7e827	-0.32794306
15	0x3f00dc44	0.503361

encoder.1.running_var f4 [16]
0	0x3d085df8	0.03329274
1	0x3e1a19ec	0.15048951
2	0x3df68470	0.12036979
3	0x3d9d17c8	0.076705515
4	0x3c921b33	0.017835235
5	0x3b86facd	0.0041192533
6	0x3d8f40b7	0.06994765
7	0x3bc750c8	0.006082628
8	0x3c3e1b16	0.0116031375
9	0x3e04137b	0.12898056
10	0x3d81e125	0.06341771
11	0x3c77b98d	0.015119922
12	0x3cd71250	0.02625385
13	0x3d88490e	0.06654559
14	0x3d9cfb9b	0.076651774
15	0x3da5355d	0.08066819

encoder.4.weight f4 [32, 16, 4, 4]
0	0xbca7a865	-0.020466039
1	0xbd31a27a	-0.04336784
2	0x3d251d4f	0.040311154
3	0x3c1033b6	0.008801391
4	0xbcc6ddb2	-0.024275634
5	0x381f704a	3.801313e-05
6	0x3d991e89	0.07476527
7	0xbd453cd2	-0.048153706
8	0xbcfea2ed	-0.031083548
9	0x3db4d823	0.08830287
10	0xbca00497	-0.019533439
11	0xbce7c4c7	-0.028292073
12	0x3c58beaf	0.013229056
13	0x3d5a7da1	0.053342465
14	0x3d5dca57	0.054148044
15	0xbd32cf91	-0.043654982
16	0xbbb3667c	-0.0054748636
17	0xbc4c8d91	-0.012484924
18	0x3c0bd152	0.008533793
19	0x3c7d5c3c	0.015463885
20	0xbbbab78a	-0.005698149
21	0xbda7ce08	-0.08193594
22	0xbd8feeb6	-0.070279524
23	0xbc222f3a	-0.009898955
24	0xbd26cb87	-0.040721443
25	0xbc8fb8ca	-0.017544169
26	0xbd86091a	-0.06544705
27	0x3d4f26bd	0.050574053
28	0x3d10db80	0.03536558
29	0xbd0539fa	-0.032525994
30	0xbd1fa771	-0.038978044
31	0xbc837438	-0.016046628
32	0x3d26ed29	0.040753517
33	0x3bd4966e	0.006487659
34	0xbcfc1b0a	-0.030774612
35	0x3d299d84	0.041409984
36	0x3d460316	0.048342787
37	0x3d547ec8	0.05187872
38	0x3b266cfd	0.0025394552
39	0x3c882f15	0.016624013
40	0xbca46a80	-0.020070314
41	0x3d8f6f05	0.07003597
42	0xbba451ff	-0.0050146575
43	0x3d1bc215	0.038026888
44	0xbd1c8707	-0.03821471
45	0x3da121f9	0.07867808
46	0x3da69122	0.08133151
47	0x3d397bc1	0.045284037
48	0x3d8a4cab	0.067529045
49	0xbc28d883	-0.010305527
50	0x3d3e1bff	0.046413418
51	0x3c2361db	0.009972061
52	0x3c86158d	0.016367698
53	0x3c673984	0.014112834
54	0xbc569c81	-0.013098837
55	0x3c9e3010	0.019310027
56	0xba80f489	-0.0009838502
57	0xbd1ec606	-0.03876307
58	0xbdbfc310	-0.09363377
59	0x3d57e72a	0.05271069
60	0x3c46e271	0.012138949
61	0xbd138ffd	-0.03602599
62	0xbd8de7f7	-0.069290094
63	0xbc84bd4a	-0.016203541
64	0xbd5caf4f	-0.053878125
65	0x3cd29eea	0.025710542
66	0x3cb48eee	0.02204081
67	0xbc0d8c61	-0.008639426
68	0xbd064fe1	-0.032791022
69	0x3db40cad	0.0879148
70	0x3de67175	0.11252109
71	0x3d5451ed	0.051835943
72	0x3d921d8e	0.07134543
73	0x3cb9a8a7	0.022663428
74	0x3dc9ab76	0.09847157
75	0x3d50e6af	0.051001247
76	0xbc87d065	-0.016578862
77	0xbbc2fd7c	-0.005950628
78	0x3dbcc5b3	0.09217396
79	0xbc2e995b	-0.01065668
80	0xb93460e8	-0.00017202238
81	0x3d43dca7	0.047817852
82	0x3caf03ff	0.02136421
83	0x3d4a1849	0.049339566
84	0xbc30ad6c	-0.0107835345
85	0xbd24b808	-0.04021457
86	0xbd4315d5	-0.047628243
87	0x3da509bc	0.08058497
88	0xbd2079a9	-0.039178524
89	0xbc281445	-0.010258739
90	0x3cb4a51d	0.022051388
91	0x3d240ff1	0.040054265
92	0xbbb60ecb	-0.0055559627
93	0x3d883b2e	0.06651913
94	0xbc27dc45	-0.010245387
95	0x3c843875	0.016140202
96	0x3d9cb3f9	0.076515146
97	0x3d52a627	0.051427986
98	0xbd49aefc	-0.049239144
99	0x3d298ee8	0.04139605
100	0x3d1b3c65	0.037899394
101	0xbd2e7143	-0.042588484
102	0xbce1776e	-0.027522769
103	0xbcc83f72	-0.024444316
104	0x3d00bd73	0.031430673
105	0xbd897084	-0.06710914
106	0xbd860b14	-0.06545082
107	0xbd9b8283	-0.075932525
108	0xbcc10c80	-0.02356553
109	0xbd0ea5ba	-0.034826018
110	0xbc3875c9	-0.011258551
111	0xbd99aee8	-0.07504064
112	0xbc3af153	-0.011410075
113	0x3cfbc489	0.030733364
114	0xbc238c3b	-0.009982164
115	0xbcf1f926	-0.029537749
116	0xbcce4451	-0.02517906
117	0xbd4183ca	-0.047244824
118	0xbd271204	-0.040788665
119	0xbcc95151	-0.024574907
120	0x3c0e9590	0.008702651
121	0x3ca3f6c7	0.020015134
122	0xbd46e2ba	-0.048556067
123	0x3c288355	0.010285218
124	0x3cc96af5	0.024587134
125	0x3c54d798	0.012990855
126	0x3c0f4e59	0.008746707
127	0x3d6dce3b	0.058058005
128	0xbd1ac6ca	-0.037787236
129	0xbd041fef	-0.032257017
130	0x3d810068	0.062989056
131	0xbd3f1d8d	-0.04665904
132	0x3c8a8e37	0.016913516
133	0x3c4c26ff	0.012460469
134	0x3d7bff9e	0.061523072
135	0x3d837b0d	0.064199544
136	0x3d2fa33c	0.04288028
137	0x3d81715a	0.06320448
138	0x3dc8ed33	0.09810867
139	0x3c0a376b	0.008436064
140	0x3c7fd0c9	0.015613743
141	0xbcc7cd4b	-0.024389884
142	0xbc6e2cf4	-0.014537085
143	0xbcb68b76	-0.022283297
144	0x3d82bdef	0.06383883
145	0x3d226c48	0.039654046
146	0xbca2f924	-0.01989419
147	0xbd37caa3	-0.044870984
148	0x3d9400d2	0.07226719
149	0x3d2da700	0.04239559
150	0xbc41a442	-0.011818947
151	0xbd320341	-0.043460134
152	0xbce533e3	-0.027978843
153	0x3dd1dd08	0.102472365
154	0x3b0ae4f3	0.0021193593
155	0x3d415e82	0.04720927
156	0xbcd3ff52	-0.025878582
157	0x3bf887aa	0.007584532
158	0x3da63b78	0.081168115
159	0xbcfcadd0	-0.030844599
160	0x3ce45d10	0.027876407
161	0x3ccaacd9	0.024740623
162	0x3d016a56	0.03159555
163	0x3de745dd	0.11292622
164	0xbc49ed09	-0.01232458
165	0xbd7bcd21	-0.061474923
166	0xbd2d8c84	-0.042370334
167	0x3d922f3f	0.07137918
168	0xbd87adc8	-0.06624943
169	0xbd8e2c44	-0.06942037
170	0xbd935c57	-0.07195347
171	0x3d6d7c23	0.057979714
172	0xbd2565e4	-0.040380374
173	0xbd2a9862	-0.04164923
174	0xbc3a1e07	-0.011359698
175	0x3da34aa6	0.079732224
176	0xbc33d4e3	-0.010976049
177	0x3bb2754b	0.0054461113
178	0x3d4924e5	0.04910745
179	0x3d1a71f8	0.037706345
180	0x3d6ee922	0.0583278
181	0xbc754cf3	-0.014971959
182	0x3d972bd8	0.073814094
183	0x3d82e3f4	0.06391135
184	0xbd384bfe	-0.044994347
185	0xbd42d127	-0.047562744
186	0x3c386315	0.011254092
187	0x3bd39d67	0.006457973
188	0xbd4b1c7d	-0.049587715
189	0x3d44a3f9	0.04800794
190	0xbb1feeb3	-0.002440375
191	0xba95ca1f	-0.0011428035
192	0x3e13f7fc	0.14450067
193	0x3db54248	0.08850533
194	0x3d137924	0.0360042
195	0x3cce715f	0.025200544
196	0x3cd60896	0.026127141
197	0x3dc158d8	0.09440774
198	0x3d209567	0.03920498
199	0x3db26dc9	0.08712346
200	0xbc8128a9	-0.015766459
201	0x3c6eba04	0.014570717
202	0x3d2d1c0c	0.042263076
203	0x3db034a1	0.08603788
204	0x3d6f7f94	0.058471277
205	0x3c1c6347	0.009545154
206	0x3d2d6868	0.042335898
207	0x3dc10a49	0.0942579
208	0xbcfe0726	-0.031009268
209	0xbd0f67a2	-0.03501094
210	0xbbada7f0	-0.0052995607
211	0x3c861fbc	0.016372554
212	0xbc331923	-0.010931286
213	0xbd0bc357	-0.034121837
214	0xbca8e9b9	-0.02061926
215	0xbc08eb97	-0.00835695
216	0xbda8e150	-0.082461
217	0xbd8fea03	-0.07027056
218	0x3d241b28	0.04006496
219	0x3d8d34ba	0.068948224
220	0xbde3dd40	-0.111261845
221	0xbd84ee47	-0.0649076
222	0xbd72225e	-0.059114806
223	0xbbf3d39b	-0.007440997
224	0xbbe780fd	-0.007064937
225	0xbba8f5bf	-0.0051562483
226	0xba0dac8a	-0.00054044335
227	0xbd4bd4e6	-0.049763583
228	0xbb1beb00	-0.0023791194
229	0x3ddace6f	0.10683905
230	0x3ca8d8ad	0.020611132
231	0x3d8c1771	0.068404086
232	0xbc359fb5	-0.01108544
233	0x3d69e31f	0.057101365
234	0x3dbde704	0.09272578
235	0xbd00e372	-0.03146691
236	0xbbfd5ac2	-0.0077317664
237	0x3cb1b32d	0.021691883
238	0x3c8c147f	0.017099617
239	0xbaa41d63	-0.0012520965
240	0xbcf90233	-0.030396556
241	0x3d237b33	0.039912414
242	0xbaa4bca0	-0.0012568422
243	0x3d52bfee	0.05145257
244	0x3c280c1c	0.010256793
245	0xbc77ebc5	-0.015131895
246	0xbd57981f	-0.05263531
247	0xbda416b9	-0.080121465
248	0xbd5816cb	-0.052756112
249	0xbd00761a	-0.03136263
250	0xbc1756e8	-0.009237029
251	0xbdac8b85	-0.08425049
252	0xbd5ad29a	-0.0534235
253	0xbd37d9f9	-0.04488561
254	0xbdafc0cf	-0.08581697
255	0xbd102170	-0.03518814

encoder.4.bias f4 [32]
0	0xbd83b49d	-0.064309336
1	0xbd53c199	-0.0516983
2	0xbe16627c	-0.14686006
3	0xbdf21209	-0.11819846
4	0xbdb597b2	-0.08866824
5	0xbe15f690	-0.14644837
6	0xbdb4cca8	-0.088280976
7	0xbe033c12	-0.12815884
8	0xbe07b5b3	-0.13252907
9	0xbe138e2c	-0.14409703
10	0xbe165435	-0.1468056
11	0xbda9644a	-0.08271082
12	0xbdf12e56	-0.11776416
13	0xbe042945	-0.12906368
14	0xbe07d794	-0.1326583
15	0xbddfd9be	-0.10930203
16	0xbe17d34b	-0.14826696
17	0xbe3305c5	-0.1748267
18	0xbe4cebd5	-0.20011838
19	0xbdc2538b	-0.09488591
20	0xbdda71a0	-0.106662035
21	0xbe006641	-0.12539007
22	0xbdd8d386	-0.1058722
23	0xbe14a223	-0.14514975
24	0xbd094bec	-0.03351967
25	0xbe2c3069	-0.16815342
26	0xbe300653	-0.17189912
27	0xbe2d441f	-0.16920517
28	0xbe0f2f0f	-0.13982795
29	0xbe0d912f	-0.13824914
30	0xbe0ef21b	-0.13959543
31	0xbe1f079b	-0.15530245

encoder.5.weight f4 [32]
0	0x3f7fb435	0.9988435
1	0x3f7b4e20	0.98166084
2	0x3f7c6c2b	0.9860255
3	0x3f7f26e4	0.9966872
4	0x3f7eb4a6	0.994944
5	0x3f814b0b	1.0101026
6	0x3f7e38b0	0.9930525
7	0x3f7f119e	0.99636257
8	0x3f806f81	1.0034028
9	0x3f7ccf6e	0.9875401
10	0x3f7e48cf	0.9932985
11	0x3f864920	1.0491066
12	0x3f7e288d	0.99280626
13	0x3f81acb6	1.0130832
14	0x3f7f1b89	0.9965139
15	0x3f820a42	1.015938
16	0x3f8149aa	1.0100605
17	0x3f80ead4	1.0071664
18	0x3f792c99	0.97333676
19	0x3f7fd536	0.9993471
20	0x3f8067a4	1.0031629
21	0x3f7c0191	0.9843989
22	0x3f804187	1.0019997
23	0x3f8075e7	1.0035981
24	0x3f818eee	1.0121744
25	0x3f7e6f72	0.993888
26	0x3f8115b7	1.0084752
27	0x3f82209d	1.0166203
28	0x3f7aff21	0.98045546
29	0x3f7ef89d	0.99598104
30	0x3f7ec7b6	0.99523485
31	0x3f824564	1.0177426

encoder.5.bias f4 [32]
0	0x3a33d863	0.0006860552
1	0x3b71686b	0.003683592
2	0xbc5fa414	-0.013649959
3	0xbc60c144	-0.013717953
4	0xbd3a00a8	-0.045410782
5	0x3c178300	0.009247541
6	0xbd403f03	-0.046935093
7	0x3a36a938	0.00069679646
8	0xbc429678	-0.011876695
9	0xbd859206	-0.065219924
10	0xbc883339	-0.016625987
11	0x39ae93aa	0.00033297885
12	0xbc68a9b4	-0.014200617
13	0xbcfa8174	-0.030579306
14	0xbbec165f	-0.0072048153
15	0xbba2f0b8	-0.0049725436
16	0xbc0d84cc	-0.008637618
17	0xbd4e9aca	-0.050440587
18	0xbd35c25a	-0.0443748
19	0xbb883362	-0.004156516
20	0xbbb504c4	-0.0055242497
21	0xbc41bbf5	-0.011824598
22	0xbd9c289d	-0.07624934
23	0xbcaeb0c6	-0.021324527
24	0x3cabfbb5	0.020994047
25	0xbbdfef79	-0.0068339673
26	0xbb3a288e	-0.002840552
27	0x3d40a5c6	0.047033094
28	0xbcd9cafd	-0.02658605
29	0xbc3374fe	-0.010953186
30	0xbccddc23	-0.025129383
31	0xbbbbb4ee	-0.0057283556

encoder.5.running_mean f4 [32]
0	0x3da8516b	0.08218654
1	0x3e481579	0.19539441
2	0x3df01293	0.11722293
3	0x3d950c02	0.07277681
4	0x3f99af58	1.2006636
5	0xbcedc950	-0.029026657
6	0x3e490a3d	0.19632812
7	0xbe0ee977	-0.13956247
8	0xbcfe61d3	-0.031052506
9	0x3f243c35	0.6415437
10	0xbe15d8b8	-0.14633453
11	0xbe98ed35	-0.29868475
12	0xbe417b95	-0.18894799
13	0xbe8194b6	-0.2530877
14	0xbcdbf149	-0.026848452
15	0x3f771e84	0.9653094
16	0x3f45585f	0.7708797
17	0x3f1f7c75	0.6229928
18	0xbe215b7e	-0.15757558
19	0xbf2ca8de	-0.6744517
20	0xbc14c4ab	-0.009080092
21	0xbe2ef38d	-0.17085095
22	0x3f9c21d5	1.2197825
23	0x3f75475f	0.9581203
24	0x3d068f12	0.032851286
25	0xbe49fd00	-0.19725418
26	0xbdb9f6dc	-0.09080288
27	0xbf957722	-1.1676981
28	0xbe903c0b	-0.2817081
29	0x3cb52ea9	0.022116976
30	0xbf362b31	-0.71159655
31	0x3f7b34cd	0.9812744

encoder.5.running_var f4 [32]
0	0x3f5b2e24	0.8561728
1	0x3fb24cdb	1.3929704
2	0x3f512c2a	0.81708014
3	0x403d8089	2.9609702
4	0x3f2acbec	0.6671741
5	0x3f511f87	0.8168873
6	0x3fc048b7	1.5022191
7	0x3f75cdfe	0.96017444
8	0x3eace281	0.3376656
9	0x3ed366d8	0.412894
10	0x3e589787	0.21151553
11	0x3e494c62	0.19658044
12	0x3f82bb58	1.0213423
13	0x3e6e6862	0.23282006
14	0x3f7b6225	0.9819663
15	0x3fca5f2d	1.5810295
16	0x3f72efe7	0.9489731
17	0x3f3abe06	0.729462
18	0x3f157d08	0.5839391
19	0x400873cd	2.132068
20	0x3f4db982	0.8036119
21	0x3f3603a3	0.710993
22	0x3e98f2db	0.29872784
23	0x3f969d91	1.1766835
24	0x3ff31a01	1.8992311
25	0x3f769d4c	0.96333766
26	0x3f8c8051	1.0976659
27	0x3f5944be	0.8487052
28	0x3ed40193	0.4140745
29	0x3fb12814	1.3840356
30	0x3f1f0d76	0.62129915
31	0x3fec3944	1.8454976

encoder.8.weight f4 [64, 32, 4, 4]
0	0xbcf93f40	-0.030425668
1	0x3ca1b3d2	0.019739065
2	0x3b650209	0.003494384
3	0xbca54721	-0.020175518
4	0xbc8415f0	-0.016123742
5	0x3d08083b	0.033210974
6	0x3c3f0f30	0.011661336
7	0x3d0b945d	0.034077037
8	0xbcf02cbb	-0.029318204
9	0x3cfa3f6c	0.03054782
10	0x3db49cd9	0.08818979
11	0xbc3d4b10	-0.011553541
12	0xbc853f63	-0.016265577
13	0x39a77b2d	0.00031944495
14	0x3d88c787	0.06678682
15	0x3bdca0af	0.006733022
16	0x3d165b79	0.03670833
17	0x3ca801e7	0.02050872
18	0x3c9ad342	0.018899564
19	0xbd3bba39	-0.045831893
20	0x3d144a80	0.03620386
21	0x3cf8eca7	0.030386282
22	0x3da3ba28	0.07994491
23	0x3d3000bd	0.042969454
24	0xbce1042a	-0.027467806
25	0xba3be85d	-0.0007168109
26	0x3cf72c6d	0.030172551
27	0x3b87742b	0.0041337213
28	0xbd188a30	-0.03724116
29	0x3cbf1ff7	0.023330672
30	0x3d5057d0	0.050864995
31	0xbc05b854	-0.008161623
32	0xbb5fed8c	-0.0034168689
33	0x3c6b023b	0.0143437935
34	0xbd1ea095	-0.03872736
35	0x3d203607	0.039114024
36	0xba413e72	-0.0007371671
37	0xbd0917bb	-0.033469897
38	0x3c848937	0.01617871
39	0x3b8563c5	0.0040707313
40	0xbbcf3033	-0.0063228845
41	0xbcb3068c	-0.021853708
42	0xbd7beb4c	-0.061503693
43	0x3d0bf273	0.034166764
44	0x3b24f2c3	0.0025169111
45	0xbd530f4a	-0.051528253
46	0x3c8f2140	0.01747191
47	0xbd041094	-0.032242373
48	0x3cd1cfca	0.025611777
49	0xbc21ff92	-0.009887593
50	0xbd2b14fe	-0.041768067
51	0x3cba2bd9	0.022725986
52	0xbd748a76	-0.05970236
53	0xbd6cf9ad	-0.057855297
54	0xbd934229	-0.071903534
55	0xbd81ac9d	-0.063317515
56	0xbd1c6f72	-0.03819222
57	0xbca364cb	-0.019945523
58	0xbd514d2c	-0.051098987
59	0x393a1b0b	0.00017748417
60	0x3ca975ba	0.02068602
61	0xbd614f11	-0.055007044
62	0xbcd74c27	-0.02628143
63	0xbd66097d	-0.056161392
64	0xbb454c68	-0.0030105356
65	0xbce696c7	-0.028148068
66	0x3d50ed3c	0.051007494
67	0x3c4838a2	0.012220534
68	0xbc92562a	-0.017863352
69	0x3d59e1dd	0.053193916
70	0x3d6fd94a	0.058556832
71	0x3d64bb1c	0.055842504
72	0xbc349695	-0.01102223
73	0xbbe86629	-0.0070922566
74	0x3d4ff40b	0.050769847
75	0x3d1135c1	0.035451654
76	0xbd14955e	-0.03627526
77	0x3d1ea53e	0.038731806
78	0x3d04b13d	0.03239559
79	0xbc2917a9	-0.010320582
80	0xbcb13071	-0.021629544
81	0x3a55fd1e	0.00081630226
82	0xbd295a86	-0.041346096
83	0xbca15ba9	-0.019697027
84	0xbbf5540b	-0.0074868253
85	0x3b91a8a6	0.0044451533
86	0xbccc7262	-0.024956886
87	0xbc2f6111	-0.010704295
88	0x3a9dcefc	0.0012039836
89	0x3d6242b4	0.055239394
90	0x3d213a70	0.03936237
91	0xbb6ac626	-0.0035823672
92	0xbba15ae0	-0.004924163
93	0xbb8ec904	-0.004357459
94	0x3cba3ec0	0.022735
95	0x3cd43bff	0.025907515
96	0xbc9c4c52	-0.019079361
97	0xbcfb918d	-0.030709052
98	0xbd299a9b	-0.04140721
99	0xbc767abb	-0.01504391
100	0xbd10a044	-0.03530909
101	0xbd92ed2d	-0.07174144
102	0xbd5441a1	-0.0518204
103	0xbbd1ce4c	-0.0064027663
104	0xbcca2f75	-0.024680832
105	0xbbd9159f	-0.006624892
106	0xbd90c97b	-0.07069679
107	0x3cec05e0	0.028811395
108	0xbd01d821	-0.031700257
109	0xbccacb0e	-0.024755027
110	0xbd731a97	-0.05935153
111	0x3ccac505	0.02475215
112	0x3ce3d39f	0.02781087
113	0xbd7a2e05	-0.061079044
114	0xbc9c5105	-0.019081602
115	0x3c27a1c3	0.010231438
116	0xbd156663	-0.036474597
117	0xbc7ba97e	-0.015360234
118	0xbcccfde4	-0.025023408
119	0xbac5a81c	-0.0015080008
120	0xbd07278a	-0.03299669
121	0xbd826a29	-0.06367905
122	0xbd2404a1	-0.040043477
123	0xbd18d5bd	-0.03731321
124	0x3a101bb0	0.000549729
125	0xbcd1faae	-0.025632229
126	0xbd129514	-0.035786703
127	0xbd8d8e10	-0.06911862
128	0x3c83efe8	0.016105607
129	0x3c99a809	0.018756883
130	0xbd9a4413	-0.075325154
131	0xbaf3849b	-0.0018578948
132	0xbc531b18	-0.012884878
133	0xbd1e3e81	-0.038633827
134	0xbdd72e54	-0.10506883
135	0x3b3a1532	0.002839398
136	0x3d17f800	0.037101746
137	0x3d59a926	0.05313983
138	0xbd89c1b5	-0.067264
139	0x3c0e6552	0.008691149
140	0x3cf3315c	0.029686622
141	0x3c35a029	0.011085548
142	0xbd862b42	-0.065512195
143	0xbd350df6	-0.044202767
144	0x3ab1001a	0.0013504059
145	0x3d1cc062	0.038269408
146	0x3c911eb9	0.017714845
147	0x3cd4dad2	0.025983248
148	0xbca6d6de	-0.020366129
149	0xbc2fb6b4	-0.010724712
150	0x3d8eca5b	0.0697219
151	0x3ceb37ef	0.028713195
152	0x3c86a8dd	0.016437942
153	0x3b1ca925	0.002390453
154	0x3cddfd55	0.027098337
155	0xbc39e68d	-0.0113464715
156	0x3d12055c	0.035649642
157	0xbb420c51	-0.0029609392
158	0xbcd0c571	-0.025484772
159	0xbd26e20b	-0.040742915
160	0xbd06a8cd	-0.032875825
161	0xbaf56d65	-0.0018724619
162	0xbd12bcc9	-0.03582457
163	0xbc538df5	-0.012912263
164	0xbd052fb0	-0.03251618
165	0x3c4f8bc3	0.012667599
166	0xbc8fa4dd	-0.017534668
167	0xbd20c86d	-0.03925364
168	0xbc86326c	-0.016381465
169	0x3c44b65c	0.0120063685
170	0xbc39db3a	-0.011343772
171	0xbc3fdeff	-0.011710881
172	0x3cad8fff	0.021186827
173	0xbb90a9e0	-0.004414782
174	0x3d4ad3d8	0.049518436
175	0x3c738289	0.014862665
176	0x3d06dcc5	0.032925386
177	0x3c292ea8	0.010326065
178	0x3c86db7e	0.016462084
179	0x3cf41df4	0.029799439
180	0x3c0fadf4	0.008769501
181	0x3d55cb9f	0.05219614
182	0xbc414891	-0.011797086
183	0x3c0021cb	0.007820557
184	0x3d1cd3a0	0.03828776
185	0x3ccdd79c	0.025127225
186	0xbc5ca498	-0.013466977
187	0xbbbf366f	-0.0058353464
188	0xbd17f001	-0.03709412
189	0x3cf3dac0	0.029767394
190	0x3ab76288	0.0013991157
191	0x3b2135dc	0.0024598753
192	0xbc57425a	-0.013138378
193	0xbba417dc	-0.005007727
194	0xbd47e8eb	-0.048806112
195	0xbb4a76ad	-0.003089349
196	0xbca1e998	-0.019764706
197	0xbbdd065b	-0.0067451424
198	0xbda873e2	-0.08225228
199	0xbcc260a6	-0.023727726
200	0xbce92d99	-0.028464125
201	0xbd592a83	-0.053019058
202	0xbbf472d2	-0.0074599767
203	0xbd5bc81a	-0.05365763
204	0xbcbcd5e8	-0.023051217
205	0xbb9f0721	-0.0048531448
206	0xbbfe1b76	-0.0077547384
207	0xbc7b44f8	-0.015336268
208	0x3d286ebf	0.04112124
209	0xbc072111	-0.00824763
210	0x3d36f107	0.044663455
211	0xbb614a22	-0.0034376462
212	0xbb76eb67	-0.0037676932
213	0xbb925d4f	-0.0044666897
214	0x3d2532ee	0.040331773
215	0x3b84c6ff	0.0040520425
216	0xbca359bf	-0.019940255
217	0xbdc1831a	-0.09448834
218	0xbb854792	-0.0040673697
219	0x3d2d910e	0.042374663
220	0xba6f23f7	-0.00091224856
221	0xbd03f405	-0.032215137
222	0x3d027376	0.031848393
223	0x3c727fcc	0.014800977
224	0x3c3fc27b	0.011704083
225	0x3c6b24b2	0.014352011
226	0xbcdff583	-0.027338749
227	0x3ca89896	0.020580571
228	0xbc20492c	-0.009783071
229	0x3d82913a	0.06375356
230	0x3d374ead	0.044752765
231	0xbccffff6	-0.025390606
232	0xbc285012	-0.0102729965
233	0x3d91dd20	0.07122254
234	0x3d19b104	0.03752233
235	0x3ccee5ef	0.025256125
236	0x3c4877c2	0.012235584
237	0x3ce0fa4f	0.027463106
238	0x3d08a3f3	0.03335948
239	0xbc57fece	-0.013183309
240	0x3cb6fbc8	0.022336856
241	0xbd4e7f67	-0.05041447
242	0xbd6f0f64	-0.058364287
243	0x3d011300	0.03151226
244	0xbc128fbf	-0.008945405
245	0xbc3583ef	-0.011078819
246	0xbd16382a	-0.036674656
247	0xbd1089ca	-0.035287656
248	0xbc0820ac	-0.008308571
249	0xbd5da48f	-0.054112013
250	0x3c2f4234	0.010696936
251	0xbcb247bc	-0.021762721
252	0x3bbfc54b	0.0058523766
253	0xbcefe02f	-0.029281704
254	0xbd2b81c5	-0.041871805
255	0xbd0e0f4b	-0.034682553

encoder.8.bias f4 [64]
0	0xbbf9ea3a	-0.007626799
1	0xbc905c72	-0.017622206
2	0xbb8dee86	-0.0043314127
3	0x3d59a382	0.05313445
4	0x3a5e72e6	0.0008485749
5	0xb99e1759	-0.00030153504
6	0x3c8f52d9	0.01749556
7	0xbcb2f7fb	-0.021846762
8	0x3d254548	0.040349275
9	0x3ad56737	0.0016281371
10	0x3cb71e14	0.02235321
11	0xbcd58e2f	-0.026068775
12	0x3c276c28	0.010218658
13	0xbb8d3a70	-0.004309945
14	0x3cd77d3b	0.026304832
15	0x3c9ad9dc	0.018902712
16	0x3cb7ee7c	0.022452585
17	0xbad3ca21	-0.0016158262
18	0xbd394e7f	-0.045240875
19	0x3ca9eab4	0.020741798
20	0x3cebbed5	0.02877752
21	0x3c8383d7	0.016054077
22	0xbd689af3	-0.056788396
23	0xbd1305b3	-0.035894107
24	0xbd2b5317	-0.041827288
25	0x3c653499	0.013989591
26	0xbca09315	-0.019601384
27	0x3cf8c8d6	0.030369204
28	0xbb8547a9	-0.0040673804
29	0xba34a16c	-0.0006890509
30	0xbd10a602	-0.035314567
31	0xbd5fd921	-0.05465043
32	0xbd5f1610	-0.0544644
33	0xbc9e2639	-0.019305335
34	0xbd5373d7	-0.051624145
35	0xbd14cd5f	-0.03632867
36	0xbcbd73f9	-0.02312659
37	0x3bdfeca0	0.006833628
38	0xbd61df55	-0.055144627
39	0x3d4d8ba8	0.050182015
40	0x3cd85fa8	0.0264128
41	0xbc2c1b47	-0.01050455
42	0xbd8e4b42	-0.06947948
43	0xbcaa1e46	-0.020766389
44	0xbda2be29	-0.079464264
45	0xbc9c35a2	-0.019068543
46	0xbbce2dd1	-0.006292083
47	0xbc9f0752	-0.01941267
48	0xbd2a7289	-0.041613135
49	0xbcc2a13c	-0.023758523
50	0x3c76be76	0.015060058
51	0xbca86237	-0.020554645
52	0xbc80571f	-0.015666543
53	0x3c7746d5	0.015092571
54	0xbd891129	-0.06692726
55	0xbc656fd5	-0.014003714
56	0x3a40a623	0.0007348975
57	0x3d2e7114	0.04258831
58	0x3d22a4ca	0.039707936
59	0xbccb237a	-0.02479719
60	0x3c208273	0.0097967265
61	0x3c2f4548	0.01069767
62	0x3ab0a584	0.0013477062
63	0xbb61365e	-0.003436468

encoder.9.weight f4 [64]
0	0x3f849120	1.0356789
1	0x3f805735	1.0026613
2	0x3f8004ed	1.0001503
3	0x3f833e0c	1.025331
4	0x3f823bbb	1.0174478
5	0x3f7f0c6f	0.9962835
6	0x3f7ea414	0.99469113
7	0x3f7beb14	0.98405576
8	0x3f81587f	1.0105132
9	0x3f7f35d5	0.99691516
10	0x3f7fae16	0.9987501
11	0x3f808bce	1.0042665
12	0x3f8037b7	1.0017003
13	0x3f80f003	1.0073246
14	0x3f805110	1.0024738
15	0x3f792107	0.9731602
16	0x3f841273	1.031813
17	0x3f802459	1.0011092
18	0x3f8128d0	1.009058
19	0x3f7c0fef	0.9846181
20	0x3f80ed54	1.0072427
21	0x3f808599	1.0040771
22	0x3f799563	0.9749357
23	0x3f7caa16	0.9869703
24	0x3f805c85	1.0028235
25	0x3f7f330b	0.9968726
26	0x3f785a00	0.9701233
27	0x3f7c294c	0.98500514
28	0x3f843d08	1.0331125
29	0x3f8133aa	1.0093892
30	0x3f86786a	1.0505497
31	0x3f7916f5	0.97300655
32	0x3f7d4cc2	0.9894525
33	0x3f81ae00	1.0131226
34	0x3f79f361	0.9763699
35	0x3f85608f	1.0420092
36	0x3f7ff713	0.9998638
37	0x3f7db0f0	0.9909811
38	0x3f7a95df	0.97884935
39	0x3f820af4	1.0159593
40	0x3f81d43f	1.0142897
41	0x3f7c15bd	0.9847067
42	0x3f8000ea	1.0000279
43	0x3f7c4881	0.9854813
44	0x3f7ad2a6	0.97977674
45	0x3f80adfd	1.0053097
46	0x3f808131	1.0039426
47	0x3f80e689	1.0070354
48	0x3f8112a7	1.0083817
49	0x3f7cac5b	0.98700494
50	0x3f802031	1.0009824
51	0x3f7ad901	0.9798737
52	0x3f80b4be	1.0055158
53	0x3f828f80	1.0200043
54	0x3f773198	0.9656005
55	0x3f7d6ec3	0.98997134
56	0x3f80e3c6	1.0069511
57	0x3f7ed15e	0.9953822
58	0x3f86ce43	1.0531696
59	0x3f795333	0.97392577
60	0x3f829ffc	1.0205073
61	0x3f80b846	1.0056236
62	0x3f81cfeb	1.0141577
63	0x3f81b85c	1.0134387

encoder.9.bias f4 [64]
0	0x3c5f6df0	0.013637051
1	0xbd01d993	-0.031701636
2	0xbc176b69	-0.009241917
3	0x3d4f4969	0.05060712
4	0xbb8750d2	-0.0041295076
5	0xbbe4c8db	-0.0069819517
6	0x3c8e124f	0.017342715
7	0xbcad01ee	-0.021119084
8	0x3cb7c64d	0.022433424
9	0x3c136e86	0.008998519
10	0xbc91d3cc	-0.017801188
11	0xbbe74397	-0.007057618
12	0xbc31cc1d	-0.010851887
13	0xbc41f878	-0.011839025
14	0x3b66bcc3	0.0035207726
15	0xbca14056	-0.019683998
16	0x3cd17c5f	0.025572
17	0xba2f09bd	-0.00066771713
18	0xbbc02c56	-0.0058646603
19	0xbd00b830	-0.031425655
20	0xbbef42ed	-0.0073016793
21	0x3cfdcf74	0.03098271
22	0xbc872737	-0.016498191
23	0xbcbbdc62	-0.022932235
24	0x3cbffeed	0.023436988
25	0x3c865431	0.016397567
26	0xbc67c385	-0.014145737
27	0xbce19b80	-0.027539968
28	0xbcbc182f	-0.02296075
29	0xbcdd8561	-0.02704114
30	0x3caf17d9	0.021373676
31	0xbc9502e4	-0.018189855
32	0xbc18e5a6	-0.009332096
33	0x3a8fff3d	0.0010986101
34	0xbc8a6c07	-0.016897215
35	0x3c9b0c3e	0.018926736
36	0xbc91448d	-0.017732883
37	0xbc490b69	-0.012270787
38	0xbd1ac818	-0.03778848
39	0xbca19cf8	-0.019728169
40	0x3ca1865b	0.019717386
41	0xbc78be64	-0.015182111
42	0x3c771f42	0.015083136
43	0xba34814f	-0.00068857236
44	0xbce55e7d	-0.027999157
45	0xbd0b8c0a	-0.0340691
46	0xbb6c33af	-0.0036041548
47	0x3ce667a4	0.028125592
48	0xbbce2c41	-0.0062918966
49	0xbcce1bbd	-0.025159711
50	0x3cb1c837	0.021701915
51	0x3bd9e7cc	0.006649947
52	0xbae04ff4	-0.0017113672
53	0x3cec77df	0.028865753
54	0xbc702c0f	-0.014658942
55	0xbc5a8464	-0.013337228
56	0xbb46ddb4	-0.0030344548
57	0xbb719a2a	-0.003686557
58	0xbd050fb8	-0.032485694
59	0xbcfd2617	-0.030901952
60	0x3cb7ffe0	0.022460878
61	0x3c5550a0	0.013019711
62	0x3c0426a0	0.00806585
63	0x3b923083	0.0044613495

encoder.9.running_mean f4 [64]
0	0xbefea69e	-0.49736494
1	0x3eb581d1	0.35450605
2	0xbe9a3137	-0.30115673
3	0xbfd2f3ad	-1.6480614
4	0x3f1847d2	0.5948459
5	0xbe51e589	-0.20497717
6	0xbe861b0f	-0.2619252
7	0xbea351a8	-0.31898236
8	0xbe9c3a78	-0.30513358
9	0xbf4c277e	-0.7974776
10	0x3f3b9c8b	0.7328574
11	0x3986db36	0.00025721797
12	0xbe69c765	-0.22829969
13	0x3cceeee3	0.025260394
14	0x3d993188	0.074801505
15	0xbf2e7d23	-0.68159693
16	0xbf89b2a2	-1.075764
17	0xbeecad00	-0.4622574
18	0x3eb25292	0.3482862
19	0x3e426279	0.18982877
20	0xbb28ac19	-0.0025737344
21	0xbe34d26c	-0.17658395
22	0xbf3adb2d	-0.72990686
23	0xbeb77b9d	-0.35836497
24	0xbf0d490c	-0.55189586
25	0xbf18d34d	-0.5969742
26	0x3db7cde0	0.089748144
27	0xbf72abcb	-0.94793385
28	0xbe5ea5aa	-0.21742883
29	0xbe8b0d5f	-0.2715864
30	0xbe536e1e	-0.20647475
31	0xbec01bf5	-0.3752133
32	0xbf2ca945	-0.67445785
33	0x3e0e45ac	0.13893765
34	0xbf791662	-0.9729978
35	0xbf527d85	-0.8222278
36	0xbf5f53e2	-0.8723737
37	0x3f36bcb5	0.71381694
38	0xbf5cbbe4	-0.862242
39	0xbeed94ad	-0.46402493
40	0xbeaa72ad	-0.33290616
41	0xbe90221a	-0.28151017
42	0xbf0e73ee	-0.55645645
43	0xbf18b754	-0.59654737
44	0xbcef8f42	-0.029243115
45	0x3dc48986	0.09596543
46	0x3e10c38d	0.14137097
47	0xbeb26d86	-0.34849185
48	0x3e82aecd	0.25523987
49	0xbeb211ec	-0.34779298
50	0xbf05e20c	-0.52298045
51	0xbf8abb0b	-1.0838331
52	0xbd6a9a04	-0.057275787
53	0x3d10c755	0.035346348
54	0xbe84feaf	-0.25975558
55	0xbf2f96f4	-0.6858971
56	0xbd723ef9	-0.059142087
57	0xbda821d2	-0.08209576
58	0x3b29a525	0.0025885787
59	0x3d937d9c	0.072016925
60	0xbe517846	-0.20456037
61	0xbde35c2c	-0.11101565
62	0xbed294c1	-0.41129115
63	0xbed51b4d	-0.4162239

encoder.9.running_var f4 [64]
0	0x400c89dc	2.1959143
1	0x40811d41	4.034821
2	0x402ce298	2.7013302
3	0x3f951b56	1.1648967
4	0x406accd4	3.6687517
5	0x4070b8cf	3.7612798
6	0x40456c74	3.0847445
7	0x4007efd2	2.1240125
8	0x40432831	3.049328
9	0x400b7b08	2.1793842
10	0x40184dd6	2.3797507
11	0x40337614	2.804082
12	0x4021c386	2.5275588
13	0x401122b3	2.2677429
14	0x40808f2e	4.017478
15	0x3f96e8a1	1.1789743
16	0x3f63a3d1	0.8892184
17	0x4000ca61	2.0123522
18	0x400ad05a	2.1689668
19	0x405a5906	3.4116836
20	0x40676985	3.6158154
21	0x4025d00d	2.5908234
22	0x405cef29	3.4520972
23	0x3fbffb0e	1.4998491
24	0x4038f4f8	2.8899517
25	0x405b3f27	3.4257295
26	0x3fbea6de	1.4894674
27	0x400cd623	2.2005699
28	0x3f099130	0.53737164
29	0x3fe6e646	1.8039024
30	0x3f8149fc	1.0100703
31	0x3fdb85bc	1.7150187
32	0x3fc27a6b	1.5193609
33	0x406f0749	3.7348197
34	0x402c9ff9	2.697264
35	0x404d9d08	3.2127094
36	0x3fd4b6fa	1.661834
37	0x4098631e	4.7620993
38	0x405ad9e5	3.4195492
39	0x3fe02602	1.7511599
40	0x3f942010	1.1572285
41	0x401f1fc8	2.4863148
42	0x4085732d	4.1703095
43	0x405cba1f	3.44886
44	0x3fe84fa1	1.8149301
45	0x3fde7b39	1.7381355
46	0x4080b20f	4.0217357
47	0x4060541d	3.5051339
48	0x4018bd65	2.3865597
49	0x400e428a	2.2228112
50	0x404745fa	3.113646
51	0x4088b840	4.2724915
52	0x4020c863	2.5122306
53	0x403459ad	2.8179734
54	0x40880c4c	4.251501
55	0x40722b33	3.7838867
56	0x4030635e	2.756065
57	0x40319a49	2.7750418
58	0x3f2681a4	0.65041566
59	0x40061031	2.0947382
60	0x404c750c	3.194644
61	0x40272658	2.6117153
62	0x405f59f8	3.4898663
63	0x40176f70	2.3661766

decoder.0.weight f4 [64, 32, 4, 4]
0	0xbcbbf585	-0.022944221
1	0xbd2660cf	-0.040619668
2	0xbce1100c	-0.027473472
3	0x3cb972a1	0.022637667
4	0xbb822f3b	-0.0039729155
5	0xbd12c92e	-0.03583639
6	0xbd92569c	-0.07145426
7	0x3c5e7586	0.013577824
8	0xbc99032b	-0.018678268
9	0x3ce21aad	0.02760061
10	0x3cb19cd1	0.021681221
11	0xbcded216	-0.027199786
12	0x3caae9e1	0.020863475
13	0x3c633a2a	0.013868848
14	0x3cf2f583	0.029658085
15	0xbc13da63	-0.009024235
16	0xbbeebf20	-0.0072859675
17	0x3c814f58	0.015784904
18	0x3bce1be5	0.0062899464
19	0x3c8d4ed1	0.017249497
20	0xbafbdd05	-0.0019215649
21	0xbcdbca36	-0.02682982
22	0xbd1a9df1	-0.03774828
23	0xbd48fad7	-0.049067345
24	0x3c75205f	0.014961331
25	0xbd3a2796	-0.04544791
26	0xbd5419e1	-0.051782493
27	0xbbe04588	-0.0068442263
28	0xbd34b5af	-0.04411858
29	0xbcbb346e	-0.022852149
30	0xbcaec503	-0.021334177
31	0x3b98d6bb	0.0046642697
32	0xbbe11a5e	-0.0068695983
33	0xbcf902f6	-0.03039692
34	0x3cc79794	0.02436427
35	0xbcc2fe14	-0.023802795
36	0x3cc4461c	0.023959212
37	0xbc9c3f20	-0.01907307
38	0x3d4363c9	0.047702584
39	0x3d073925	0.03301348
40	0xbd29a827	-0.04142013
41	0xbcd4e878	-0.025989756
42	0x3ce5d1bc	0.02805411
43	0x3c2e49df	0.010637729
44	0xbc9d23cb	-0.019182106
45	0xbd23eff0	-0.040023744
46	0x3ca4233c	0.020036332
47	0x3d25a94a	0.04044465
48	0xbd03261d	-0.03201877
49	0x3c406055	0.011741717
50	0x3c227fec	0.009918194
51	0xbd121c86	-0.035671733
52	0x3ba6e34c	0.005093014
53	0x3cf5bdbe	0.029997703
54	0xbce1f02e	-0.027580347
55	0x3b035fbc	0.0020046076
56	0x3ce8bc48	0.028410092
57	0x3c0eb669	0.008710482
58	0xbd1e886f	-0.038704332
59	0xb944ba2c	-0.00018761371
60	0xb9d28df9	-0.000401601
61	0x3ba98fb6	0.0051746024
62	0xbd604abe	-0.05475878
63	0x3c46abef	0.012125953
64	0xbcb1e2c6	-0.02171458
65	0x3d637944	0.05553557
66	0x3ca5637c	0.02018904
67	0xbd326c99	-0.043560598
68	0xbce0fde5	-0.027464816
69	0x3d354df6	0.044263802
70	0x3d8bb9fb	0.06822582
71	0x3c379bc5	0.011206572
72	0x3bd8fa2f	0.006621621
73	0xbc2ca8d6	-0.0105383005
74	0x3cc28ff1	0.023750277
75	0x3d001cf8	0.031277627
76	0x3ca6f88e	0.020382192
77	0x3ca9d1ff	0.020730017
78	0x3d236d9c	0.039899454
79	0xbc34de1f	-0.011039286
80	0xbcbd1015	-0.023078958
81	0x3cda80f6	0.026672821
82	0xbc8b7a61	-0.017026128
83	0xbce38563	-0.027773565
84	0x3d381f49	0.04495171
85	0xbcd13129	-0.025536137
86	0xbbfe2e92	-0.0077570165
87	0x3d500e9b	0.05079518
88	0x3cd82c04	0.026388176
89	0x3d0f3938	0.034966677
90	0x3c53834b	0.012909721
91	0xbbdabca5	-0.00667532
92	0xbc5d79df	-0.013517826
93	0xbcbbce53	-0.022925531
94	0x3d3459e9	0.044031058
95	0x3cfe2290	0.03102234
96	0xbce5d3c7	-0.028055085
97	0x3d1f65bc	0.03891538
98	0x3d10717d	0.03526448
99	0x3c50f4a1	0.012753637
100	0xbc1ccb30	-0.009569928
101	0x3d225c27	0.039638665
102	0xbab24dcf	-0.0013603511
103	0x3d5a68d2	0.05332262
104	0x3cd14e27	0.025549961
105	0x3c2e751b	0.010648037
106	0xbd1d9068	-0.038467795
107	0x3c0ba6b8	0.008523636
108	0x3caac9f8	0.02084826
109	0x3be714c5	0.0070520365
110	0xbd11a5bc	-0.035558447
111	0x3ca9bbdb	0.02071946
112	0x3c8cd331	0.017190548
113	0xbd8fc2f8	-0.07019609
114	0xbd62d439	-0.055378173
115	0xbca85dc1	-0.020552518
116	0xbca693fe	-0.02033424
117	0x3b523a16	0.003207808
118	0xbcecbd6a	-0.028898913
119	0xbd46310c	-0.04838662
120	0xbc34b7c2	-0.011030139
121	0xbda7c58b	-0.08191975
122	0xbd680ac3	-0.05665089
123	0xbc88dc26	-0.016706537
124	0x3d0ddaab	0.034632366
125	0xbc43fe97	-0.011962554
126	0xbd386f3d	-0.04502796
127	0xbbf32c67	-0.0074210647
128	0x3c1010a4	0.00879303
129	0x3c330910	0.010927454
130	0xbcd513e0	-0.026010454
131	0xbcbbaf9d	-0.022910887
132	0xbc7915da	-0.015202964
133	0x3d8f017f	0.06982707
134	0xbcf2af3c	-0.029624574
135	0xbd3c13d5	-0.04591735
136	0xbc12f944	-0.008970562
137	0x3cef8b19	0.029241132
138	0x3d5ed760	0.054404616
139	0xbca00dd2	-0.01953784
140	0x3d12e79b	0.035865407
141	0x3c9625fb	0.018328657
142	0x3b9e2610	0.0048263147
143	0xbc88c685	-0.016696224
144	0xbc9efaf0	-0.019406766
145	0x3d49ad74	0.049237683
146	0xbcc2cdc1	-0.023779752
147	0xbd4c8af4	-0.049937204
148	0xbc530d75	-0.012881626
149	0x3c09b9db	0.008406128
150	0x3b99f732	0.0046986574
151	0x3bb2a2c6	0.005451533
152	0xbc9fa43d	-0.019487495
153	0x3d84ecc0	0.06490469
154	0x3d91e4cc	0.07123718
155	0xbd4fa5c4	-0.050695196
156	0x3ba84645	0.00513533
157	0xbc2b4f2e	-0.01045589
158	0x3c95bed8	0.018279478
159	0x3cde83e6	0.027162503
160	0x3d318a9c	0.04334508
161	0x3ca12c7e	0.019674536
162	0x3ce3c99a	0.027806092
163	0xbd386678	-0.045019597
164	0x3c293704	0.010328058
165	0x3b8fd02b	0.004388829
166	0x3cb304ac	0.021852814
167	0xbcee88b3	-0.029117918
168	0x3c8d3eed	0.01724192
169	0x3d21cda9	0.039502773
170	0x3c63e2fc	0.013909098
171	0x3c3844d1	0.011246876
172	0x3cc6af1d	0.024253422
173	0x3a3d6819	0.00072252896
174	0x3d02f9a2	0.03197635
175	0xbd2280ca	-0.039673604
176	0xbd16ecfd	-0.036847103
177	0x3d7d175c	0.061789855
178	0x3d3dbab2	0.046320625
179	0xbcd66dae	-0.026175346
180	0x3d536154	0.05160649
181	0x3d9c93de	0.07645391
182	0x3d21dc77	0.039516892
183	0x3d288837	0.04114553
184	0x3c7a09c7	0.01526112
185	0x3cc587fa	0.02411269
186	0x3d382cca	0.04496459
187	0x3d05451f	0.032536622
188	0xbce01faa	-0.027358849
189	0x3cb67e1f	0.022276936
190	0xbc259c65	-0.010108088
191	0x3c8cb0eb	0.017174205
192	0xbd19636b	-0.037448328
193	0xbd600e9a	-0.054701425
194	0x3c9bab48	0.019002572
195	0xbd9077da	-0.0705411
196	0xbd3db886	-0.046318553
197	0x3bb39b36	0.005481149
198	0xbd4e7ece	-0.0504139
199	0x3c977dd4	0.018492617
200	0xbd295ccd	-0.041348267
201	0xbb23894b	-0.002495366
202	0xbca084a8	-0.019594505
203	0x3cc29040	0.023750424
204	0xbd21386b	-0.039360445
205	0xbd5d313d	-0.054002035
206	0x3cb68ffe	0.022285458
207	0xbc7787f6	-0.015108099
208	0xbc85c215	-0.016327897
209	0xbd1864d3	-0.03720553
210	0x3bc66a4d	0.0060551525
211	0x3ca526f0	0.020160168
212	0xbd54566e	-0.05184024
213	0xbcc4168b	-0.02393653
214	0xbd38cdb5	-0.045118053
215	0x3bdbe180	0.0067102313
216	0x3cba1bce	0.022718336
217	0xbd0f471b	-0.03497992
218	0xbc72a110	-0.014808908
219	0xbc479430	-0.012181327
220	0xbc43b164	-0.011944149
221	0xbd56a4fc	-0.052403435
222	0xbd70b1c5	-0.058763284
223	0x3bb071e8	0.0053846724
224	0xbc5802a3	-0.013184222
225	0xbc5fd565	-0.013661717
226	0xbc4252f9	-0.011860603
227	0xbc81bfce	-0.01583853
228	0xbcd51573	-0.026011204
229	0x3d12e205	0.03586008
230	0x3c8bb2ad	0.017052973
231	0x3b8eedd7	0.004361849
232	0x3d0bf2b0	0.03416699
233	0x3cb5c29b	0.022187522
234	0x3d6bdd99	0.05758438
235	0xbc158bd7	-0.009127579
236	0x3c312207	0.010811335
237	0x3d219c09	0.039455447
238	0xbc8c82b4	-0.017152168
239	0x3c33687f	0.010950207
240	0x3d3f7eed	0.046751905
241	0xbd6b1dd1	-0.057401482
242	0xbbadcfa7	-0.005304295
243	0x3cd4318f	0.025902538
244	0xbcccada7	-0.024985148
245	0xbdb2dccb	-0.08733519
246	0x3b7be48d	0.0038435787
247	0xbbfceca9	-0.007718642
248	0xbc81a1dc	-0.01582425
249	0xbd0e1c30	-0.03469485
250	0xbc1aef80	-0.009456515
251	0xbd0b09c1	-0.03394485
252	0xbbcd6940	-0.0062686503
253	0xbd4d7e9f	-0.050169583
254	0xbd55ab55	-0.052165348
255	0xbc917966	-0.017758083

decoder.0.bias f4 [32]
0	0xbd900cef	-0.07033717
1	0xbdb4db40	-0.08830881
2	0xbe3123b1	-0.17298771
3	0xbe021d57	-0.12706505
4	0xbdf41f85	-0.119200744
5	0xbd36f410	-0.04466635
6	0xbe0de4f8	-0.13856876
7	0xbe02ba25	-0.12766321
8	0xbda031c9	-0.07821996
9	0xbddf673c	-0.10908362
10	0xbe0e1886	-0.13876542
11	0xbe110735	-0.14162906
12	0xbe04e75b	-0.1297888
13	0xbdc1c8d5	-0.09462134
14	0xbdf162b1	-0.11786402
15	0xbdcd5c43	-0.10027363
16	0xbe00efc4	-0.12591463
17	0xbe32b99f	-0.17453621
18	0xbe3bd19b	-0.18341677
19	0xbd9781ff	-0.07397842
20	0xbde46213	-0.11151519
21	0xbe086f52	-0.13323715
22	0xbd3373fc	-0.043811783
23	0xbe3a7595	-0.18208916
24	0xbd8c316f	-0.06845366
25	0xbe07c50d	-0.13258763
26	0xbe0a98d8	-0.13534868
27	0xbe00519a	-0.12531129
28	0xbda1ea2c	-0.07905993
29	0xbe197e00	-0.14989471
30	0xbdcfc0c7	-0.10144191
31	0xbe00efcf	-0.1259148

decoder.1.weight f4 [32]
0	0x3f80493c	1.0022349
1	0x3f857477	1.0426167
2	0x3f784986	0.9698719
3	0x3f7b6eb9	0.98215824
4	0x3f7e8830	0.99426556
5	0x3f834121	1.0254251
6	0x3f77374c	0.9656875
7	0x3f833a1b	1.0252107
8	0x3f8228d8	1.0168715
9	0x3f7e1fbf	0.9926719
10	0x3f81d1a6	1.0142105
11	0x3f828070	1.0195446
12	0x3f81f263	1.0152096
13	0x3f7e6dfc	0.9938657
14	0x3f8073e3	1.0035366
15	0x3f8344b7	1.0255345
16	0x3f6e6855	0.9312795
17	0x3f7aba50	0.9794054
18	0x3f7a7140	0.97829056
19	0x3f7cc1a8	0.98732996
20	0x3f8032f9	1.0015556
21	0x3f7aa71b	0.9791123
22	0x3f7ece82	0.99533856
23	0x3f7e0409	0.9922491
24	0x3f824654	1.0177712
25	0x3f84bf76	1.0370929
26	0x3f789653	0.97104377
27	0x3f81966f	1.0124034
28	0x3f818703	1.0119327
29	0x3f81668d	1.0109421
30	0x3f791978	0.9730449
31	0x3f78c8f0	0.97181606

decoder.1.bias f4 [32]
0	0x3cad03ac	0.021119915
1	0x3d5fe373	0.05466027
2	0xbc3dc004	-0.011581425
3	0x3a0f9383	0.0005476998
4	0x3ad451e9	0.0016198728
5	0x3cf0c2dc	0.029389791
6	0xbd50062e	-0.050787143
7	0x3ce14790	0.027499944
8	0x3c9a7982	0.018856768
9	0x3b31c6e6	0.002712661
10	0x3d11069b	0.03540669
11	0x3cd2e52d	0.025744045
12	0x3b74d060	0.0037355646
13	0x3d22e96f	0.0397734
14	0x3c500e20	0.01269868
15	0x3bef3331	0.0072998037
16	0xbd95e585	-0.07319168
17	0xbcd28e5f	-0.025702653
18	0xbc978230	-0.018494695
19	0xbb92df8e	-0.004482216
20	0x3cc3d9c9	0.023907559
21	0xbb6083c5	-0.0034258228
22	0x3d09477e	0.033515446
23	0xbc6da106	-0.014503723
24	0x3d158cfe	0.036511414
25	0x3cf4346a	0.02981015
26	0xbbc74085	-0.0060806894
27	0x3d0864a6	0.03329911
28	0x3bce3e46	0.0062940447
29	0x3c324e57	0.0108829355
30	0xbccaa5f1	-0.02473733
31	0xbbd7ed07	-0.006589535

decoder.1.running_mean f4 [32]
0	0xbe5d51fd	-0.21613307
1	0xbf389fb0	-0.72118664
2	0xbf0b2d34	-0.5436585
3	0xbed4adea	-0.41538936
4	0xbe04c477	-0.1296557
5	0xbeb81610	-0.35954332
6	0xbe99d41c	-0.3004464
7	0xbf1b2eda	-0.60618365
8	0xbeea3763	-0.45745382
9	0xbf3d7c28	-0.7401757
10	0xbe9455a9	-0.28971604
11	0xbf0079f9	-0.50186116
12	0xbeb765d7	-0.35819885
13	0xbece0dc6	-0.40244883
14	0xbe3a8996	-0.18216547
15	0xbe3e53c6	-0.18586645
16	0xbebf0408	-0.37307763
17	0xbe94d87f	-0.29071423
18	0xbed8a0b3	-0.42310104
19	0xbea6a5cf	-0.32548377
20	0xbf299673	-0.6624519
21	0xbed27c96	-0.41110677
22	0xbf1901c2	-0.5976831
23	0xbec98ddd	-0.39366046
24	0xbecdcdaa	-0.40195972
25	0xbf0eb983	-0.5575182
26	0xbf020979	-0.50795704
27	0xbf3521f7	-0.7075495
28	0xbe29572e	-0.16537163
29	0xbeaa16c1	-0.33220485
30	0xbef70ad8	-0.4825046
31	0xbf38f52d	-0.7224911

decoder.1.running_var f4 [32]
0	0x3f9abfaa	1.2089741
1	0x3f946a42	1.1594927
2	0x3fbf3508	1.4938059
3	0x3fd23942	1.6423724
4	0x3f5c2cb1	0.86005694
5	0x3f33eb10	0.7028055
6	0x3f8ce723	1.1008037
7	0x3fcc3f91	1.5956899
8	0x3ed155f3	0.40885887
9	0x3f21a24f	0.6313829
10	0x3f644732	0.89171135
11	0x3f7c75a9	0.98617035
12	0x3fa74933	1.3069214
13	0x3f91a013	1.1376976
14	0x3f624d46	0.8839916
15	0x3f627ae8	0.8846879
16	0x3f07598c	0.5287101
17	0x3eb9f1f7	0.36317417
18	0x3ef82b81	0.4847069
19	0x3f909a35	1.129706
20	0x3fba11a7	1.4536637
21	0x3f3739a3	0.7157232
22	0x3f8aff6c	1.0859199
23	0x3eddb36d	0.43300954
24	0x3f51544e	0.81769264
25	0x3f8895de	1.0670736
26	0x3fccb676	1.5993183
27	0x3fcb1c1a	1.5867951
28	0x3f300a59	0.6876579
29	0x3f41161b	0.75424355
30	0x3f8a1f02	1.0790713
31	0x3fa9a245	1.3252646
