weights/improved_cae_ne3_b8_icub_right_noise.pth (torch, 351651 bytes, 36 tensors)

encoder.0.weight f4 [16, 3, 4, 4]
00000000: 2b31 283d 10cf 7f3d dc8e 3c3d 0044 c9bd
00000010: e76e 9fbc c539 11be c4f5 cdbd 25d1 993d
00000020: 7d39 e23d 5e91 08be 5298 03be 7836 c13d
00000030: 6375 8f3d 18b2 b1bd a647 01be d2ff f83d
00000040: 5a74 b33b aa11 d6bd db43 eabb f5f8 08be
00000050: 5935 a73d d7f4 22be fb75 af3d 5b86 303d
00000060: 53b4 2bbd df23 14be 0c12 873b 4e5c cbbd
00000070: 4f4e 7639 ac5f a93d 89fd 3d3d 826d 2fbe
00000080: ffec 263c fa86 963b d943 9eba ac29 aebd
00000090: 1687 75bd bb78 92bd 1a34 24be ce06 ae3d
000000a0: bb21 57bd 947d 91bd 1ed8 c83d 90d4 85bd
000000b0: 83d1 64bd 7c45 0c3d 4bd2 b4bd 02e6 613d
000000c0: 1c71 38be 6472 80bd cab0 933d 73bd 99bd
000000d0: c9fb 13be 1663 fabd ee63 7ebd 9def 9abd
000000e0: 5c34 a0bc fb65 0bbe 02a1 703c ba57 efbd
000000f0: cbd8 c7bd af78 37bc a13f 0bbd 7f33 103c
00000100: 6027 4bbd d7a3 4b3d 7b6e f1bd 9d52 983c
00000110: c5d9 d73d 9311 c1bd 2b89 b73d 01b3 773d
00000120: 5d32 023e a828 ec3b 928c 13be 8832 da3c
00000130: 10a0 373d 1071 293d 3571 aabd c7e2 f5bd
00000140: 75c8 b6bd 84f4 50bc 1099 2bbd 451e 0abd
00000150: 5b08 8cbd 17e5 36bc 4c36 ac3d d3ce 90bd
00000160: 04bc 063d bbbf afbd 7d85 ebbd 9d2f 603b
00000170: 7c39 963c f7f9 5e3d 79e5 87bd c51e a43d
00000180: e227 d93c e23a e5bd bbaf 95bd a74c 37bd
00000190: d922 03bd da7a 623d fb5b 2cbe 963f 41bd
000001a0: bdd4 31bd bda3 8b3d 3623 a1bd 9f23 43bd
000001b0: d854 13be a8ea f13c c40f 6a3c d6a1 79bb
000001c0: 4c91 c03d b848 eb3d ec72 68bd 04e2 dfbd
000001d0: 224a edbc c1d7 7f3d 2aaa 6cbc 8d08 a3bd
000001e0: e2df 0abe 1bbd cb3d 8f0b b43d 9c92 b5bd
000001f0: bf2c 85bb 7304 abbd e7a6 acba ebc4 fd3c
00000200: bc2b 563d 8a1e 0a3d 822e 113e 646b 5fbd
00000210: 9190 7d3d e75b a6bb 48a6 a23d 7bed bebb
00000220: 7d92 2e3d 103c d5bc c02a 633d 35b0 f23c
00000230: ca51 e73d 053a 9fbd 7e79 f73d cb21 2d3d
00000240: d2fb c73d 263c 103d 09d5 50bd 8733 adbd
00000250: ab6a d23c 9494 59bd 05a5 263d 805c d23d
00000260: e10a e9bd b04b 44bc eaef 653d 3ac9 e93d
00000270: 191f 2939 2013 98bc 3d22 b4bc bdab ff3d
00000280: 9aef 3ebd dbd8 cd3d c07e 0cbe ad15 3a3d
00000290: 7ae7 eabd 4179 cbbd ef6c 753d 984f b9bd
000002a0: 7a92 363d 18d0 afbd 806a 02bd 5f80 063d
000002b0: 850b 12be 641d 183d 0e6c d8bc 145b dc3d
000002c0: 7022 e5bc 6bbd 62bd e44e d0bd 52f7 ab3d
000002d0: 9aea 1abe 692c ecbd 3afc 9abd a25f d1bc
000002e0: 488d 12bd 4e52 033e c597 d53c 891a b7bd
000002f0: 155d bfbd c2f0 213d c779 dfbd 1f09 3f3d
00000300: 0457 893c 84d2 25bd 313d b83d ae39 38bd
00000310: efa2 18be a9d0 90bd 0fe8 a3bd f3d2 16be
00000320: ed5d 293d d623 cdbd 2ba1 923d cfed f3bd
00000330: 994a 8e3d 6b46 953d 8ee0 1d3d 1c5a 7e3d
00000340: 9d95 7f3d bcd0 623d 5b13 5d3d 5129 50bd
00000350: 442d 4ebc 4312 a8bd 5dae 283e 42d0 6abb
00000360: 9364 e3bd deb2 5dbd a49a 00be 03a6 193d
00000370: a902 1c3e 691b e73d bacb 90bd 213e 163d
00000380: 5f9c 003e b7b0 88bd b74d cd3d e4da da3d
00000390: 550a 45ba f9ac b93d 7201 2a3e 5693 97bd
000003a0: 875a 0e3e b6de a8bd 8505 b13d 7e8d 0e3e
000003b0: a945 ac3c 894f 483d 9f1b a9bd fac7 cebd
000003c0: 2f0c 8dbc dbd2 8bbb 6a29 8e3d f5a0 c7bc
000003d0: d520 b73d df6b bb3d 8a4b 003e df44 d5bd
000003e0: af0a 3b3d 225f bb3c 8f0f c63d 0b2b 6ebb
000003f0: 50f5 9cba 3af7 61bc 7b77 d03d 2787 e2bd
0.041062515 0.06245333 0.04603468 -0.09827423 -0.019462062 -0.14182194 -0.10056642 0.07510594
0.11046121 -0.13336703 -0.12851074 0.09434217 0.070048116 -0.08676547 -0.12624988 0.12158169
0.0054765167 -0.10452588 -0.0071492023 -0.1337622 0.08164472 -0.15913711 0.08567425 0.04309688
-0.041920017 -0.14466809 0.0041220244 -0.09929715 0.0002348956 0.08270201 0.046384368 -0.17131618
0.01018834 0.004593727 -0.0012074664 -0.08504042 -0.05994328 -0.07151934 -0.160355 0.08497392
-0.052522402 -0.0710403 0.09806846 -0.06534684 -0.05586387 0.034245953 -0.08829173 0.055150993
-0.18011898 -0.06271818 0.07211454 -0.07506838 -0.14451517 -0.122259304 -0.06210702 -0.07565234
-0.019556217 -0.13613121 0.014686825 -0.116866544 -0.09758147 -0.011198207 -0.033996228 0.00880134
-0.049598098 0.049716797 -0.117886506 0.01859408 0.10539583 -0.0942718 0.089617096 0.060473446
0.12714525 0.007206995 -0.14409092 0.026635423 0.044830382 0.04136759 -0.08322374 -0.12006145
-0.08924953 -0.01275361 -0.04189402 -0.033720274 -0.06837531 -0.011163018 0.08408794 -0.070706986
0.03289415 -0.085814916 -0.1150007 0.0034208067 0.018337958 0.054437604 -0.06635565 0.08013681
0.026508275 -0.11192872 -0.073089086 -0.044750836 -0.032015655 0.05529294 -0.16831963 -0.04717978
-0.043415774 0.0681834 -0.07868044 -0.047641393 -0.14387834 0.029530838 0.014285985 -0.0038090847
0.09402713 0.114884794 -0.056750223 -0.10931781 -0.028966013 0.06246162 -0.014444867 -0.07960615
-0.13561967 0.099481784 0.08791267 -0.08865854 -0.004064172 -0.08350458 -0.0013172299 0.030977687
0.052287802 0.03372053 0.14177898 -0.054545775 0.061905447 -0.0050768736 0.07941872 -0.0058266497
0.04262017 -0.026029617 0.05546069 0.029625038 0.11294897 -0.07774738 0.1208372 0.042268556
0.09764828 0.035213612 -0.050984416 -0.08457094 0.025685629 -0.05312021 0.04068472 0.10271549
-0.11379028 -0.011980936 0.056137003 0.11415334 0.0001612868 -0.018563807 -0.021988982 0.12483928
-0.04661522 0.100511275 -0.13720226 0.045430828 -0.11469932 -0.09935237 0.05991834 -0.090483844
0.044573285 -0.085846126 -0.031839848 0.032837268 -0.14262207 0.037137404 -0.026418712 0.10759559
-0.027970523 -0.055356424 -0.10171297 0.08396782 -0.15128556 -0.11531908 -0.0756764 -0.025558297
-0.035779268 0.12824365 0.026073346 -0.08940608 -0.09343926 0.039536245 -0.10911899 0.046639558
0.016765125 -0.040483966 0.08996046 -0.044976883 -0.14905904 -0.07071049 -0.08003246 -0.14728908
0.04134934 -0.10016601 0.071596466 -0.11910593 0.06947822 0.07288822 0.03854423 0.062097654
0.06239854 0.055374846 0.053973537 -0.050820652 -0.012584034 -0.08206608 0.16472764 -0.0035829698
-0.111031674 -0.05412566 -0.1255899 0.037511837 0.1523539 0.11284525 -0.07070108 0.036680344
0.12559651 -0.06674331 0.100245886 0.10686281 -0.0007516493 0.09066195 0.16602114 -0.07401149
0.13901721 -0.08245604 0.08643631 0.13921162 0.02102931 0.048903976 -0.082572214 -0.10096736
-0.017217724 -0.0042670793 0.06941493 -0.024368742 0.08941809 0.09151434 0.12528816 -0.10413527
0.045664486 0.022872511 0.09670936 -0.0036341574 -0.0011974964 -0.013791854 0.10179039 -0.110609345

encoder.0.bias f4 [16]
00000000: 66e4 0a3e c593 e93c 2450 ad3d 78e2 dd3c
00000010: 852d fdbd a1b2 ae3d c72a a73d 96e0 c73d
00000020: bc0c f2bd f5b4 1c3e f3da 45bd a667 73bc
00000030: 858d 18be 071a fa3d 33a0 073e c096 1b3c
0.1356369 0.028512845 0.08462551 0.027085528 -0.12362198 0.085301645 0.08162456 0.09759633
-0.11818835 0.15303405 -0.04830451 -0.014856255 -0.14897735 0.122119956 0.13244705 0.009496391

encoder.1.weight f4 [16]
00000000: a50e 793f 67d5 7f3f e0d5 793f d5d2 813f
00000010: 5642 7b3f ad5c 7f3f 90ed 833f 546f 7d3f
00000020: 9e98 7f3f 5e25 773f 1109 7c3f 326c 743f
00000030: a9ba 7f3f 4372 803f 0bb3 813f 1b2c 833f
0.9728797 0.99935 0.9759197 1.0142466 0.98148096 0.99750787 1.0306873 0.98998
0.9984225 0.9654139 0.98451334 0.9547759 0.99894196 1.003487 1.0132765 1.0247835

encoder.1.bias f4 [16]
00000000: eb92 59bc 73f2 95bb 7540 f5bb d3cd b73c
00000010: af01 343c 06d1 15bc 923b 803c bb02 48bb
00000020: 12ed e1b8 2453 e7bc e270 1abb ba22 a2bc
00000030: 5e83 a2bc 42f0 88bb 3021 cabb e343 59bb
-0.013279657 -0.0045760213 -0.0074844905 0.022437012 0.0109867295 -0.009144073 0.015653405 -0.0030519206
-0.00010772994 -0.028237887 -0.0023565819 -0.01979195 -0.019838031 -0.0041790316 -0.006168507 -0.0033152036

encoder.1.running_mean f4 [16]
00000000: 6a67 0cbf e978 6ebf 5fe1 d73d 70d4 ffbe
00000010: 43fc bc3e d59c a13f 185f 9d3f aa5d e4be
00000020: ae69 a4be 16b5 f2bc 0e3e 27bf 38e5 24bf
00000030: 0f98 773f 2af1 83bf f93c 6cbf a276 c73f
-0.548453 -0.93153244 0.10541033 -0.49966764 0.3691121 1.2625986 1.2294645 -0.4460271
-0.32111877 -0.029627364 -0.6532906 -0.6441226 0.967164 -1.0307972 -0.92280537 1.5583079

encoder.1.running_var f4 [16]
00000000: db4e 9b3d 5d53 853d 0945 153d 6e27 913d
00000010: e0b9 993d 7d80 133e c35b c03d d0e5 703d
00000020: f4b9 4f3d 50cd 3b3d b709 9c3d a473 413d
00000030: f796 3d3e 2a0f 0d3e aa75 923d ee59 b43e
0.075834 0.06510041 0.03644279 0.07087599 0.07506156 0.14404483 0.09392502 0.058812916
0.050714448 0.045850098 0.076190405 0.047229424 0.1851462 0.13775316 0.07151349 0.3522486

encoder.4.weight f4 [32, 16, 4, 4]
00000000: add2 86bc d310 dcbc f658 aabd b20a 6c3c
00000010: 8a5e a83c 234d 87bc 5a5b 583c 42fe de3c
00000020: 2136 79bd bfb1 5abd b7da 65bd e611 84bd
00000030: e477 35bb 2a66 81bd 41a0 c0bc fd58 80bd
00000040: 60b2 4bbd 25b6 4e3c ce57 df3c 7526 8bbd
00000050: 53ec 653c 1687 f2bc 7b7b 253d 681c a4bc
00000060: 94bc 06bd 11d5 5fbd 120c 03bd 611b ea3c
00000070: e106 3bbd 1e9b 3d3d 5d96 3abd 96a5 87bc
00000080: 7acf 1ebd eadc f9bb a82e 5c3d ae5f a93c
00000090: 8309 353d a004 6e3c 1547 f33c 3633 74bc
000000a0: 54ca f33c 71cd 01bd f049 97bc 4c73 f33c
000000b0: 5495 d13c 7544 d33a cbfd aa3c 2824 0e3d
000000c0: 68d0 49bd 2a0f c6bd a42d fdbc ade2 cebd
000000d0: bbad aebc 5ca9 9bbc 13e4 bbbc a43b 68bd
000000e0: 2cac 90bd 199f d43c 0626 ce3c a6b5 9fbd
000000f0: bf65 a2bd 0ddf d239 6cc4 c0bd cbde aebd
00000100: ad3b ad3d 471e a43c f30d b83d ddf7 843d
00000110: 8956 fbbc a92d 803d 6202 cbbc 6192 503d
00000120: 7f67 04bd e613 9b3c bc8e b43c 8757 2bbd
00000130: e4de 3e3c ebb0 1fbc a31b 12bd aa09 c0bc
00000140: 3232 4f3d f690 cc3d 244e 6d3d e8fe 983c
00000150: 215a 2a3d 4b9d 753d 93e0 b4bc cad8 e23d
00000160: ec90 883d 82b7 a53d fa2b e3bc 6114 9c3d
00000170: cae4 8c3c 5677 473d ac79 133d 62ae 803d
00000180: c96c 1e3d a35e b53c b0d1 223d c656 233d
00000190: 67ab 4d3c 55ec 043d 2e62 40bd eddc 30bd
000001a0: cbd9 b6bc 5afe b3bc a2fe 63bd 1327 1abb
000001b0: a27f 583c 5646 ecbc 694b 6fbd 4a2a 053c
000001c0: 7ae3 ccbd 4a02 f1bb f015 9cbd 0b21 08bd
000001d0: ac98 acbd 66ac 91bd cc29 48bd fb79 8abd
000001e0: e351 a9bb 0b69 23bd d84d 3abc 2cca 9ebd
000001f0: 2324 e2bc 7547 aa39 a6f4 1cbd a3f2 72bd
00000200: 9460 87bd 0599 b43b 5d52 8fbc a00d b7bd
00000210: e12c 3dbd 1ea4 dc3b c84d 6dbc 33bd 17bd
00000220: 050f 41bd a911 3ebd 3fe2 173d c142 48bd
00000230: b747 b5bd 09f4 f3bb 8768 24bd 195c a0bd
00000240: 955a 39bd 259c 41bc d6b5 93bb cc52 58bd
00000250: 80e7 95bd c480 333c 6f94 a9bc f249 9fbd
00000260: dc65 84bb 0865 ecbc 6daf 083d 2944 6b3c
00000270: f323 47bd fc90 a4bd 7769 5bbd f3af 53bd
00000280: 6316 dcbc 9e11 a1bd 5bb2 0abd 29f2 2dbd
00000290: e323 843c 0c65 7a3c 62df 90bd d674 96bc
000002a0: a018 a9bd 23e6 95bd 576c 823c 74ba be3c
000002b0: ed27 a3bd da62 acbd dfa3 b2bc da1a 433c
000002c0: 1b9e f6bb 7c99 e3bc d486 afbd 3ba0 93bd
000002d0: 2dde 903c e2a9 a2bc d2c7 0dbd b93a 2d3b
000002e0: ea9b 423c 7dd4 cc3b 7fd2 8e3c 3ce3 3e3d
000002f0: 414c 1f3c 2a1d a83c 5ba3 91bc 4db9 82bb
00000300: 15e5 ac3d d276 cd3d fc08 9d3d 64b0 d63d
00000310: 46b4 d73b b5cc e83d f783 ba3d 94a0 803d
00000320: 216f ca37 683c a93d 76b3 6c3d 0162 cebb
00000330: d533 913d b12f ba3d 5c41 83bc 7a08 983d
00000340: 1e70 b6bd 2dfb e9bb 60c4 bebc 3100 55bd
00000350: 300d b13c 1969 143c 9479 7fbc 2601 eabc
00000360: 82b6 683c 50aa 333d 8bb1 85bd 5e8b 9bbc
00000370: e18b 81bd 91a1 f4bb d040 0b3c 7de0 63bd
00000380: 5813 0fbd 5189 a8bc 1c8b 773c df48 30bd
00000390: a9f7 74bd 2d16 383d 248a 90bc c490 62bd
000003a0: 9e8e ed3c 9553 abbc 7595 7c3d f941 953c
000003b0: 9619 ab3c e070 413c c183 7a3c 20e3 183d
000003c0: 7248 8a3d 5aa1 de3d 0575 3c3d 1e23 ee3d
000003d0: 7c15 853d eef7 b33d 9f3b d43d 6dbb d63d
000003e0: 9b4c d13d e838 fe3c af30 013d fc66 643d
000003f0: f03f b73d 57bb 683d 8b85 863d 28c2 b33d
-0.01645788 -0.026863491 -0.08317749 0.014406847 0.020552892 -0.016516274 0.013205374 0.027220849
-0.060842637 -0.053392168 -0.056116786 -0.06448726 -0.0027689869 -0.063183144 -0.023513915 -0.06266973
-0.04973066 0.012616669 0.027263548 -0.067944445 0.014033395 -0.02960543 0.040400963 -0.020033076
-0.032894686 -0.054646555 -0.031993933 0.028577508 -0.045660857 0.04629051 -0.045553554 -0.01655845
-0.038772084 -0.007625212 0.053755432 0.020675506 0.044198524 0.01452747 0.02969698 -0.014904788
0.029759564 -0.031690065 -0.018467873 0.029718064 0.0255839 0.0016118424 0.020872971 0.03470245
-0.049271017 -0.09670861 -0.030905552 -0.10101829 -0.021323076 -0.019001655 -0.022935903 -0.056697503
-0.07064089 0.02595477 0.025164615 -0.077983186 -0.07929563 0.00040220507 -0.094124645 -0.08538588
0.08458648 0.020033969 0.089870356 0.06492589 -0.030680912 0.06258709 -0.02478141 0.050920848
-0.032325264 0.018930387 0.022040717 -0.04183152 0.011649821 -0.00974677 -0.035670888 -0.023442108
0.05058498 0.099885866 0.05793585 0.018676236 0.04158986 0.05996446 -0.022079742 0.110765055
0.06668267 0.08091642 -0.02773093 0.076210745 0.017198939 0.048697792 0.036004707 0.06283261
0.038677964 0.022139853 0.039750755 0.039877675 0.012553073 0.032451946 -0.04696863 -0.04317944
-0.022320649 -0.02197187 -0.05566276 -0.0023521825 0.013214024 -0.028842133 -0.058421526 0.008127758
-0.10004325 -0.007355009 -0.07621372 -0.033234637 -0.08427557 -0.071129605 -0.048867986 -0.06761547
-0.0051672324 -0.0398951 -0.011371098 -0.07753405 -0.027605122 0.00032478166 -0.038319252 -0.059313428
-0.06610218 0.0055114054 -0.017495329 -0.08938146 -0.046185378 0.0067334315 -0.0144838765 -0.03704567
-0.047133464 -0.04640356 0.037081 -0.048891786 -0.08851569 -0.0074448627 -0.040138748 -0.07830066
-0.0452524 -0.011817013 -0.0045077605 -0.052813336 -0.07319546 0.010955993 -0.020700661 -0.07777776
-0.004040463 -0.02885677 0.033370424 0.014359512 -0.04861827 -0.08035466 -0.053567376 -0.05168147
-0.026866144 -0.07864688 -0.0338615 -0.04246727 0.016130393 0.0152828805 -0.07073857 -0.018366259
-0.0825665 -0.07319286 0.015920801 0.023282267 -0.079665996 -0.08417292 -0.021806655 0.011908257
-0.007526172 -0.027783148 -0.08570638 -0.07208296 0.017684067 -0.019856397 -0.03461439 0.0026432707
0.011877993 0.0062509165 0.017434357 0.046603426 0.00972277 0.020521719 -0.01777809 -0.0039893747
0.084421314 0.10032429 0.07667729 0.104828626 0.0065827696 0.1136717 0.091072015 0.06280628
2.4132025e-05 0.08263475 0.057788335 -0.006298304 0.07089964 0.09091128 -0.016022377 0.07423492
-0.089081034 -0.007140538 -0.023286998 -0.052002136 0.021612734 0.00905826 -0.015592951 -0.028565
0.0142036695 0.043863595 -0.06528004 -0.018987354 -0.06325508 -0.0074655493 0.008499339 -0.05563401
-0.034930557 -0.02057329 0.01510885 -0.043038245 -0.0598065 0.044943023 -0.017643996 -0.05531384
0.02899867 -0.020913878 0.06166597 0.018219935 0.020886224 0.011806697 0.015290202 0.03732598
0.06752099 0.10870619 0.046010036 0.11627792 0.064982384 0.08787523 0.10362934 0.104849674
0.102196895 0.031032994 0.03154057 0.055762276 0.08947742 0.056819286 0.0656844 0.08777267

encoder.4.bias f4 [32]
00000000: 133e 4ebd 78f8 edbd 362a eebd 4ce8 d5bd
00000010: 939f 93bd 8389 86bd 690d 03be 254a bebd
00000020: b5b0 16be eb1e 4abd 202e 25be 62d2 20be
00000030: 478c 79bd f9e7 23bd e610 c3bd a238 a7bd
00000040: c14c 23be dfd0 29be 2d6e afbd c9c1 fdbd
00000050: d248 eebd 9668 d5bd fd76 cabd 7aa2 d0bd
00000060: 4f8e 58bd cf8a 39be 8c7e f0bd 9f9e f1bd
00000070: 0842 cdbd 09a5 24be 15ab 08be 2c63 d4bd
-0.050352167 -0.11619657 -0.11629145 -0.10444698 -0.07208171 -0.06569197 -0.12798084 -0.09291486
-0.14715846 -0.049345892 -0.16130877 -0.15705255 -0.060924795 -0.04001615 -0.095247075 -0.08165099
-0.15947248 -0.16583584 -0.08565936 -0.12390477 -0.11634983 -0.10420339 -0.098859765 -0.1018724
-0.05287009 -0.18119358 -0.11742887 -0.11797833 -0.1002236 -0.16078581 -0.13346513 -0.10370478

encoder.5.weight f4 [32]
00000000: 897c 833f 5420 753f 18b1 7f3f 363a 813f
00000010: fe0d 7c3f e4ba 813f 10ec 773f 1b58 813f
00000020: 2d1e 7f3f c983 823f 4c60 7d3f e256 7a3f
00000030: f406 793f 7826 813f 5020 833f 4cf2 7d3f
00000040: 602a 7b3f 58fe 7c3f a92a 803f 7ccd 7f3f
00000050: d3f0 7d3f 3e19 7c3f 7cd9 783f 69dd 7c3f
00000060: 1aea 7e3f bc35 803f 43f7 7d3f cb19 7e3f
00000070: e211 803f 0c6f 793f b734 803f efe9 803f
1.027238 0.95752454 0.998796 1.009589 0.9845885 1.013516 0.9684458 1.0105013
0.9965542 1.0196468 0.9897506 0.9778882 0.97276235 1.0089865 1.0244236 0.9919784
0.98111534 0.988256 1.0013019 0.9992292 0.99195594 0.98476017 0.97206855 0.98775345
0.9957596 1.0016398 0.99205416 0.99258107 1.0005457 0.9743507 1.0016087 1.0071391

encoder.5.bias f4 [32]
00000000: 2a3c 98bc c04c 64bb dd2f 253d 4fee 453d
00000010: ac73 b83b dd67 b63b d19b cabb 9617 2bbd
00000020: 5393 fa3b ced9 0b3c bae3 c93b bd2b 82bc
00000030: ca41 5c3b 0459 b33c fc29 5abd 4534 8f3c
00000040: e30e 6dbc b51d 22bd 6a8e 143c cbef 103d
00000050: 4521 36bb fa80 3b3c e23a cb3c 9f7c 0a3d
00000060: a55d 3a3c b3d7 6dbd 7283 413b 1ada f1ba
00000070: ad3c 6a3c f416 63bb be28 b6bc 163f e93c
-0.018583376 -0.0034835786 0.04032885 0.048322972 0.0056290235 0.0055665807 -0.0061831255 -0.04177054
0.007646957 0.008535815 0.0061611803 -0.015889997 0.003360855 0.021893032 -0.053262696 0.017480979
-0.014468881 -0.039579112 0.009067157 0.035384934 -0.0027790826 0.011444325 0.024808351 0.033810254
0.011374866 -0.058067035 0.002952781 -0.001845184 0.014296693 -0.0034651132 -0.022236224 0.028472465

encoder.5.running_mean f4 [32]
00000000: eff7 893f 36b5 103e 582a c6be 58f1 89be
00000010: 9239 0abf 0b67 b7be 6971 8dbe e6e1 bf3e
00000020: ec3f 0dbf fb48 50bf b74e 943b 050f 1f3d
00000030: fa06 1ebe 64a1 aebe 48d1 403f ccc7 a9bd
00000040: e202 09bf 9495 55be d322 b43c 1637 26bf
00000050: fe36 8b3b d549 87bf 4091 03bf fdf9 ccbe
00000060: 64e0 b33e b350 0b3e eab2 acbd 94ba 943c
00000070: 3907 bf3d 7ee2 993e 8ff0 a0be 1830 fbbe
1.0778788 0.14131626 -0.3870418 -0.26941943 -0.53994095 -0.35820803 -0.27625588 0.37477034
-0.5517566 -0.8136136 0.004525985 0.038832683 -0.15432349 -0.34107506 0.7531934 -0.08290061
-0.53520024 -0.20857841 0.021989262 -0.64927804 0.004248499 -1.0569407 -0.5139351 -0.40034476
0.35132134 0.13605003 -0.08432563 0.018155374 0.093275495 0.30055612 -0.31433532 -0.4906013

encoder.5.running_var f4 [32]
00000000: 2596 c93f 4b14 6e3f 8d7c 8b3f efa9 263f
00000010: 6955 9b3f b3e5 b63f 1bdb 8f3f cda2 e83f
00000020: becb 273f 9dd8 3240 9c8f c33f 2312 b93f
00000030: 0e11 763f 1d7b ad3f 768e 6a3f cf2b 873f
00000040: 8743 373f 2269 113f 477a a43f c1d2 293f
00000050: 9235 b53f 18e7 fa3e 81bc f03e fbf9 593f
00000060: eb3e b73f b0c4 4c3f 7efe a93f a72e 983f
00000070: 3c96 f53f ab75 a23f 552f bb3f ce10 5d3f
1.5748945 0.92999715 1.0897385 0.6510305 1.213544 1.4288849 1.1238741 1.8174683
0.6554526 2.794471 1.5278201 1.445866 0.96119773 1.3553196 0.9162363 1.0560244
0.71587414 0.56801045 1.2849816 0.6633721 1.4156973 0.49004436 0.47018817 0.85147065
1.4316076 0.7998762 1.328079 1.1889237 1.9186473 1.269216 1.462382 0.86353767

encoder.8.weight f4 [64, 32, 4, 4]
00000000: 2bd0 0039 48c9 e33c 0774 a23b b5dd 5f3c
00000010: 5503 eb3c 08c8 ff3b 2792 d53c 8da7 2dbb
00000020: a9fd 2bbc a600 d63c 3ff1 15bd 0b57 a8bc
00000030: 27df f53c d4ec aa3c 303c 36bd 45a1 d23c
00000040: e022 ecbc 871a c03b b416 24bd 72bb 8b3c
00000050: 3b4c 493d 9ba3 1b3c 5a32 92bc 2111 60bc
00000060: 490d fa3c 07a7 2f3d c11e ec3a 37a5 c7ba
00000070: 6996 903c c401 59bc 733d abbc 5876 a8bc
00000080: 7e5d 963c 8515 0fbd ff74 223d c898 edbb
00000090: 6027 173d 57ae b63c 5fa7 273b b442 043c
000000a0: 9548 c9bc c1ac c73c 0ce9 153c 411f e13b
000000b0: b35f bcbb fc93 a8bb edf7 fa3c 2637 7cbc
000000c0: 76c4 38bd 9ed2 f1bc 68c6 98bc bf87 b5bc
000000d0: fb5a 74bc f506 0d3d 10c6 193d 3525 d23c
000000e0: 988f 083d 6110 ca3b 1e96 e1bb 34d9 3d3d
000000f0: d82e ca3a c19f b13c c7c5 03bc 4b16 73bc
00000100: 7e52 8b3c 4e0e d2bc 4fb9 d4bc e900 11bd
00000110: 9950 363d f0ee a4ba 443b 653c c658 25bd
00000120: b0fc fc3a e138 44bc 6500 363d d7f6 1cbd
00000130: 6ea7 4d3c 72fd ed3c 01d4 16bd cf82 26bd
00000140: 14b0 ac39 5149 52bc f77c fabc 3eaa ffbb
00000150: a9c9 0d3c 36a8 4dbd 5195 883c 250c 22bc
00000160: 677a e9bc 2347 eebc ded5 03bd 6fd5 2fbb
00000170: 14ba 51bd a4c2 22bd edc2 d6bb 36ae 01bd
00000180: 8bc6 1a3d be80 f9ba 48db 14bc 2882 003d
00000190: 49b4 843b 9fd6 193d 4891 91bc 2b9b 1ebd
000001a0: 1dad 453d 5ce9 bbbc ea8a 7c3c fd68 233d
000001b0: a9c9 dcbc 4f75 62bc 5530 113d 7093 f43b
000001c0: cefb 8c3c 469e cb3c 256c 993c 0bb9 16bb
000001d0: 3ef5 0c3c 6fca e03c 48c7 45bc b6ed 193b
000001e0: f3f0 773b cc4f 70b9 3ee7 743b fd4f dc3c
000001f0: 1f19 c43b 983f 4abd bfe5 013d ca26 153c
00000200: f4aa 793c 4047 3abb a4b3 81ba bc4b 15bc
00000210: 4b15 e03c 2916 203d f4eb 9e3c 98d9 443b
00000220: b616 a63c 6230 263d e9a2 bd3b 32d3 0a3d
00000230: c6a8 88bb 2e7e 8e3d 4b8a 86bc 429e ca3a
00000240: aff6 dbbc f6cb 103d eabb 05bd 04f8 e7bc
00000250: 1b44 98bc c194 edbb 93c7 d03b 1ea9 9ebc
00000260: 1d6d 41bc a532 fcbc 0eaa ac3c 1128 9b3c
00000270: b12f ca3c 37a1 98bc 0ea7 ea3a 7505 293d
00000280: 5b80 47bc 4c32 463d b8a7 013d d26f b5bc
00000290: 80c8 d03c eb4c 21bc 4c8c c83c a69a e13b
000002a0: b726 433d b237 71bc 1f2f 2bbd 0699 4c3b
000002b0: 475d 3d3b 1f2f 583c da5b d13c 7236 50bc
000002c0: 6c58 4ab9 1a7a c6bc ac88 493c e3d5 a03c
000002d0: feab 3539 7a02 51bc e4bf 8abc 77d4 a53c
000002e0: 29f8 eb3c 7c0a bf3c e3a3 2ebb 174c 94bc
000002f0: 1b52 7ebc 44e5 5839 ac9b 3bbd 3f13 16bc
00000300: 1c13 273d e80b 2c3b 16a4 35bc 591b b83c
00000310: b53d f63c 8f21 143d 2e76 48bd c6fa 79bc
00000320: 5f14 a83c 6495 8e3c 27b0 22b9 4356 5ebc
00000330: bdd7 95bc 7ef6 2e3d 6795 24bc 9cf5 fcbb
00000340: 7e4a f9bc 50c5 a7bc efee e83c 0dc8 43bd
00000350: 16ba 313d 988f 7f3d de0d 15bc fe6e bf3c
00000360: 6e61 f1bc 0e00 943d cb23 6b3d 6f7c 6fbd
00000370: 36c9 a3bd 6624 c63c 222f a8bc 32a2 95bc
00000380: a63a 47bd 7ddd dbbb 74dc 283d 7914 de3b
00000390: 7f9e 91bd 3267 20bd d778 523c efd7 953d
000003a0: ba9f ac3b e96f 22bc 2c94 863d 121b 023e
000003b0: 77e0 45bd 13fb 1bbc a095 2a3d 8ddb cf3d
000003c0: 267d 123d 5250 58bb 0a31 423c 66e9 963b
000003d0: 202c 3b3d 31db ae3c f141 c13c 9596 bc3c
000003e0: 84f8 953c b13c 183d bd4d a8bc 50be 893c
000003f0: 4cac 0c3d 7c4c 2dbb 9fe6 203c 2784 ee3c
0.0001228458 0.02780594 0.004957679 0.013663699 0.028688112 0.007805828 0.026070667 -0.0026497573
-0.010497489 0.026123356 -0.036607023 -0.020549318 0.030013634 0.020864882 -0.044490993 0.025711665
-0.028825223 0.0058625373 -0.040060714 0.017057154 0.049144965 0.009499456 -0.017846275 -0.013675959
0.030523913 0.0428839 0.0018014536 -0.0015231733 0.017649846 -0.01324505 -0.020903325 -0.020564243
0.018355127 -0.034932632 0.039662357 -0.007250879 0.036902785 0.022299929 0.0025581939 0.008072544
-0.024570743 0.024374368 0.009149801 0.006870181 -0.005748713 -0.0051445942 0.030635798 -0.015394008
-0.045109235 -0.029519375 -0.018649295 -0.022159455 -0.01491427 0.034430463 0.037542403 0.025652507
0.033340067 0.0061665033 -0.0068843504 0.04634972 0.0015425337 0.021682622 -0.008042759 -0.014836858
0.017007109 -0.025641587 -0.025967268 -0.03540126 0.044510458 -0.0012583416 0.013991181 -0.040367864
0.0019301381 -0.011976452 0.04443397 -0.038321342 0.012552125 0.029051516 -0.036823276 -0.040652093
0.00032937585 -0.012834863 -0.030577166 -0.007802277 0.008654037 -0.050209247 0.016672762 -0.009890591
-0.028500749 -0.029086655 -0.03218638 -0.0026830097 -0.05120285 -0.039736405 -0.0065539987 -0.03166028
0.037787 -0.001903556 -0.009085484 0.031374127 0.004049812 0.037558194 -0.01776947 -0.0387222
0.048260797 -0.022938423 0.015413979 0.039895047 -0.026951628 -0.013821914 0.035446484 0.007463865
0.017209914 0.024855744 0.018728325 -0.0022998478 0.008603392 0.027440278 -0.012071438 0.0023487634
0.0037832826 -0.0002291791 0.0037369276 0.02689361 0.00598444 -0.049377054 0.031713244 0.009103486
0.015238512 -0.0028423816 -0.0009895456 -0.009112295 0.027353903 0.039083634 0.01939962 0.0030036923
0.020274501 0.040573485 0.0057872427 0.033892818 -0.00417051 0.069576606 -0.016423365 0.0015458541
-0.026851026 0.035350762 -0.032649912 -0.028316505 -0.018587163 -0.007250399 0.0063714474 -0.01936775
-0.0118058 -0.030785868 0.021077182 0.018940004 0.024680944 -0.01863156 0.0017902569 0.04126497
-0.012176598 0.04838781 0.03165409 -0.022148047 0.02548623 -0.009844999 0.024480961 0.0068848906
0.047644343 -0.014722751 -0.041792985 0.0031219139 0.002889471 0.013194828 0.025556494 -0.012708293
-0.00019297161 -0.024228144 0.0123006515 0.01963324 0.00017325577 -0.012756938 -0.016937204 0.020242913
0.028804855 0.023320429 -0.0026647977 -0.018102689 -0.015522505 0.00020684773 -0.045802757 -0.009159862
0.04078971 0.0026252214 -0.011086484 0.022473978 0.030058721 0.036164816 -0.04894083 -0.015257543
0.020517526 0.01740522 -0.00015515146 -0.013570371 -0.018291349 0.042715542 -0.010045386 -0.0077197086
-0.030431028 -0.020479828 0.028434245 -0.047798205 0.043390356 0.0623928 -0.0090975445 0.023368355
-0.029465403 0.07226573 0.05740718 -0.05846828 -0.07997362 0.024187278 -0.020530287 -0.018265817
-0.048639916 -0.006709753 0.041225865 0.006777343 -0.07110309 -0.039160915 0.012846193 0.07316577
0.0052680643 -0.009914377 0.0657123 0.12705639 -0.04830977 -0.00952031 0.0416466 0.10149298
0.035763882 -0.003300686 0.011852512 0.00460546 0.045696378 0.021344753 0.023591014 0.023021022
0.018306978 0.037167255 -0.020544881 0.01681438 0.034344003 -0.0026443293 0.009820609 0.02911575

encoder.8.bias f4 [64]
00000000: 58d0 36bc c1df 09bd ad2d b8bc fc01 6a3d
00000010: 3981 8abb f06b 31bc 4ec0 ef3c 05d5 643c
00000020: 58b0 4f3d eec9 1cbd f990 0c3d ecf6 81ba
00000030: 18d1 82bb c450 dc3c ac03 f7bb 3b8b 14bc
00000040: 5d87 5b3d ee41 2a3b df0f e0bc 348d 2d3d
00000050: 2c43 dcb9 3148 c8bc 4849 b5bc cd47 03bd
00000060: 0cd6 613c 4835 d2ba 0d96 91bd 2201 09bd
00000070: f78f 283d 79e8 813c 0253 2abd f41e 1bbb
00000080: c450 c13b ffc6 823c 2db2 32bd 65f8 9abc
00000090: af3a 263c 260f e9bc 98f7 78bc d610 e8bc
000000a0: d172 00bd ffb6 373d 8b68 56bb ef47 b73c
000000b0: b333 65bb 5548 38bc 6097 bcba 5578 73bc
000000c0: 1759 babc ceac 04bd 0ce2 033d 3dc5 c9bc
000000d0: 7274 013d 409f 91bc b149 cebc ba0e ae3c
000000e0: 5f89 97bc 4f73 0a3c a744 983c b0de ed3b
000000f0: 1b85 523d d170 c63c 126e 2ebd 1d7a b7bc
-0.011158071 -0.033660654 -0.022482717 0.0571308 -0.0042268303 -0.010828957 0.029266503 0.013966803
0.050705284 -0.038278513 0.034317944 -0.0009915507 -0.003992211 0.02689398 -0.0075382795 -0.009066398
0.05359589 0.0025979239 -0.027351318 0.04237099 -0.00042011717 -0.024448486 -0.02212967 -0.032050896
0.013783943 -0.0016037608 -0.07108698 -0.033448346 0.04115292 0.015857922 -0.04158307 -0.0023669573
0.0058995206 0.01596403 -0.043626953 -0.018917272 0.010145827 -0.028449606 -0.01519575 -0.02832834
-0.031359497 0.044852253 -0.003271612 0.022373168 -0.0034973442 -0.011247714 -0.0014388375 -0.014860232
-0.02274756 -0.032391362 0.032197997 -0.024630183 0.03160519 -0.017776132 -0.025181623 0.021247257
-0.01849812 0.008450343 0.018587423 0.0072592124 0.05139647 0.024223717 -0.04258544 -0.022397095

encoder.9.weight f4 [64]
00000000: d03c 7a3f 7f1b 843f 9b10 823f c6a5 803f
00000010: d19c 813f 0650 7e3f 388f 803f 2c50 7f3f
00000020: 77d2 823f ab38 813f fae6 803f cc71 7e3f
00000030: 2ffb 7b3f 499f 793f bb5e 803f b51b 803f
00000040: 8452 7d3f 5ec6 813f 6e44 813f f4ff 793f
00000050: ec38 7a3f ccce 833f 4edb 763f b872 803f
00000060: 6ec9 7f3f 3c80 853f fbcd 7a3f 01c7 7a3f
00000070: d5bd 863f 8d96 823f a981 7e3f 29f3 763f
00000080: 1695 783f 55da 7f3f af01 813f 5299 7b3f
00000090: 3a9f 7a3f a76d 813f 4dad 793f cba2 773f
000000a0: 7780 783f 242e 853f 563f 7b3f f452 873f
000000b0: 013e 7e3f 16b4 733f 918c 793f 570d 793f
000000c0: 57ff 793f c53c 823f d144 7c3f 658d 813f
000000d0: 0377 7d3f 5b06 7e3f 76c1 803f 800a 7a3f
000000e0: 2fe2 7c3f 0bc8 783f 71d3 7e3f 37e4 7f3f
000000f0: 8f44 7f3f 3996 803f ad39 7c3f 5c9a 803f
0.9774904 1.0320891 1.0161318 1.005059 1.0125982 0.99340856 1.0043707 0.9973171
1.0220479 1.0095419 1.0070488 0.9939239 0.9843015 0.97508675 1.002891 1.0008456
0.98954034 1.0138662 1.0099008 0.9765618 0.97743106 1.0297484 0.9642838 1.0035009
0.9991673 1.0429759 0.9797055 0.97959906 1.0526682 1.0202194 0.99416596 0.9646478
0.9710249 0.99942523 1.0078639 0.98280823 0.9789921 1.0111588 0.9753006 0.9673278
0.9707102 1.0404706 0.9814352 1.057219 0.9931336 0.95196664 0.9748011 0.9728598
0.9765524 1.0174795 0.98542506 1.0121275 0.9900972 0.9922845 1.005904 0.9767227
0.9878263 0.9718024 0.99541384 0.99957603 0.9971399 1.0045844 0.98525506 1.0047107

encoder.9.bias f4 [64]
00000000: c230 973b f28d ba3c ccc2 253d f6e2 253d
00000010: 70b0 783c a0f6 aebb 3bbb fe3b 9be3 0f3d
00000020: 538a 083c 45e1 f13c e053 203c 419e 043d
00000030: f5b4 f43b 74ac 873c 6fe0 713c bd7c 043d
00000040: 1d87 803c 18b6 1a3d 41a0 54bb da7b 723c
00000050: e5f9 04bc 2666 6cbc 4e2e f03b d657 4abc
00000060: 542d 9b3c 4474 5d3c 1331 9c3b 82c3 32bc
00000070: 74b8 323b 172b 6e3c 140a 193d d034 4a3c
00000080: c7b9 1c3b bbab 95bc 3464 163d 3055 92bc
00000090: 3681 443b abc3 2a3c 5c0e e23b 8efe 5f3c
000000a0: 4f63 0d3b 04b7 d2b8 e146 9eba d81d f03c
000000b0: a8fd 1c3d 401d 87bc 80cc 0cb9 9adf 023d
000000c0: 8581 033d b764 5e3d 36b7 5f3c 2e0a bd3c
000000d0: 68fc c8bb 6885 8b3d 6916 863d 44e0 19ba
000000e0: b405 aa3c abf4 1fbc cab0 f03c e90f 8c3c
000000f0: 00c0 493c f4aa 3d3c 5233 f73c e4b2 6c3d
0.0046139667 0.022772763 0.040468976 0.04049965 0.015178785 -0.0053394586 0.0077737845 0.03512917
0.00833376 0.029526362 0.009785622 0.032377485 0.007467861 0.016561724 0.014762982 0.032345522
0.015689427 0.037771314 -0.0032444152 0.014800036 -0.00811622 -0.014428651 0.0073297387 -0.012350043
0.018942513 0.013516489 0.0047665923 -0.0109108705 0.0027270587 0.014536641 0.037363127 0.012341693
0.0023914443 -0.018270364 0.036716655 -0.017862886 0.0029984242 0.010422627 0.0068986844 0.01367153
0.0021574085 -0.0001004767 -0.0012075567 0.029311106 0.038327843 -0.01649344 -0.00013427623 0.031951524
0.03210594 0.054295268 0.013654521 0.023076143 -0.006133605 0.068125546 0.06547243 -0.0005869905
0.020754673 -0.009762923 0.029381175 0.01709743 0.012313843 0.011576403 0.030175839 0.05778779

encoder.9.running_mean f4 [64]
00000000: ada0 a33e 048c 89bf b3e9 1cc0 b824 57bf
00000010: fff5 9fbe 63f7 523f 0fa6 133f 30f0 563f
00000020: 517e d3be 0029 2ebf c404 173f 0896 873d
00000030: c2d1 223f 57d8 2c3f db5d 09c0 26b6 99bf
00000040: 9a73 213f d003 84bf 35d1 d8bf 0f74 533f
00000050: 717c 153f 29ef 433f 7bb2 a23f 2a2c 2ebe
00000060: 79f4 5c3e 39ed e1bf 5995 1d3f 2f10 c13e
00000070: 829f 51bf aa34 b5bf a230 8e3e 249d d13e
00000080: b894 203f b18b d3bf 4e80 47bf adfb 3e3f
00000090: eb39 cf3e 6387 65bf c882 b8bd c47a 893e
000000a0: 1c9d 9f3f eda4 95be a81a 2c3f bae7 d3bf
000000b0: 5b20 e6bf e0d8 053e 4cde 8d3e 13b5 68bf
000000c0: f65a 203f b294 41c0 2c8d 1a3f 7866 bd3c
000000d0: 4200 d73e c005 32bf 686b 03c0 92de 1e3f
000000e0: 2a30 5e3f 14f3 48bb 680a fc3e d9bd 843e
000000f0: b697 823e 54fd fc3e d3cf 10be 98fc 21c0
0.31958523 -1.0745854 -2.4517639 -0.84040403 -0.31242368 0.8240873 0.5767526 0.8396025
-0.4130731 -0.6803131 0.58991647 0.06620413 0.63601315 0.6751761 -2.1463535 -1.2008712
0.6306702 -1.0313663 -1.6938845 0.82598966 0.5839301 0.76536804 1.2710718 -0.17009035
0.21577634 -1.765052 0.6155601 0.3770766 -0.81884015 -1.4156697 0.2777148 0.409402
0.62726927 -1.6527005 -0.7793015 0.74602777 0.40473875 -0.8965971 -0.090093195 0.26851475
1.2469821 -0.2922739 0.67228174 -1.6555092 -1.7978624 0.13071012 0.27708662 -0.909013
0.62638795 -3.0247006 0.6037166 0.02312015 0.41992384 -0.69540024 -2.0534306 0.62058365
0.8679224 -0.0030662464 0.4922669 0.25926092 0.2550637 0.49412024 -0.14141779 -2.531042

encoder.9.running_var f4 [64]
00000000: 657f 2340 8c9f 0641 937c 0c41 4b5b 3b3f
00000010: c702 5540 8e8c 6640 c057 7040 c4d3 cb40
00000020: 0ac4 b23f 981b aa3f 1032 9940 bc24 7940
00000030: 6eaf 9140 90a8 cb40 f827 6640 f61f 8b40
00000040: 2812 9b40 d9a2 ba40 de83 0341 250f b440
00000050: cdff 8740 0fab c43f 7ee9 b740 c6a9 4f40
00000060: a096 c040 5a03 2a41 47ed a640 51b3 8f40
00000070: 57c4 f040 ab33 fe40 791a b740 aa86 8040
00000080: 3998 9440 db11 2441 09b4 3440 ac08 9e40
00000090: 9d7b 1840 dc42 4d3f f9d9 3540 e892 3940
000000a0: fab9 c940 f3e7 e340 ef9c 9140 3dce 843f
000000b0: 4976 2340 2ae0 2040 fe4a 7340 3598 353f
000000c0: fc9b a440 d35d e340 a71d b240 7dc4 f740
000000d0: 0121 6140 b825 c53f 21ce 4440 6144 6c40
000000e0: 4b9d b640 088b 0740 84f2 6b40 a7ac a440
000000f0: 4caa 0b40 77cd bd40 bcf7 b740 047d 5940
2.5546505 8.413952 8.780414 0.73186177 3.3282945 3.6023288 3.7553558 6.3696003
1.3966076 1.3289671 4.787361 3.892867 4.5526648 6.3643265 3.5961895 4.3476515
4.8459663 5.832379 8.219694 5.6268487 4.2499757 1.5364703 5.7472525 3.2447371
6.018387 10.625818 5.2164645 4.490639 7.5239673 7.943807 5.7219815 4.0164385
4.643582 10.254359 2.8234885 4.9385586 2.3825448 0.80180144 2.841429 2.8995914
6.303952 7.122064 4.550407 1.0375439 2.5540946 2.513682 3.8014522 0.70935374
5.144041 7.105203 5.5661197 7.7427354 3.5176394 1.5402136 3.075081 3.6916735
5.706701 2.1178608 3.686677 5.1460757 2.182269 5.931331 5.748991 3.3982553

decoder.0.weight f4 [64, 32, 4, 4]
00000000: f00c 6bbc db06 42bd 4dc4 bd3c 4bdd a73c
00000010: cbc5 1fbd 78ac 3b3d c6ff a1bc 342b 26bc
00000020: 82e9 f73c 7e44 993c 1d81 cebc 3d1d afbc
00000030: 8954 ba3c b55a e63c 991a 6dbc e16a 253d
00000040: e429 dc3b 3496 0e3c 6dff cc3a 366b 173c
00000050: 9dcb 87bd 70e0 96bc 5b9e 68bd 0435 1cbb
00000060: 03f7 c5ba ae4c 923c 892e cc3c 32f0 393d
00000070: 82a4 56bc 945b 59bc f314 2ebc 8385 1e3d
00000080: 4041 4f3d 4115 dfbc 91db 293d 62ea 583c
00000090: 70db 8e3c de3f 1ebd f279 e7bc 928a ca3c
000000a0: 042a f63c 5bf2 18bc 8c11 92bc f4be 05bd
000000b0: c63a 023d f8b5 b7bb c28f 7e3c 7c55 29bd
000000c0: 7691 c0bc 25bf 28bd ef42 abbc 5ba0 3fbd
000000d0: 97b7 043d 04ec e5bc 90d0 293d 8b8d a7bb
000000e0: 643e e93c 0304 5abc b630 c3bc c9d5 94bd
000000f0: 3d21 2bbd 4ca2 9dbc b39f ed3c c3a7 6cb9
00000100: 7e13 87bb 347e ba3c 3e65 3abd 0de9 f13b
00000110: d6bd d93b d290 113d bd2d 033c ecc1 c73b
00000120: ce57 9abc 69ea 3f3b c91a 13bd 271b d2bc
00000130: cc0e ae3b b642 d03c 254b 41bd cee8 43bd
00000140: ab13 14bd d456 a3bb 5993 49bd c486 85bc
00000150: 2f6e 35bb 9d38 0f3c 207b bb3c 5293 073d
00000160: 559a dcbc 2c8a 5a3d 26e9 103c 0c38 853a
00000170: 696d 00bd d76f 4dbd a253 95bc 2947 4cbb
00000180: fcb8 50bb 158a 023d 7b9c 32bd e8a3 80bc
00000190: ac50 39bd a6ec 6eb8 bc63 2f3c af3a 043d
000001a0: 62fe 1abd e013 86bd 715a 10bb 8148 423d
000001b0: f1e0 cbbc ed9c 413c 3eb4 ca3b 47c9 84bb
000001c0: 1385 2bbd f993 2a3d 9cf7 5fbd e5df 853c
000001d0: 88df 30bc eb3b 393d aaa3 6ebd 61b2 aa3c
000001e0: 5fd0 85bd bdb3 353d a0a7 603c 20de 343c
000001f0: f21b a53c 8ee4 763d b4e2 b5bc a222 89bc
00000200: 0f7c 19bd 8dcd 0fbd 2033 b3bc acc4 1bbb
00000210: 25a7 6dbd 0e5e 1bbc d685 e03b f9d5 03bc
00000220: fd8a 69bd b9b0 c63c 0bec 1f3d f4a4 293c
00000230: 94c2 c33c 0677 0c3d e47f c03c 8ee8 a0bc
00000240: d938 b0bc df63 813c 0088 e9bc fa1b c23c
00000250: 417a 403b 88b7 0abc 1f97 013d 5e6b c13c
00000260: c1ec c83c c809 66bd 4059 74bd d51e db3c
00000270: b2ff 75bb c017 473c 5fa1 44bb fbd2 7d3c
00000280: 6b7d 36bc 45ed 2a3c 2f09 683c 50d6 68bd
00000290: 5188 c53c 71b9 04bd 7f8b d0bc 533f 86bc
000002a0: 0a3f 63bd 2830 dbba fb4f 533c a321 17bd
000002b0: 5c1d 9fbc b1a8 98bc 6d61 99ba 5735 bd3c
000002c0: 68f7 b53c b3db e53c a24e 053d 5093 38bd
000002d0: 91c4 8bbb 46bf 70bc 405b f3bc 21c7 853b
000002e0: 1772 023d 5d7a 173d 2cf5 9cbc 950e a9bc
000002f0: d7af 77bc 6850 64bc b418 273d 8178 623c
00000300: 9e5b 01bd f22a dc3c b9be f1bc ddfd febb
00000310: ff3b 1f3d eace f8bb 4041 d23b 68ac 093c
00000320: 812b 6bbc 9bfb 2a3c d348 b93c 8c92 143d
00000330: 57b9 6d3c c9c6 8bbd 54a7 c2bc 9a62 2bbd
00000340: 3b18 45bd 37ac ea3b a573 15bd e334 bd3c
00000350: 4614 b9bc e8aa ae3d 3ee3 ccbb a9bd 12bc
00000360: 59f7 0fbd b6cd f23b 51bf 9b3c cfa5 9a3b
00000370: d461 0a3c fee1 213c eb64 2f3c c1fe 90bc
00000380: 6227 dd3b df97 b73b 9024 a83c 01e0 d03c
00000390: b63c 0fbc e9c8 323c 2d49 24bd 3d93 ecbc
000003a0: da47 b13c 8b1e a6bc 7e4f 003b d71f 1bbc
000003b0: 2393 b3bb ce4d 45bd 3cb3 a5bc 2d04 d2bc
000003c0: 1c28 c2bc 11f8 0dbd 64df b4bc f558 df3c
000003d0: c7b8 83bd 457a 3c3c 893d e2bb d562 0dbd
000003e0: e48c c5bc 8f69 bd3b 3886 0b3a 1073 b33c
000003f0: 6410 4ebd c386 17bd 118e f2bc 2146 cd3c
-0.014346346 -0.04736982 0.023164893 0.020491263 -0.03900699 0.045818776 -0.019775283 -0.010142136
0.030262712 0.018709417 -0.02520805 -0.021376247 0.022745388 0.028119424 -0.014471673 0.04038513
0.006718861 0.008702803 0.0015640088 0.00924187 -0.06630633 -0.018417567 -0.056791645 -0.002383531
-0.0015103522 0.01785883 0.024924533 0.045395084 -0.013100745 -0.013266463 -0.010625112 0.038701545
0.050599337 -0.027231814 0.04146916 0.013239475 0.01743862 -0.038635127 -0.02825639 0.024724279
0.030049331 -0.009335126 -0.017830633 -0.03265281 0.031794332 -0.005606409 0.015537204 -0.04134129
-0.023506861 -0.041197915 -0.02090594 -0.046783786 0.032401647 -0.028066643 0.041458666 -0.005113309
0.028472133 -0.0133066205 -0.023826938 -0.07267339 -0.041779745 -0.019242428 0.029006815 -0.0002256921
-0.0041221967 0.022765256 -0.04550671 0.007382518 0.0066449447 0.035538502 0.00800651 0.0060961153
-0.018840697 0.0029284006 -0.035914216 -0.025647713 0.0053118225 0.025422435 -0.047190804 -0.04782944
-0.03615157 -0.004984716 -0.049212787 -0.016299613 -0.0027684083 0.008741525 0.022885859 0.03309948
-0.02692906 0.053354427 0.008844649 0.0010163798 -0.03135434 -0.050155487 -0.018228356 -0.0031170344
-0.003184854 0.031869967 -0.043606263 -0.015703157 -0.04524295 -5.6964018e-05 0.010704931 0.032282528
-0.037840255 -0.065467596 -0.0022026564 0.047432426 -0.024887534 0.011817199 0.0061860373 -0.0040523144
-0.041874956 0.041645024 -0.054679498 0.016342113 -0.0107954815 0.045223158 -0.05826155 0.02083701
-0.06533884 0.044360865 0.01371184 0.011039287 0.020154927 0.06027656 -0.022202827 -0.016740147
-0.037471827 -0.035108138 -0.021874964 -0.0023768349 -0.05802073 -0.009482874 0.006851892 -0.0080466205
-0.057017315 0.02425419 0.039043467 0.010354269 0.023896493 0.034293197 0.023498483 -0.01964214
-0.021511482 0.015794693 -0.028507233 0.02369498 0.0029369744 -0.008466609 0.03163826 0.023610767
0.024526956 -0.056161672 -0.059655428 0.0267481 -0.003753644 0.012151659 -0.0030003411 0.015492196
-0.0111383 0.010432546 0.014162346 -0.05684501 0.024112852 -0.032403413 -0.025457142 -0.016387617
-0.05548004 -0.0016722726 0.012897487 -0.036897313 -0.01942318 -0.018635126 -0.0011702009 0.023096723
0.022212699 0.028058862 0.032545693 -0.045062363 -0.004265376 -0.014694041 -0.029706597 0.004082576
0.031847086 0.03698193 -0.019159876 -0.020636836 -0.015117607 -0.013935186 0.040795043 0.013822676
-0.031581514 0.026875947 -0.029509889 -0.0077817277 0.038875576 -0.0075930255 0.00641647 0.008402921
-0.014353634 0.010435964 0.022617733 0.03627257 0.0145095205 -0.06825025 -0.023761429 -0.04184208
-0.04811881 0.007161643 -0.03648724 0.023096507 -0.022592675 0.085286915 -0.0062526753 -0.008956351
-0.035148 0.0074097766 0.019012125 0.004719473 0.008446176 0.009880541 0.010705213 -0.017699601
0.0067490796 0.0056028212 0.020525247 0.025497438 -0.008742502 0.0109121585 -0.04010885 -0.028878802
0.021640707 -0.020278236 0.001957863 -0.00946804 -0.0054801865 -0.048169903 -0.020227067 -0.025636757
-0.023700766 -0.034660403 -0.022079177 0.027264098 -0.06431728 0.011503761 -0.006904308 -0.03451808
-0.024115033 0.005780406 0.00053224294 0.021905452 -0.0503086 -0.036993753 -0.029608758 0.025057854

decoder.0.bias f4 [32]
00000000: bc9e 87bd d2d3 89bd 75ec 7abd a6d2 90bd
00000010: 5309 e5bd 2181 a2bd c3a8 0fbe e7c5 e3bd
00000020: 9ad6 e8bd f8ff d6bd bcb4 00be da55 8bbd
00000030: d6fc 26be da99 1abe 0d60 1fbd dfc0 0ebe
00000040: b3d0 09be 41fc 06be 4adb 8abd 135f 0bbe
00000050: d31d 18be 5089 c1bd 8988 bebd f9de e5bd
00000060: 81a4 e9bd cb14 fabd 0073 dfbd 2455 d0bd
00000070: 191e ddbd 696b 23be 634b debd 2262 09be
-0.06622073 -0.06729855 -0.06126066 -0.07071428 -0.11183419 -0.07934786 -0.14029221 -0.11121731
-0.11369057 -0.10498041 -0.12568945 -0.06803484 -0.16307387 -0.15097752 -0.03890996 -0.13940762
-0.13458519 -0.13182165 -0.06780107 -0.13610487 -0.14855127 -0.094500184 -0.09303386 -0.11224169
-0.1140833 -0.12210997 -0.109106064 -0.10172489 -0.10796756 -0.15958942 -0.108542226 -0.13416341

decoder.1.weight f4 [32]
00000000: a819 793f 2135 773f de3d 7e3f 94e3 7d3f
00000010: 6f5e 773f a01e 833f f4b5 863f 5c1f 803f
00000020: 07c3 7a3f 2f5e 7c3f fe71 7e3f 0909 7c3f
00000030: 3c52 7e3f 4220 803f bcda 773f 59a2 843f
00000040: 2b49 803f 7c17 7e3f fc9e 783f de00 813f
00000050: d4cc 6f3f f0f0 773f b7e9 7e3f ab60 7c3f
00000060: 8afb 853f 9b7b 773f 39c8 803f 1ed1 763f
00000070: f125 7e3f 4d23 793f 0cdf 8d3f ca88 7d3f
0.97304773 0.96565443 0.9931315 0.9917538 0.9662847 1.0243721 1.0524278 1.000957
0.9795384 0.9858121 0.9939269 0.98451287 0.9934423 1.0009844 0.9681814 1.0362045
1.0022329 0.99254584 0.9711759 1.007839 0.9367192 0.96852016 0.9957537 0.98585004
1.0467389 0.9667298 1.0061103 0.9641284 0.99276644 0.9731949 1.1083694 0.9903685

decoder.1.bias f4 [32]
00000000: 7ac7 be3b 0113 b8bc af85 603c 7afc c43b
00000010: 5054 953d 8ca1 62bc 3ee3 743d a2df 923c
00000020: 0159 b3bc bf64 d5bc 67c8 883b 4eef f33b
00000030: c4d0 23bc dc74 b03c 6493 91bb 5ffb 533d
00000040: 0e7c 143d 1622 ffbb 5e2e a03c aabb db3c
00000050: 453c e43a 25bb ab3b f852 823c b4c0 663c
00000060: 20cd 703d 2627 99bc 24c0 513c 496a 11bd
00000070: 489a 803c 2f71 5fbc 9cd2 993d 9067 b73c
0.0058221193 -0.02247 0.013703748 0.006011543 0.07291472 -0.013832461 0.059787028 0.017928902
-0.021893026 -0.026049016 0.0041742804 0.007444299 -0.009998504 0.021540098 -0.004442619 0.051753398
0.03625112 -0.007786046 0.01955336 0.026822884 0.0017412981 0.005240815 0.015908703 0.01408403
0.058789372 -0.018695425 0.012802158 -0.035501752 0.015698567 -0.013637825 0.07510874 0.02238825

decoder.1.running_mean f4 [32]
00000000: 7a51 82be 58f9 cebe 1540 3fbe 8c35 0dbf
00000010: 951d 5fbe 5f18 4abf 4fc4 42bf 4b67 04be
00000020: 4620 07bf 92aa 18bf 783c babe 1fb4 3abd
00000030: 979d ffbe 1b4a 47bf 7ab1 e8be 5cae 5cbf
00000040: 42df 33bf a880 3dbf 2792 0abe 91dd 2fbf
00000050: e2e6 25bd 9422 c8be aef4 a0be 5a13 e03e
00000060: 3495 83bf 2799 fbbe f907 54bf d9bd 50bf
00000070: b3bc 0dbf d877 efbe e9d2 12bf 329c a6be
-0.25452787 -0.4042461 -0.18676789 -0.5515983 -0.21788628 -0.7894344 -0.76080793 -0.12930028
-0.5278362 -0.5963527 -0.3637426 -0.045581933 -0.4992492 -0.7784745 -0.45447904 -0.8620355
-0.7026254 -0.7402444 -0.13532315 -0.6869746 -0.04050339 -0.3908888 -0.31436676 0.43764764
-1.0279908 -0.49140283 -0.82824665 -0.81539685 -0.5536606 -0.4677112 -0.57353073 -0.32541043

decoder.1.running_var f4 [32]
00000000: c579 f23f 9ba3 5a40 3d6d 923f c8cb 1040
00000010: 40de 5a3f 29f7 663f 2065 aa3f 6cff b53f
00000020: e5b2 ab3f 8d44 e33f 2d56 ce3f a116 d53f
00000030: 93c7 3c3f 618f 833f 1fa5 4240 d821 d33f
00000040: efc0 af3f 55ce 863f 79f7 0740 cb46 5f3f
00000050: d382 1d3f 4718 9f3f 1902 a73f b7b2 df3f
00000060: 1db4 403f 341d 8e3f 17fd a43f 5d24 0d40
00000070: 9d0f 403f cc8d 843f 44a3 213f 6cbe 4a3f
1.8943411 3.4162357 1.1439587 2.2624378 0.85495377 0.90220886 1.3312111 1.4218574
1.3413969 1.7755295 1.6120049 1.6647531 0.73742026 1.0278131 3.0413282 1.6494703
1.3730754 1.0531718 2.1244795 0.87217396 0.61527747 1.2429284 1.3047515 1.7476414
0.7527483 1.1102662 1.2889737 2.2053444 0.75023824 1.0355773 0.6313975 0.7919681

decoder.3.weight f4 [32, 16, 4, 4]
00000000: 4d93 653a 512c 17bc 1342 5fbd c138 6abd
00000010: 2f8e 33bc e8e9 f03b 5045 2c3d 024f 8e3b
00000020: fec7 6fbd 6375 90bc e8db 473d 6b8f 61bc
00000030: e191 d53c 3af5 9d3c 253e 173d 8405 1bbb
00000040: a521 143d cee1 b23c ce75 883c 8f95 273d
00000050: 3511 27bd e77f 703c eeac 043c a9db 8dbc
00000060: e6fd 3abd 375b 9e3c df4e 84bd d41f 3c3c
00000070: e2ef f1bb fe7e b0bc 68d5 9a3b a12a 58bd
00000080: 828f 6bbc 2dcd 9dbc 1c3e 1ebd 2a51 5fbd
00000090: fcdf 0d3d ec7e 143c f417 ef3c d483 cb3c
000000a0: 28e2 df3c 7b17 a0bc 8c81 053d 402f de3c
000000b0: 6665 c7bc 4e2e 043d d4d0 f8bc 08a3 a83c
000000c0: 8b57 9ebb 97ee 9fbc 80c8 51bd 7609 61bd
000000d0: 0f78 94bd e086 b83b 6f5f 2fbd c81a 493c
000000e0: c8d7 ebbc 1e81 cc3c 0718 8d3b bfc6 1ebd
000000f0: be0d 8ebd feae 42bd 8c7a 1cbd 7a6f 5dbd
00000100: cd0c d339 e51e 1ebd fca0 75bc 831a 57bd
00000110: a2b3 d0bc 8f33 27bd dafe 7ebd b262 d1bb
00000120: c2da 2a3d 2c2b 37bd 61f6 563c 3bdc 6dbc
00000130: a635 4cbd 02d3 a8bc 495a 67bd 5191 46bc
00000140: 5cbd 4ebd 79ae d6ba 7726 9e3d 4a38 64bc
00000150: 7c53 02bd ad74 71bc ef1f 803d 9207 e4bc
00000160: b4f6 263d 0b2d 0a3d 6554 58bc adba c6bc
00000170: 7525 113d 5d9c 36bd ae9c ffbb ebc4 01bc
00000180: ec8c 633b 7ae8 ac3c 5108 23bd 4c34 cb3c
00000190: ebe0 fd3c d469 e93c f146 2c3b 3d3d 38bc
000001a0: 281d 1d3d 6be9 683d e7aa 21bd e227 5f3d
000001b0: 6388 49bd 8022 973d 7528 0abd 04b9 60bb
000001c0: 4fbb 073d ab98 103d a410 10bd 6a89 473d
000001d0: 4854 b3bc d18f 0dbd fdbf 0a3d 6e92 64bd
000001e0: 67ad b13c 0b29 efbb c69b 93bc ac54 27bd
000001f0: 8a7c 253d 797e b53b 6512 363d a94a e3bc
00000200: 1764 a83c c5ff 7a3d ede2 e3bc 1ecc 21bd
00000210: 03b8 d1bc 073f 823d 17c6 ff3b a7e7 47bd
00000220: 0d7c 05bd 06b9 f9bc 1f25 a03d e98d 1b3d
00000230: 637f 91bc ea90 e9ba 7218 633d 2b20 adbc
00000240: 49c5 e3bc c94b 86bd 798e b8bc a361 d93c
00000250: 8282 093d b0a9 da3c 6890 953c 68ac 1b3c
00000260: 8a81 323c f477 a53c d826 dfbb f561 c5bb
00000270: 6fd3 4e3d c363 a7ba c741 093d cb2e af3b
00000280: 8a19 6e3c baec 17bd 5eb6 f73c 934d 45bd
00000290: 61ef 8f3c 9a9c b6bd f2e6 9ebc 6b09 2abd
000002a0: c6fe 7b3c d5ee 58bd ccda dd3b c796 ed3c
000002b0: 59db 14bd 0646 933c b437 953b 4400 29bc
000002c0: 0e79 b73c d97d 88bd 5757 963d a01b 0abd
000002d0: 540e 1dbd 29c5 843d 7db3 e1bc f11d 2dbd
000002e0: dd87 283b 87d4 11bd 07fc bb3c 51ab 66bb
000002f0: 43f5 6f3d d555 4e3d 6cc8 a2bd d8e0 68bb
00000300: b098 453d 1cef 683c 71a2 f7bb ccff 49bd
00000310: ba5d 7ebd c270 eb3c 585c b0bc 50e8 013d
00000320: 7161 3cbd c3ec 49bd d8bb 933c 02f6 29bd
00000330: b770 9b3c f9fa acbc 72de 45bd 7dda 723b
00000340: de73 45bd 1dd0 9cbb c079 9fbd ba86 34bd
00000350: 5848 35bd 1f64 82bd e8b3 4fbd f046 56bd
00000360: 2b37 2a3d e020 b33b 941f 5ebc 8a77 86bd
00000370: a1ad 65bc 9a76 83bd 11e0 c73b e949 b6bc
00000380: c914 22ba 6afc 823c 7027 2abc e138 90bc
00000390: 77b3 073d 276e 68bd 80c5 6abd fb0c 7bbd
000003a0: a11f b13c 84a6 7cbd a92e 92bc adb4 98bc
000003b0: 8370 9abc ea1b 7dbc 1bc3 66bc 499d d73c
000003c0: 095f f2bc b945 8ebd 60aa 4f3c b2dc 18bd
000003d0: 429d a2bb b17d 2abd d927 293c ea10 54bd
000003e0: 1082 683d 348d 1ebc 6e72 adbc 9956 ecbc
000003f0: c15c 5abd f0c3 9ebc 9224 79bc 2602 f43c
0.0008757606 -0.009226874 -0.054506373 -0.05718303 -0.010959192 0.0073521025 0.04205829 0.0043429146
-0.058540337 -0.0176341 0.048793703 -0.013767104 0.026070537 0.019281972 0.0369245 -0.002365441
0.0361649 0.021836188 0.016657736 0.040914115 -0.040787894 0.014678932 0.00809787 -0.017316656
-0.045652293 0.019330604 -0.06460356 0.011482198 -0.0073833326 -0.02154493 0.004725147 -0.05277503
-0.014377477 -0.019262874 -0.03863345 -0.054520763 0.034637436 0.009063464 0.029186226 0.024843134
0.02732952 -0.019542446 0.03259425 0.02712214 -0.024340343 0.032270722 -0.030373015 0.020585552
-0.0048322133 -0.019522948 -0.051216602 -0.054940663 -0.07249462 0.0056313127 -0.042815622 0.012274452
-0.028789416 0.024963912 0.004305843 -0.038763758 -0.06936215 -0.047530167 -0.038202807 -0.05406139
0.00040254593 -0.038603682 -0.014991995 -0.052515518 -0.02547628 -0.040820654 -0.062254764 -0.006389939
0.04171253 -0.044718906 0.013120265 -0.014517839 -0.04985585 -0.020608429 -0.056482587 -0.012119607
-0.050473556 -0.0016378901 0.0772218 -0.013929436 -0.0318179 -0.01473729 0.06256091 -0.027835641
0.04076262 0.033734363 -0.013203715 -0.024258936 0.035436112 -0.044582713 -0.00780066 -0.007920484
0.0034721447 0.021106947 -0.039802853 0.02480521 0.030991038 0.028492846 0.0026287402 -0.011245069
0.038357884 0.05686323 -0.039469626 0.054481395 -0.049202334 0.07379627 -0.03372999 -0.0034289965
0.033137616 0.035301846 -0.03517212 0.048715033 -0.021890774 -0.034560982 0.0338745 -0.05580371
0.02168913 -0.007298594 -0.018018615 -0.040852234 0.040401973 0.0055387584 0.044451136 -0.027745562
0.020555539 0.061279077 -0.027818168 -0.039501302 -0.025600439 0.06359678 0.0078055966 -0.048804905
-0.032589007 -0.030483734 0.0781958 0.037977133 -0.017760938 -0.0017819677 0.055443235 -0.021133503
-0.027804034 -0.065574236 -0.022528874 0.026535815 0.033571728 0.026692241 0.018257335 0.009501554
0.010895142 0.0201988 -0.0068100505 -0.0060236403 0.050494608 -0.001277082 0.033509996 0.0053461543
0.014532456 -0.037090994 0.030238327 -0.048169684 0.0175702 -0.08916588 -0.019397233 -0.041512888
0.015380567 -0.052962143 0.0067704674 0.02900256 -0.036342 0.017977726 0.0045537595 -0.010315005
0.02239659 -0.066646285 0.073408775 -0.03371775 -0.038343742 0.06482918 -0.027551407 -0.042264882
0.0025715746 -0.035603072 0.022947324 -0.0035197327 0.05858351 0.050374825 -0.07948384 -0.0035534408
0.048241317 0.014217164 -0.0075572063 -0.049316213 -0.062101103 0.02874029 -0.021528408 0.03171569
-0.045991365 -0.04929806 0.018033907 -0.041494377 0.018974645 -0.021115767 -0.048307844 0.0037056499
-0.048206203 -0.004785551 -0.07786894 -0.044073798 -0.044258446 -0.06366753 -0.05070868 -0.052313745
0.04155652 0.0054665655 -0.0135573335 -0.06565769 -0.014018447 -0.06419106 0.006099709 -0.02225204
-0.0006182907 0.015989501 -0.010385379 -0.017605247 0.033130135 -0.056745674 -0.057317257 -0.061291676
0.021621527 -0.06168224 -0.017844515 -0.01864084 -0.018852478 -0.01544855 -0.014084603 0.026320117
-0.029586332 -0.06946892 0.012674898 -0.037319846 -0.0049625942 -0.041623775 0.010324442 -0.051773943
0.056764662 -0.00967722 -0.021172728 -0.028849887 -0.053311113 -0.01938054 -0.015206473 0.02978618

decoder.3.bias f4 [16]
00000000: 872c 9cbd 8d8f c0bc baaa 19bd 205f 873d
00000010: a14d e0bb cdf3 5d3d 2153 8bbd 0538 9bbb
00000020: 5d04 6abd a048 61bd c8e1 34bc e48a c63d
00000030: 2ffa 123d 585c 743d bf5b 973c 892a 493d
-0.076256804 -0.02350595 -0.037516333 0.066099405 -0.0068451916 0.054187585 -0.06802965 -0.0047369027
-0.057133067 -0.0550009 -0.011040159 0.0969446 0.035883125 0.05965838 0.018476365 0.04911283

decoder.4.weight f4 [16]
00000000: e56d 6c3f 33a1 7f3f 5175 833f 748b 873f
00000010: ed6a 833f 29fc 803f 4f35 833f 7180 783f
00000020: 265a 7e3f b91f 763f 8316 753f 3ad9 753f
00000030: 5c1f 783f dce1 833f 32e2 8b3f d255 793f
0.92355186 0.99855345 1.0270177 1.0589433 1.0267006 1.0076953 1.0250643 0.97070986
0.99356306 0.96142155 0.95737475 0.96034586 0.9692285 1.0303302 1.0928404 0.97396576

decoder.4.bias f4 [16]
00000000: 710b 54bc a165 743c 2da1 1b3d adbd 973d
00000010: 1fff f23c d5cc 1d3d adf8 f23c 11da 2a3c
00000020: 7907 0d3d b2c1 97bc 6f0b a9bc f058 cdbc
00000030: 7b68 3ebc b839 1a3d e8e2 b63d a3cc 33bc
-0.012942181 0.014916808 0.037995506 0.07409225 0.029662667 0.03852542 0.029659593 0.010427968
0.034430955 -0.018524978 -0.020635335 -0.025066823 -0.01162159 0.0376527 0.08929998 -0.010974082
