weights/improved_cae_ne3_b8_depthcolormap.pth (torch, 351519 bytes, 36 tensors)

encoder.0.weight f4 [16, 3, 4, 4]
-0.09793297 0.008836749 -0.010799202 -0.14984992 -0.033592187 -0.120306775 -0.13953963 -0.054752797
-0.026324838 0.07668525 -0.07948624 0.030399285 -0.063845836 0.046227317 0.009982912 0.1257424
-0.04421582 -0.14285606 -0.10252814 0.049794827 0.0035900904 0.08012094 0.12321233 0.044722088
-0.095713526 -0.14230895 -0.12971391 0.015851356 0.10740884 0.13152184 0.12882927 0.07910665
-0.00096012244 -0.003143806 -0.1270102 -0.053776186 0.026519256 0.08837781 0.083488695 0.10333911
-0.036528077 0.0017125842 -0.02174844 -0.04786346 -0.050036553 -0.08176826 -0.023933837 -0.14394249
-0.028166076 -0.082107075 0.13103734 -0.075543925 -0.0842211 0.039494175 0.008580778 -0.09662103
-0.049381692 0.10039159 -0.08003655 0.02402036 -0.097941466 0.0879521 0.11184269 -0.04843348
-0.020364475 -0.10804292 -0.07914808 0.13263197 -0.069871664 -0.025787413 0.1438389 0.06496453
-0.018570881 -0.052803744 -0.08007011 0.029349776 -0.07899348 -0.031519532 0.047733817 0.06330014
-0.14963925 0.11999005 -0.0014496245 -0.06263418 -0.08172492 0.0034031747 -0.07148323 -0.121008955
-0.079070784 -0.08678803 0.051679157 0.009741242 -0.014169912 0.03907034 0.07227738 0.07368751
0.091109104 0.06542725 0.032730315 -0.1334371 0.05114013 0.031909592 0.020917622 0.06698576
-0.027762158 0.11581516 -0.0010256573 -0.14636463 -0.09511511 -0.009383927 -0.059071537 -0.109707646
0.09572098 0.0065985587 -0.06582408 -0.14959008 -0.05090771 -0.11316649 0.07328268 0.0034895295
-0.039896235 -0.022375694 0.092561044 0.11977963 -0.14832558 0.0132220555 -0.16436185 -0.08939365
-0.14281403 -0.080073826 -0.050753728 0.067963146 -0.05849196 -0.13950492 0.0017706121 0.072700985
0.0037960687 0.077423796 0.053313192 -0.011228406 0.054174818 0.017724358 0.007591795 -0.05476962
-0.09709233 0.11494954 -0.0166651 -0.047573738 -0.07118689 -0.12862939 0.0041951337 -0.14494304
-0.095531166 -0.0014710936 -0.11250058 0.07926737 -0.07336788 0.09056451 -0.07747981 -0.04035645
0.072146416 -0.09407614 -0.1371022 -0.117849186 -0.03258114 0.07823643 0.098641664 0.0978939
-0.12004816 -0.08544194 0.10645942 0.07251399 -0.14367563 -0.052616294 0.09425102 -0.119907305
0.08136813 -0.06798858 0.011285779 0.09726816 -0.07747263 0.0399901 -0.0030821343 0.03796844
0.018800471 -0.024602113 0.099902764 -0.033986665 0.022000141 -0.015112876 0.04408045 0.051647052
0.037032273 -0.0090973135 0.042986345 -0.017225927 -0.13544257 -0.08173302 -0.116579965 -0.018601568
0.09941031 0.10808205 -0.108903125 -0.1544319 -0.01708265 -0.05814249 -0.044447396 0.10557115
-0.04404465 0.09024322 -0.030002646 0.103045754 0.046228014 -0.092256196 -0.010319879 -0.039140128
-0.022638453 -0.11869465 0.05872961 0.012834964 0.066632345 0.07989872 -0.09913099 0.054303408
-0.07292952 -0.10401198 0.12416203 0.11164196 -0.060413897 -0.15044709 -0.041695643 -0.14357227
0.03791495 -0.11391012 0.047278363 -0.022840878 -0.021752825 -0.11903853 0.044346377 0.12987721
-0.06533247 0.10519396 0.0065344265 0.036514208 -0.09706816 0.0543392 0.09633026 0.11052377
-0.030073168 -0.1264744 0.032348316 0.073414326 -0.11407231 0.09913125 -0.040071238 -0.08996299
00000000: 1591 c8bd 03c8 103c 23ef 30bc 4272 19be
00000010: f697 09bd 6663 f6bd 7ae3 0ebe 7844 60bd
00000020: 30a7 d7bc 280d 9d3d afc9 a2bd ec07 f93c
00000030: 9bc1 82bd db58 3d3d 5e8f 233c 9ec2 003e
00000040: a61b 35bd dc48 12be 46fa d1bd a9f5 4b3d
00000050: b947 6b3b 7316 a43d bf56 fc3d 822e 373d
00000060: 7405 c4bd 70b9 11be b9d3 04be b4da 813c
00000070: 2af9 db3d a9ad 063e d2eb 033e ab02 a23d
00000080: bab0 7bba 5008 4ebb f60e 02be 6b44 5cbd
00000090: e93e d93c 6dff b43d 1ffc aa3d 75a3 d33d
000000a0: 779e 15bd ca78 e03a c929 b2bc 7a0c 44bd
000000b0: 21f3 4cbd 1e76 a7bd e510 c4bc a965 13be
000000c0: 8bbc e6bc c127 a8bd a72e 063e c6b6 9abd
000000d0: 1d7c acbd a5c4 213d 6496 0c3c 3fe1 c5bd
000000e0: 7544 4abd 1b9a cd3d 34ea a3bd 59c6 c43c
000000f0: 8995 c8bd 3b20 b43d c80d e53d 2f62 46bd
00000100: 66d3 a6bc 9b45 ddbd 6318 a2bd add0 073e
00000110: e018 8fbd 2040 d3bc 814a 133e 200c 853d
00000120: f621 98bc bd48 58bd ccfb a3bd f16e f03c
00000130: 55c7 a1bd a01a 01bd 8984 433d 81a3 813d
00000140: 083b 19be 58bd f53d 5401 beba 5946 80bd
00000150: 655f a7bd cc07 5f3b cd65 92bd 8bd3 f7bd
00000160: ddef a1bd ecbd b1bd 86ad 533d bb99 1f3c
00000170: eb28 68bc 3908 203d 2a06 943d 7ae9 963d
00000180: 6997 ba3d b9fe 853d 3910 063d bca3 08be
00000190: 5078 513d a2b3 023d 6f5b ab3c d52f 893d
000001a0: 776d e3bc 8030 ed3d 596f 86ba 9ce0 15be
000001b0: b6cb c2bd 0bbf 19bc fff4 71bd 67ae e0bd
000001c0: 5c09 c43d b938 d83b c6ce 86bd 242e 19be
000001d0: 9a84 50bd d5c3 e7bd 3b15 963d 97b0 643b
000001e0: 3c6a 23bd 3b4d b7bc a590 bd3d 064f f53d
000001f0: a9e2 17be 52a1 583c 794e 28be 0514 b7bd
00000200: d73d 12be bffd a3bd 24e3 4fbd 4330 8b3d
00000210: 4495 6fbd 61da 0ebe e213 e83a 41e4 943d
00000220: 77c7 783b 5e90 9e3d ef5e 5a3d 59f7 37bc
00000230: 6ae6 5d3d ac32 913c 98c4 f83b 1c56 60bd
00000240: 58d8 c6bd aa6a eb3d 3f85 88bc aedc 42bd
00000250: 6fca 91bd 6cb7 03be 5577 893b f36b 14be
00000260: d8a5 c3bd b6d1 c0ba b466 e6bd ee56 a23d
00000270: e641 96bd e379 b93d bcad 9ebd ce4c 25bd
00000280: 80c1 933d feaa c0bd 8564 0cbe ea5a f1bd
00000290: cd73 05bd 6c3a a03d a404 ca3d 997c c83d
000002a0: cfdb f5bd 2ffc aebd 6507 da3d 3782 943d
000002b0: b41f 13be 2f84 57bd ae06 c13d f691 f5bd
000002c0: 56a4 a63d 993d 8bbd fde7 383c 8734 c73d
000002d0: f8a9 9ebd a9cc 233d a2fd 49bb cc84 1b3d
000002e0: 7203 9a3c 5f8a c9bc d299 cc3d 9a35 0bbd
000002f0: a439 b43c ff9b 77bc b48d 343d dc8b 533d
00000300: 27af 173d e60c 15bc 7312 303d 631d 8dbc
00000310: 75b1 0abe a463 a7bd 7ac1 eebd 5162 98bc
00000320: a297 cb3d 1f5a dd3d 9a08 dfbd 6523 1ebe
00000330: eaf0 8bbc d226 6ebd 790e 36bd b035 d83d
00000340: 2a68 34bd 70d1 b83d 1cc8 f5bc a709 d33d
00000350: 9659 3d3d d1f0 bcbd b614 29bc 6651 20bd
00000360: 4774 b9bc 2e16 f3bd 768e 703d be49 523c
00000370: 8a76 883d f1a1 a33d 3005 cbbd 406d 5e3d
00000380: 125c 95bd 3c04 d5bd aa48 fe3d 8aa4 e43d
00000390: 9074 77bd cd0e 1abe 0dc9 2abd 9c04 13be
000003a0: b54c 1b3d b649 e9bd f5a6 413d cb1c bbbc
000003b0: fb32 b2bc 79ca f3bd 8ca4 353d 88fe 043e
000003c0: 08cd 85bd ee6f d73d be1e d63b ec8f 153d
000003d0: accb c6bd c892 5e3d cd48 c53d 495a e23d
000003e0: 015c f6bc 8182 01be ab7f 043d 405a 963d
000003f0: be9e e9bd 5305 cb3d bd21 24bd 843e b8bd

encoder.0.bias f4 [16]
0.1101305 -0.027831405 0.014419781 0.011917568 -0.06619951 -0.14948446 -0.08406747 -0.19616422
0.032444112 -0.19035353 0.14663513 -0.024791239 0.115359254 0.10719882 0.0377024 -0.014618733
00000000: 198c e13d b0fe e3bc f240 6c3c e741 433c
00000010: 9c93 87bd 7412 19be 912b acbd 46df 48be
00000020: 1ee4 043d 09ec 42be 8527 163e ff16 cbbc
00000030: 7941 ec3d 0e8b db3d d56d 1a3d 6983 6fbc

encoder.1.weight f4 [16]
1.0008249 1.0079397 0.9844189 0.9396971 0.9646625 0.9760318 0.94301033 0.97993535
1.0012746 1.0419204 1.0106584 0.9807443 0.9963675 0.95313513 1.0044452 0.97951597
00000000: 081b 803f 2b04 813f e102 7c3f fd8f 703f
00000010: 1ff4 763f 38dd 793f 2069 713f 0bdd 7a3f
00000020: c429 803f a65d 853f 415d 813f 0f12 7b3f
00000030: f111 7f3f aa00 743f a991 803f 8fc1 7a3f

encoder.1.bias f4 [16]
0.004376656 0.0067276377 -0.08310058 -0.06329836 -0.04754908 -0.072134055 -0.071730785 -0.015304161
0.006363831 -0.055725828 0.032541968 -0.039157253 -0.017115593 -0.06295261 0.013239998 -0.044707168
00000000: 0d6a 8f3b 8473 dc3b a330 aabd 92a2 81bd
00000010: d3c2 42bd 05bb 93bd 97e7 92bd 4ebe 7abc
00000020: af87 d03b c440 64bd ba4a 053d 5b63 20bd
00000030: 0036 8cbc 4ced 80bd 94ec 583c dd1e 37bd

encoder.1.running_mean f4 [16]
0.026134761 -0.113967314 0.04852543 0.14200372 0.03753454 -0.021149905 0.03015504 -0.1786063
-0.0628736 -0.17786725 -0.06664726 0.0915937 0.11130292 0.14861242 -0.09323382 0.16774695
00000000: 9118 d63c b267 e9bd 9ac2 463d 6c69 113e
00000010: d1bd 193d 9142 adbc b407 f73c 92e4 36be
00000020: e0c3 80bd d522 36be 5c7e 88bd 7a95 bb3d
00000030: c9f2 e33d db2d 183e 5ff1 bebd dbc5 2b3e

encoder.1.running_var f4 [16]
0.0026205136 0.0026354801 0.00021315042 0.0047996095 0.0028607459 0.0046942597 0.004477025 0.00043797106
0.0033668678 0.0003303851 0.016334493 0.004273031 0.00042024118 0.0005249932 0.005818984 0.012274621
00000000: ecbc 2b3b 05b8 2c3b 2181 5f39 0b46 9d3b
00000010: 5a7b 3b3b 4ed2 993b 02b4 923b 7b9f e539
00000020: aba6 5c3b 8a37 ad39 eacf 853c c804 8c3b
00000030: d153 dc39 b29f 093a 2dad be3b 7e1b 493c

encoder.4.weight f4 [32, 16, 4, 4]
0.038540322 0.012709088 0.024790883 -0.012711782 0.057033114 -0.009074972 -0.03785821 0.03871684
-0.0028570765 0.019714452 -0.04372988 -0.011355628 0.045241322 -0.03234838 0.026425727 0.016256534
-0.025796253 0.010000634 -0.041592296 0.05989124 -0.016398685 -0.047458153 0.021642452 -0.055921283
0.018132223 -0.0132422885 0.0004208225 0.025768094 0.022423513 -0.044106595 0.018417934 -0.035016604
-0.005040218 -0.0074227042 -0.0030379607 0.043953132 -0.006213958 0.00040637067 -0.0031768968 -0.04856542
-0.036738593 0.050319053 0.021355374 -0.016634384 0.028705522 -0.04314579 -0.017046856 0.0072413636
-0.028122483 -0.027668294 -0.031113494 -0.038586143 0.04308377 0.045579813 -0.009358626 0.04566807
0.04118881 -0.0031333677 -0.062377743 -0.05920278 -0.01448876 -0.002975551 -0.030485515 -0.03517015
0.036873262 0.012846513 -0.05771718 -0.077217296 0.0036979094 -0.045401562 -0.022451889 -0.043670647
0.0065739495 -0.05315888 -0.035868473 0.0084644165 -0.015086753 -0.047462713 0.017641788 -0.011082518
-0.032458384 -0.0025492867 -0.06539606 -0.032592885 -0.053307477 -0.05460772 -0.061056226 -0.07127477
0.008676038 0.004881382 -0.0032087225 0.023168143 -0.0610154 0.045222312 -0.002263717 0.010003273
-0.06518263 0.0119625 -0.05945262 -0.043398395 -0.05375925 0.04126533 -0.00059568865 -0.0040434427
-0.026561597 0.016401995 0.018878767 -0.029821921 -0.06387384 0.023573773 0.03425459 0.043251764
0.01973826 -0.05948183 -0.0017294592 0.027769646 0.017200582 -0.026547488 0.025130277 0.045323905
-0.077171855 -0.026869046 0.03205113 0.045740902 -0.011108773 0.015323832 0.046098284 -0.07503611
0.021964608 0.010118442 -0.023305736 0.051782805 0.057269797 -0.0009936219 -0.03534638 0.032556724
-0.016256934 -0.05284507 -0.016870355 -0.00376436 -0.017040329 0.022623448 -0.0026725263 0.021249475
-0.005866102 0.019482173 0.015815178 0.042801328 -0.086609885 -0.057035316 -0.07858462 -0.08743548
-0.057769235 -0.06818175 -0.051487602 -0.13151927 0.046204325 0.02039139 -0.02303125 -0.07279909
-0.033027556 -0.055930186 0.016670762 -0.051005293 -0.054698624 0.011623817 0.02407528 0.05524526
0.022242663 -0.00925922 -0.005119422 0.03942225 0.034994785 0.005395736 5.1397725e-05 0.040923934
-0.0023169166 -0.040250733 -0.028387478 -0.0021960195 0.015424422 0.025048941 -0.06740433 -0.012785634
-0.070307754 -0.038383756 0.04451808 -0.057403367 -0.015940484 0.018725267 0.051521674 0.053474963
-0.044869184 -0.020528462 -0.04376534 -0.053935565 -0.030480817 0.031601146 0.04510344 -0.061229456
-0.05772069 -0.042437278 -0.05001641 -0.009564403 -0.046277538 0.030213173 0.029546404 -0.060297105
0.04995951 0.06313578 -0.031043747 -0.037481826 -0.045120966 0.030268604 0.001701132 -0.02657751
-0.013256899 0.004791853 -0.038080912 -0.011261963 0.03401748 -0.00048521903 0.0057461997 0.067345075
-0.05774303 0.030449748 -0.009295392 0.009933194 -0.053895283 -0.057704497 -0.059243657 0.04767693
0.02182635 -0.025816137 -0.024595382 0.056206215 -0.061860763 -0.03400701 0.0067069656 0.041049972
0.017613886 0.022054253 0.010926745 -0.011880822 -0.07163534 0.005566407 -0.025000641 0.03629374
-0.049179178 0.030389389 -0.017695798 0.011796555 0.040724263 0.0231537 0.035933953 0.049534608
00000000: 75dc 1d3d c739 503c 4016 cb3c 1445 50bc
00000010: 8e9b 693d 31af 14bc 3611 1bbd 8d95 1e3d
00000020: ca3d 3bbb 3480 a13c 1a1e 33bd f50c 3abc
00000030: f74e 393d bc7f 04bd c47a d83c 6c2c 853c
00000040: aa52 d3bc b3d9 233c af5c 2abd 8450 753d
00000050: 8956 86bc 7b63 42bd 834b b13c b70d 65bd
00000060: 078a 943c 2ff6 58bc d7a1 dc39 9c17 d33c
00000070: 84b1 b73c 1ea9 34bd 35e1 963c 926d 0fbd
00000080: 6a28 a5bb 283a f3bb 8618 47bb 3308 343d
00000090: 759e cbbb 260e d539 7c33 50bb 89ec 46bd
000000a0: 357b 16bd 5a1b 4e3d 77f1 ae3c d544 88bc
000000b0: d827 eb3c a4b9 30bd d9a5 8bbc f648 ed3b
000000c0: 1f61 e6bc 9ea8 e2bc bae1 febc 810c 1ebd
000000d0: 9b78 303d e6b1 3a3d ec54 19bc 710e 3b3d
000000e0: 99b5 283d 3059 4dbb ce7f 7fbd 9d7e 72bd
000000f0: 4462 6dbc 7601 43bb c2bc f9bc 930e 10bd
00000100: 6b08 173d 2e7a 523c da68 6cbd 1a24 9ebd
00000110: a058 723b fdf6 39bd 06ed b7bc fedf 32bd
00000120: 496a d73b 20bd 59bd d2ea 12bd 56ae 0a3c
00000130: 6e2e 77bc 4368 42bd 8385 903c 7393 35bc
00000140: 15f3 04bd ef11 27bb 5fee 85bd 1e80 05bd
00000150: f158 5abd 58ac 5fbd 1816 7abd 82f8 91bd
00000160: f125 0e3c 00f4 9f3b 6e49 52bb 1ecb bd3c
00000170: 49eb 79bd 083b 393d de5a 14bb c5e4 233c
00000180: 797e 85bd 5dfe 433c 9784 73bd 84c2 31bd
00000190: a932 5cbd d605 293d fd27 1cba db7e 84bb
000001a0: b597 d9bc 7a5d 863c a5a7 9a3c 1a4d f4bc
000001b0: 4ad0 82bd c91d c13c 8a4e 0c3d c328 313d
000001c0: 22b2 a13c 38a3 73bd 05af e2ba 2b7d e33c
000001d0: 3ce8 8c3c 1e7a d9bc 03de cd3c 8fa5 393d
000001e0: 470c 9ebd 791c dcbc 0c48 033d d05a 3b3d
000001f0: 9201 36bc cf10 7b3c 8ed1 3c3d 88ac 99bd
00000200: 1fef b33c d2c7 253c aceb bebc 351a 543d
00000210: bc93 6a3d 6b3c 82ba 5ec7 10bd 335a 053d
00000220: 432d 85bc 1274 58bd b333 8abc 7bb3 76bb
00000230: 2998 8bbc cf54 b93c 8d25 2fbb 6113 ae3c
00000240: 6e38 c0bb 1499 9f3c d58e 813c 7250 2f3d
00000250: 8660 b1bd dd9d 69bd f9f0 a0bd 5f11 b3bd
00000260: 6f9f 6cbd e0a2 8bbd aae4 52bd fdac 06be
00000270: bf40 3d3d d80b a73c 08ac bcbc b017 95bd
00000280: e747 07bd 0d17 65bd 1f91 883c edea 50bd
00000290: aa0b 60bd d271 3e3c 8639 c53c db48 623d
000002a0: 3f36 b63c fcb3 17bc d3c0 a7bb 3a79 213d
000002b0: b156 0f3d b7ce b03b e393 5738 db9f 273d
000002c0: 69d7 17bb f4dd 24bd db8c e8bc 18eb 0fbb
000002d0: b7b6 7c3c 7033 cd3c 480b 8abd d67a 51bc
000002e0: 83fd 8fbd 4938 1dbd 9758 363d cb1f 6bbd
000002f0: 9e95 82bc bb65 993c 6408 533d 9008 5b3d
00000300: c0c8 37bd 4e2b a8bc 4943 33bd 8aeb 5cbd
00000310: e8b2 f9bc 3470 013d 62be 383d bdcb 7abd
00000320: 886c 6cbd b6d2 2dbd 02de 4cbd 04b4 1cbc
00000330: 848d 3dbd 9e81 f73c 4d0b f23c 19fa 76bd
00000340: 58a2 4c3d 554d 813d 754f febc 8b86 19bd
00000350: c3d0 38bd ddf5 f73c 85f8 de3a 14b9 d9bc
00000360: 7733 59bc fa04 9d3b bbfa 1bbd 1984 38bc
00000370: ea55 0b3d ff64 feb9 9e4a bc3b 37ec 893d
00000380: f583 6cbd c071 f93c b34b 18bc d6be 223c
00000390: 4dc1 5cbd 8d5b 6cbd 7aa9 72bd e248 433d
000003a0: 2ccd b23c 5d7c d3bc 417c c9bc 7d38 663d
000003b0: b661 7dbd ef4a 0bbd 1bc6 db3b 0424 283d
000003c0: ff4a 903c 1fab b43c 1706 333c c7a7 42bc
000003d0: 8db5 92bd 6866 b63b 25ce ccbc bfa8 143d
000003e0: 1b70 49bd 2bf3 f83c c7f6 90bc 5646 413c
000003f0: 7cce 263d d4ac bd3c 7b2f 133d cde4 4a3d

encoder.4.bias f4 [32]
-0.118833944 -0.12937826 -0.1134661 -0.163803 -0.08191738 -0.076433145 -0.1708211 -0.15339054
-0.15612902 -0.09478059 -0.1809595 -0.10051232 -0.15644567 -0.08555351 -0.08126485 -0.085043766
-0.15977365 -0.13166976 -0.14307281 -0.08627467 -0.17249048 -0.15278412 -0.1264207 -0.12989758
-0.01138815 -0.15114346 -0.05766964 -0.07127889 -0.21247363 -0.10836195 -0.045587838 -0.026164949
00000000: 365f f3bd bc7b 04be ea60 e8bd f9bb 27be
00000010: 4dc4 a7bd fb88 9cbd baeb 2ebe 6912 1dbe
00000020: 49e0 1fbe 531c c2bd 724d 39be 67d9 cdbd
00000030: 4b33 20be ae36 afbd 306e a6bd 6d2b aebd
00000040: b49b 23be 70d4 06be ae81 12be c6b0 b0bd
00000050: 58a1 30be 7173 1cbe 6e74 01be df03 05be
00000060: 5d95 3abc 5ac5 1abe 0037 6cbd abfa 91bd
00000070: b092 59be dfec ddbd 50ba 3abd e057 d6bc

encoder.5.weight f4 [32]
1.0014215 0.9622244 0.967768 0.97317094 1.0043561 0.993721 0.9694743 1.0396239
0.9661531 0.9808643 0.98492455 0.9816064 0.9776786 0.97659934 0.9542883 1.0686982
0.95902145 0.9805013 0.95288974 0.9924482 0.99001825 0.9759865 0.9651157 0.9667066
0.99817574 0.96836823 0.98412097 1.0061215 0.97608733 1.0619547 0.983153 1.0199274
00000000: 942e 803f 5754 763f a5bf 773f bb21 793f
00000010: be8e 803f 8064 7e3f 782f 783f 6512 853f
00000020: cf55 773f ec19 7b3f 0424 7c3f 8f4a 7b3f
00000030: 2549 7a3f 6a02 7a3f 3d4c 743f 1acb 883f
00000040: 6e82 753f 2202 7b3f 95f0 733f 1611 7e3f
00000050: d671 7d3f 40da 793f d311 773f 157a 773f
00000060: 7288 7f3f fbe6 773f 5aef 7b3f 97c8 803f
00000070: dce0 793f 22ee 873f eaaf 7b3f fb8c 823f

encoder.5.bias f4 [32]
-0.027753402 -0.027849074 -0.021088721 -0.0045096464 -0.03355749 -0.0601704 -0.005849738 -0.07235895
-0.053019404 -0.041552495 -0.055321988 -0.045604277 -0.094130166 -0.058514956 -0.020442575 -0.0291874
-0.009177853 -0.005034131 -0.047239777 -0.006169973 -0.047515586 -0.032193728 0.0022286337 -0.031882647
0.002526412 -0.016850105 -0.020948242 0.011999519 -0.01627144 -0.012763639 -0.08631365 -0.0689037
00000000: 1a5b e3bc be23 e4bc 41c2 acbc a8c5 93bb
00000010: 9473 09bd 3d75 76bd 29af bfbb ee30 94bd
00000020: e02a 59bd f332 2abd 4f99 62bd 8dcb 3abd
00000030: 51c7 c0bd 61ad 6fbd 3077 a7bc 6a1a efbc
00000040: b55e 16bc 5af5 a4bb 7f7e 41bd 7c2d cabb
00000050: b49f 42bd 92dd 03bd 450e 123b 6197 02bd
00000060: 2992 253b 3b09 8abc a69b abbc a199 443c
00000070: af4b 85bc 951e 51bc 36c5 b0bd 621d 8dbd

encoder.5.running_mean f4 [32]
0.36009452 -0.09130947 -0.36416772 -1.5007823 0.20305897 0.6269298 -0.6678559 1.4878267
0.43697575 0.0013269839 0.61951214 0.305648 0.7519712 0.12440837 -0.44412535 -0.061935622
-0.6864656 -1.8114039 0.56387186 -0.8546335 0.5076337 0.011033828 -1.2252368 -0.018181968
-0.6241502 -0.55361867 0.5659256 -0.88103557 -0.23980214 -0.38940147 0.23972821 0.34678766
00000000: 4f5e b83e 7600 bbbd 3174 babe a219 c0bf
00000010: b1ee 4f3e 797e 203f 9bf8 2abf 1b71 be3f
00000020: 49bb df3e 31ee ad3a 5998 1e3f e57d 9c3e
00000030: 2f81 403f d1c9 fe3d 6664 e3be 35b0 7dbd
00000040: 36bc 2fbf 15dc e7bf e859 103f 43c9 5abf
00000050: 48f4 013f 3bc7 343c 8fd4 9cbf 5af2 94bc
00000060: 4fc8 1fbf f4b9 0dbf 80e0 103f 8c8b 61bf
00000070: b18e 75be a15f c7be 507b 753e 278e b13e

encoder.5.running_var f4 [32]
0.39044777 0.7062949 2.3319058 2.722083 0.7373832 0.5363751 1.6049811 0.6865324
0.5835204 0.42448726 0.82863337 0.771596 0.49361545 0.8269555 1.0873704 0.6393164
0.66353583 1.5761 0.38404366 2.0912948 0.4460901 1.0658782 0.61979425 0.7179262
2.7822158 0.9580066 0.3809102 3.1658056 0.8410284 0.38116798 0.42252046 0.5814934
00000000: c5e8 c73e becf 343f f23d 1540 9c36 2e40
00000010: 25c5 3c3f e14f 093f 0570 cd3f 96c0 2f3f
00000020: 9861 153f 6556 d93e 5121 543f 5187 453f
00000030: 2abb fc3e 5bb3 533f f42e 8b3f 3daa 233f
00000040: 7cdd 293f a5bd c93f 5fa1 c43e c6d7 0540
00000050: ec65 e43e b26e 883f d6aa 1e3f 03ca 373f
00000060: d30f 3240 ec3f 753f a906 c33e 8f9c 4a40
00000070: a34d 573f 7328 c33e 9a54 d83e c0dc 143f

encoder.8.weight f4 [64, 32, 4, 4]
0.03502342 0.05801451 0.008423525 -0.0051989183 0.019837212 0.028713536 0.03829488 -0.033106863
-0.033246204 0.03729014 0.00035805226 -0.0063126176 -0.02003089 0.030764263 0.058254026 0.02158727
-0.00481684 0.037894107 -0.023816667 0.02412402 0.012417185 0.04646997 0.04539747 -0.037097357
-0.018419113 -0.030559545 0.0033957474 -0.04101573 -0.044817176 0.032618422 0.018280322 0.023395782
-0.015832722 0.008376924 0.017140847 -0.060359772 -0.019654633 0.015580935 0.004446299 -0.05972772
0.0200357 0.009672176 0.026962878 0.01404551 -0.027371274 -0.04326264 0.03032299 0.010902939
-0.0062335865 -0.04927496 -0.06634291 -0.006205431 -0.028009038 -0.062587716 -0.02306198 -0.045598146
-0.014802588 -0.025899818 -0.012324044 -0.053436924 -0.029382009 -0.018955167 -0.00025594918 0.00020416023
-0.021319078 -0.0034105135 0.016254773 -0.009635585 0.014942102 0.041729633 0.024071772 -0.02254783
0.008874125 -0.022652403 -0.039735254 -0.03819315 -0.051809825 -0.053116333 -0.051135384 0.007416554
-0.0032922972 -0.0011684676 -0.030919347 -0.036804866 -0.0076450207 -0.0069662514 0.031693947 -0.019000048
-0.010967451 -0.0031341333 -0.008672365 -0.07128214 -0.04403009 -0.029665636 0.0134027675 -0.061474316
-0.0003381984 0.008383035 0.012416103 -0.016224047 0.052267928 0.05203395 0.031959966 -0.042426974
-0.028513206 -0.016305365 0.013119341 0.021602765 -0.04619516 -0.012116958 0.004474593 -0.035457924
-0.048455983 -0.075699024 -0.06548121 -0.07481598 -0.07800814 -0.07269981 -0.052772067 0.007830165
-0.040695943 -0.0074614394 -0.04520905 -0.086543694 -0.012426085 -0.025753789 -0.056494996 -0.038216904
-0.03167459 -0.0030810288 0.009929223 -0.021527188 -0.027907914 -0.00989073 -0.023580842 -0.015456056
0.026769578 -0.014748042 -0.0030805278 -0.060514312 -0.04712347 0.015105647 -0.056936525 -0.057187326
-0.020791234 -0.0067383787 -0.028339485 -0.009320565 0.01001591 -0.08033251 -0.07485331 0.04554453
0.02472255 -0.0169251 -0.033760995 -0.0010492691 0.016464924 -0.06432066 -0.06790962 -0.070179544
-0.037874274 0.023403822 -0.0052074157 -0.0010076085 0.0027277132 -0.0054984395 -0.038666878 -0.04085345
-0.019119201 -0.019561362 -0.026792843 -0.05666197 -0.013192009 0.022511307 0.028484257 -0.01032947
-0.03679087 0.0038910487 -0.023128951 -0.0319351 -0.025261642 0.000616293 0.0319868 -0.041844573
0.008176716 -0.040842082 0.0033620205 0.0012052866 -0.019455925 -0.01084972 -0.0071995794 -0.0454254
-0.012723311 0.018338805 -0.041469593 -0.04338608 -0.020809855 -0.0085654855 -0.01390139 -0.06315592
0.0015432471 0.010286137 0.011432803 -0.06564629 -0.015531811 -0.04015435 0.008864637 0.0027209036
-0.0035771227 0.03290605 0.015210286 0.0002354748 -0.014869829 -0.019862603 0.017552637 -0.023106469
-0.027743893 -0.026042843 0.004642002 -0.022712737 -0.06174275 -0.0015026563 -0.036066517 -0.054158937
0.0075229667 0.034903307 -0.011984104 0.016480224 -0.006479047 0.012624869 -0.0014072348 0.011934121
0.020952981 0.014780983 -0.015345248 0.017858692 0.008144019 -0.025629302 -0.018820804 0.030505018
-0.059986696 0.012993913 -0.04547367 -0.020810751 -0.0065017925 -0.03157566 0.021227106 -0.00076151895
-0.05731918 -0.04163971 0.015532319 -0.022938577 -0.012815737 -0.025999926 -0.08483354 -0.03852271
00000000: b874 0f3d 9fa0 6d3d d302 0a3c b05b aabb
00000010: a681 a23c a638 eb3c 18db 1c3d 109b 07bd
00000020: 2c2d 08bd 8cbd 183d f6b8 bb39 13da cebb
00000030: d217 a4bc 5605 fc3c c69b 6e3d c9d7 b03c
00000040: 95d6 9dbb da36 1b3d 2c1b c3bc bd9f c53c
00000050: 7371 4b3c 4c57 3e3d b3f2 393d 66f3 17bd
00000060: aee3 96bc 0358 fabc 308b 5e3b 1c00 28bd
00000070: 3792 37bd e59a 053d 9dc0 953c 83a8 bf3c
00000080: a0b3 81bc 5e3f 093c f66a 8c3c cf3b 77bd
00000090: c102 a1bc 2e47 7f3c 42b2 913b 0ea5 74bd
000000a0: e921 a43c 0c78 1e3c 41e1 dc3c 241f 663c
000000b0: b939 e0bc 2a34 31bd eb67 f83c 3ea2 323c
000000c0: 1d43 ccbb 8ad4 49bd cbde 87bd ee56 cbbb
000000d0: 3673 e5bc fd2d 80bd 7aec bcbc 1fc5 3abd
000000e0: 8e86 72bc db2b d4bc c9ea 49bc ade0 5abd
000000f0: 8ab2 f0bc de47 9bbc eb30 86b9 d813 5639
00000100: 59a5 aebc ec82 5fbb bb28 853c 93de 1dbc
00000110: b8cf 743c b1ec 2a3d 2a32 c53c 3ab6 b8bc
00000120: c764 113c 8891 b9bc 6fc1 22bd 6c70 1cbd
00000130: 8a36 54bd 8390 59bd 5673 51bd 9006 f33b
00000140: 95c3 57bb 4427 99ba 924a fdbc b3c0 16bd
00000150: 1583 fabb 2745 e4bb 83d1 013d fda5 9bbc
00000160: d3b0 33bc 0866 4dbb 8916 0ebc 5ffc 91bd
00000170: e558 34bd 5905 f3bc 4897 5b3c 7ecc 7bbd
00000180: 3950 b1b9 ff58 093c e96c 4b3c 4be8 84bc
00000190: e516 563d 8d21 553d 74e8 023d e8c7 2dbd
000001a0: 8794 e9bc d492 85bc 81f2 563c 48f8 b03c
000001b0: 2337 3dbd 3586 46bc 9b9f 923b 543c 11bd
000001c0: c879 46bd 1708 9bbd 031b 86bd 1f39 99bd
000001d0: bbc2 9fbd a3e3 94bd 8627 58bd 184a 003c
000001e0: cab0 26bd 177f f4bb 202d 39bd d23d b1bd
000001f0: c796 4bbc 9cf9 d2bc 4c67 67bd 5489 1cbd
00000200: 37bd 01bd 16eb 49bb 2eae 223c c959 b0bc
00000210: 239f e4bc ba0c 22bc 9c2c c1bc 663b 7dbc
00000220: e04b db3c c6a1 71bc aee2 49bb dbdd 77bd
00000230: 8a04 41bd ad7d 773c 4636 69bd 423d 6abd
00000240: 6152 aabc 9ecd dcbb 3528 e8bc 48b5 18bc
00000250: c519 243c 5f85 a4bd b14c 99bd e78c 3a3d
00000260: f286 ca3c 82a6 8abc f848 0abd a187 89ba
00000270: 73e1 863c 8dba 83bd 3314 8bbd 4bba 8fbd
00000280: 0e22 1bbd 5fb9 bf3c f8a2 aabb bb11 84ba
00000290: 6fc3 323b 412c b4bb 2961 1ebd f255 27bd
000002a0: df9f 9cbc 263f a0bc aa7c dbbc 6216 68bd
000002b0: 4c23 58bc a269 b83c d157 e93c f03c 29bc
000002c0: 06b2 16bd f700 7f3b ed78 bdbc 61ce 02bd
000002d0: 81f1 cebc b98e 213a 9704 033d 3765 2bbd
000002e0: a2f7 053c 074a 27bd 5855 5c3b b5fa 9d3a
000002f0: 0862 9fbc 06c3 31bc 73ea ebbb fc0f 3abd
00000300: 6f75 50bc 433b 963c 05dc 29bd 9ab5 31bd
00000310: 6e79 aabc 4056 0cbc a8c2 63bc e457 81bd
00000320: c846 ca3a 3087 283c a750 3b3c 9071 86bd
00000330: 2379 7ebc e378 24bd fc3c 113c 3051 323b
00000340: 296e 6abb 7fc8 063d 9034 793c c9e9 7639
00000350: 95a0 73bc e6b6 a2bc 8cca 8f3c c749 bdbc
00000360: 2947 e3bc cd57 d5bc ef1b 983b 1010 babc
00000370: f7e5 7cbd c7f4 c4ba 7cba 13bd c3d5 5dbd
00000380: 3883 f63b c5f6 0e3d fa58 44bc 8901 873c
00000390: 2f4e d4bb 8ad8 4e3c f772 b8ba 5587 433c
000003a0: 96a5 ab3c f02b 723c a36a 7bbc 644c 923c
000003b0: 7e6e 053c 8bf4 d1bc 162e 9abc a9e5 f93c
000003c0: 9cb4 75bd 6ce4 543c 9942 3abd 4f7b aabc
000003d0: fd0c d5bb 7b55 01bd 78e4 ad3c aca0 47ba
000003e0: 84c7 6abd 678e 2abd 457b 7e3c afe9 bbbc
000003f0: 19f9 51bc ccfd d4bc 35bd adbd fdc9 1dbd

encoder.8.bias f4 [64]
-0.010636255 -0.009901311 -0.055452034 -0.011947103 -0.019357834 -0.05865563 -0.028491125 -0.012452919
-0.012773925 -0.043465897 0.0058423593 0.0040689856 -0.042011157 0.012845855 0.0010079404 -0.06294925
0.02439242 -0.005176005 -0.039282706 -0.04552662 0.051385812 0.02271642 -0.04322389 -0.06819283
0.042383034 -0.019862516 -0.036551982 0.004038995 -0.013495392 0.040290684 -0.021210333 0.031848274
-0.004370676 -0.0028767607 -0.058780115 -0.0029959637 0.014796365 0.05035992 -0.044349965 -0.0046011736
0.041602615 0.015948178 0.032344226 -0.011008713 -0.03299451 -0.00810805 -0.010813594 -0.041866165
0.007249772 -0.013114483 -0.02581437 -0.056576155 0.023662176 -0.038512137 -0.04110305 0.029636268
0.002278065 0.043689176 -0.020816656 -0.0070100212 -0.043697577 -0.061733417 -0.06533881 -0.04571956
00000000: b043 2ebc 1c39 22bc ac21 63bd c8bd 43bc
00000010: 5294 9ebc e340 70bd 3866 e9bc 5407 4cbc
00000020: ba49 51bc 4c09 32bd 4371 bf3b 2055 853b
00000030: e413 2cbd 6c77 523c de1c 843a 89eb 80bd
00000040: 9dd2 c73c 7a9b a9bb e7e6 20bd 1f7a 3abd
00000050: ee79 523d c917 ba3c 890b 31bd afa8 8bbd
00000060: d599 2d3d b7b6 a2bc 88b7 15bd 8c59 843b
00000070: c71b 5dbc d807 253d 4bc1 adbc 5673 023d
00000080: e337 8fbb 0988 3cbb 6bc3 70bd ee57 44bb
00000090: 746c 723c 3446 4e3d 4fa8 35bd 71c5 96bb
000000a0: 8167 2a3d c1a5 823c 617b 043d e45d 34bc
000000b0: 4025 07bd a0d7 04bc 802b 31bc db7b 2bbd
000000c0: 7f8f ed3b 21de 56bc a878 d3bc 66bc 67bd
000000d0: 2ed7 c13c e7be 1dbd ac5b 28bd c2c7 f23c
000000e0: 974b 153b 6cf3 323d b187 aabc 52b4 e5bb
000000f0: 3bfc 32bd 2edc 7cbd 5bd0 85bd 6f44 3bbd

encoder.9.weight f4 [64]
0.978869 0.9702718 0.9721786 0.9805594 0.97894806 0.97756255 0.96722984 0.90610725
1.0281986 0.97116184 1.016762 0.9346248 0.927884 0.9853181 0.9736439 0.96176803
0.98125243 0.9591906 0.9519154 0.95621264 0.9923498 1.0033193 0.9790337 0.96284467
1.0672295 0.9503177 1.0378183 1.0295913 0.97147405 1.037682 1.0723351 1.001764
0.994213 1.0083766 0.97838587 1.0033765 0.9567472 1.0019904 0.9652013 0.9728671
0.9225112 0.9494164 0.9980337 0.94568634 0.9984946 0.9745663 0.9914534 0.97390074
1.0301949 1.0342875 0.95915323 0.98349196 1.0405623 0.9857725 0.97410583 0.9747281
0.9555968 1.0365195 0.97383815 0.91538566 0.988931 0.9981394 0.9374307 0.9687587
00000000: 2997 7a3f bc63 783f b2e0 783f f105 7b3f
00000010: 579c 7a3f 8a41 7a3f 609c 773f a5f6 673f
00000020: 039c 833f 109e 783f 4225 823f 9243 6f3f
00000030: ce89 6d3f cf3d 7c3f ba40 793f 6e36 763f
00000040: 5c33 7b3f 848d 753f bab0 733f 5aca 743f
00000050: a30a 7e3f c46c 803f f4a1 7a3f fd7c 763f
00000060: fa9a 883f 0548 733f 3bd7 843f a6c9 833f
00000070: 86b2 783f c4d2 843f 4742 893f ce39 803f
00000080: be84 7e3f 7c12 813f 7f77 7a3f a46e 803f
00000090: 62ed 743f 3941 803f 6f17 773f d10d 793f
000000a0: b229 6c3f f40c 733f 237f 7f3f 8018 723f
000000b0: 589d 7f3f 2d7d 793f e4cf 7d3f 8f51 793f
000000c0: 6ddd 833f 8863 843f 118b 753f 21c6 7b3f
000000d0: 2531 853f 965b 7c3f 005f 793f c887 793f
000000e0: fea1 743f acac 843f 754d 793f b756 6a3f
000000f0: 952a 7d3f 1086 7f3f 75fb 6f3f 9200 783f

encoder.9.bias f4 [64]
-0.0039175176 -0.0308536 -0.015103173 -0.020457702 -0.0012858945 -0.0129604135 -0.028824395 -0.045063563
0.008285506 -0.03594181 -0.06901089 -0.07422202 -0.03652893 0.042300764 -0.02737281 -0.064790875
-0.046156134 -0.022072976 -0.006344357 -0.017156748 -0.06160853 0.021543501 -0.08182507 -0.100121506
-0.08806137 -0.076946616 -0.09709817 0.03489096 -0.018812446 -0.011302369 -0.057947047 0.022695955
-0.06872989 -0.016461715 -0.07685781 0.025884433 -0.039948735 0.009685444 -0.04590343 -0.002836057
-0.03173016 -0.013174077 0.01410014 -0.08312828 -0.0043381625 -0.03611563 -0.05192233 -0.030466313
-0.02602856 -0.071286455 0.004242365 -0.029990483 -0.058542643 -0.07291164 -0.027338546 -0.0046235565
-0.06526596 0.04181532 -0.04203941 -0.0519002 0.043854978 -0.0362011 -0.030156221 -0.075188495
00000000: 855e 80bb b0c0 fcbc 4d73 77bc e996 a7bc
00000010: 768b a8ba ea57 54bc 2321 ecbc 9294 38bd
00000020: eebf 073c b837 13bd 9555 8dbd b701 98bd
00000030: 5c9f 15bd 9143 2d3d f13c e0bc 14b1 84bd
00000040: 370e 3dbd 63d2 b4bc 53e4 cfbb 4f8c 8cbc
00000050: 3a59 7cbd ff7b b03c e793 a7bd 810c cdbd
00000060: 8559 b4bd 3096 9dbd 68db c6bd d3e9 0e3d
00000070: 8f1c 9abc 922d 39bc e259 6dbd deec b93c
00000080: 42c2 8cbd b8da 86bc a167 9dbd 970b d43c
00000090: 49a1 23bd b2af 1e3c 3c05 3cbd 24dd 39bb
000000a0: 7cf7 01bd 15d8 57bc 4604 673c 293f aabd
000000b0: 2527 8ebb fced 13bd 82ac 54bd 7d94 f9bc
000000c0: d939 d5bc a2fe 91bd 8903 8b3b 9aae f5bc
000000d0: 69ca 6fbd b352 95bd 16f5 dfbc 3481 97bb
000000e0: 29aa 85bd 8a46 2b3d 8431 2cbd 4e95 54bd
000000f0: 47a1 333d 9b47 14bd 2e0a f7bc 6dfc 99bd

encoder.9.running_mean f4 [64]
0.25151992 0.3611833 -1.245292 0.6057403 -0.65393704 0.9377378 0.7089803 1.0790303
-0.5797975 0.78204095 -0.44256487 1.207291 0.46641266 -0.83190835 0.86318976 1.3048931
0.81712306 0.7181526 0.5483455 0.2943368 -0.28584138 -1.3114941 -0.18143684 0.019463714
0.8345638 -0.15706174 0.06336185 -2.0581532 0.5315222 0.073856145 -0.05040863 -2.2215333
-0.07240543 -0.32750648 1.6550333 -1.5146888 1.2094978 -1.4433483 0.9103594 -0.6569503
0.9238221 0.35155028 -1.4611734 -0.073764615 0.58434373 0.7676508 -0.13335495 0.76523674
-0.17091626 -0.16937914 -1.167763 0.7780375 -0.3728302 -0.36514947 0.79188067 -0.98658115
-0.33419022 -0.81156415 1.0266557 1.18534 -1.757077 0.32155418 0.94720834 -0.5483466
00000000: 38c7 803e 04ed b83e ba65 9fbf cc11 1b3f
00000010: 6b68 27bf 960f 703f bc7f 353f aa1d 8a3f
00000020: 9c6d 14bf d633 483f dd97 e2be 8388 9a3f
00000030: a4cd ee3e f2f7 54bf 01fa 5c3f bd06 a73f
00000040: fa2e 513f d9d8 373f 5f60 0c3f 50b3 963e
00000050: cd59 92be 0adf a7bf 94ca 39be 5e72 9f3c
00000060: f9a5 553f cbd4 20be dcc3 813d c8b8 03c0
00000070: d711 083f e441 973d 4879 4ebd 9a2d 0ec0
00000080: 4c49 94bd eeae a7be 22d8 d33f 53e1 c1bf
00000090: d3d0 9a3f a3bf b8bf 500d 693f e52d 28bf
000000a0: 9b7f 6c3f 66fe b33e bb07 bbbf e711 97bd
000000b0: 8d97 153f c384 443f 338e 08be 8ee6 433f
000000c0: ac04 2fbe ba71 2dbe 4279 95bf 772d 473f
000000d0: 9ae3 bebe dff4 babe b1b8 4a3f 9590 7cbf
000000e0: fb1a abbe abc2 4fbf 7469 833f 39b9 973f
000000f0: e6e7 e0bf c0a2 a43e 3f7c 723f 7160 0cbf

encoder.9.running_var f4 [64]
6.2017636 2.5202 3.2784371 2.8375187 1.2070394 4.3637466 3.060774 3.3681996
1.1053995 3.126234 1.9133576 2.565262 2.2684565 2.316136 4.60494 3.8128066
1.7678283 3.8862576 4.5417023 2.054328 1.2388366 3.6370463 0.91442263 1.3946433
2.3067765 0.82618725 2.572373 4.2072544 1.99473 1.9209579 2.2966175 7.2914042
2.7019293 2.608463 4.2099442 3.856422 4.419573 2.2079484 3.4007256 1.7593597
4.018654 2.9904852 3.7532628 1.0015416 2.18595 3.918592 2.1765254 3.3963802
1.4838059 0.92660296 2.2392113 3.019606 1.4991632 1.9419112 2.2490697 3.3639672
3.0770414 1.1477362 3.820642 5.907531 5.620793 0.9524267 3.2631857 4.118059
00000000: d974 c640 f54a 2140 ead1 5140 e899 3540
00000010: 4480 9a3f d0a3 8b40 b9e3 4340 9590 5740
00000020: bb7d 8d3f 3814 4840 e7e8 f43f 412d 2440
00000030: 642e 1140 923b 1440 ab5b 9340 0605 7440
00000040: 3348 e23f 72b8 7840 a055 9140 1c7a 0340
00000050: 3392 9e3f 5ec5 6840 9a17 6a3f ac83 b23f
00000060: 3aa2 1340 0281 533f c2a1 2440 d4a1 8640
00000070: 5053 ff3f f3e1 f53f c8fb 1240 2f53 e940
00000080: 69ec 2c40 0ff1 2640 ddb7 8640 9ecf 7640
00000090: 246d 8d40 074f 0d40 7da5 5940 b332 e13f
000000a0: d098 8040 1c64 3f40 7535 7040 8432 803f
000000b0: 9be6 0b40 36ca 7a40 314c 0b40 4b5e 5940
000000c0: 5aed bd3f da35 6d3f 3d4f 0f40 3a41 4140
000000d0: 94e4 bf3f 8c90 f83f c2f0 0f40 3d4b 5740
000000e0: 3fee 4440 05e9 923f 6685 7440 7e0a bd40
000000f0: 89dd b340 3cd2 733f 09d8 5040 24c7 8340

decoder.0.weight f4 [64, 32, 4, 4]
0.025324108 0.015551046 -0.0013242977 0.036196258 -0.01834699 0.0158772 0.02154254 0.0151877
-0.0014625945 0.016482286 -0.03050718 -0.024438197 0.007880619 0.031249838 -0.035157762 -0.0016479685
-0.026918778 -0.0022897436 -0.075430185 -0.040281575 -0.0058087683 0.014966441 0.0020175707 0.03210324
-0.004647934 -0.03980175 -0.07148392 -0.0015819118 0.01594644 -0.0071190507 -0.025635386 0.041740652
0.028092692 0.04945396 0.027652811 0.016717603 0.06336656 -0.052404895 -0.034685507 -0.0022388739
-0.0053517865 0.046496555 -0.028408036 -0.025961395 0.025945688 0.030689945 -0.009473825 0.016510999
0.03477277 0.0012570571 0.009051561 0.0204971 0.010923445 0.064192586 -0.0056301323 0.031219086
0.01511217 -0.0043850364 0.00881905 -0.012932864 0.02111458 0.025805155 -0.027653724 0.021035042
0.032231 -0.004906179 -0.008041478 -0.058525953 0.025965631 0.007859296 -0.033734214 -0.035418246
-0.030413145 0.019444989 8.3386454e-05 -0.05363237 -0.0292956 -0.057342574 -0.0062914044 0.024900032
0.04022218 0.0031570944 -0.0019405755 0.012319481 0.038610622 -0.022309398 0.036880318 0.015902903
-0.0069107683 0.03245266 -0.022442533 -0.022866964 -0.019466674 -0.022731464 0.038004573 -0.02258637
0.02156867 -0.06638434 -0.010594572 -0.03666064 0.045952067 -0.04614433 0.027736302 0.02965975
-0.00011168093 -0.0028253414 -0.010987661 0.021961926 -0.008772543 -0.0048917183 0.048580565 -0.0037699505
0.032282252 -0.0051933695 0.011802388 -0.008871476 0.0018538545 0.021882638 -0.025655964 -0.067322195
0.04562198 -0.0496815 -0.0033059279 -0.046417154 -0.047659926 -0.03486821 -0.017215166 -0.017611036
0.005752243 0.035798218 0.017165484 0.0013019153 0.041730717 0.026522452 0.0022507012 -0.02580374
-0.031645846 0.02443129 0.047235668 0.031258855 0.007451229 0.026583495 0.02600864 -0.04749013
-0.016253145 0.018168857 0.048541974 0.031347778 -0.03722896 0.0011120968 -0.062242717 -0.019456042
-0.00076928077 -0.035308167 -0.003760125 0.0029432767 0.0021838022 -0.0046041273 -0.0010115411 -0.03587272
0.03139003 0.011799784 -0.01043983 -0.032774772 -0.035131577 -0.019789385 -0.038632575 0.015495661
0.027300583 -0.0023126898 0.025707457 -0.016844694 -0.02815344 -0.023359671 0.002193338 -0.030355815
-0.0026870363 0.043288987 0.003266495 0.029799163 -0.011486511 0.03542065 -0.03139975 -0.03642533
0.04158206 -0.017859787 0.041497137 -0.03265821 -0.04716763 -0.027778007 0.034787692 -0.022082897
0.02031502 -0.016519863 -0.021210087 0.0032516522 -0.02129341 0.048078284 0.027553162 -0.010378273
0.018968211 -0.013302909 -0.04017847 -0.012085641 -0.021855086 -0.040556334 0.000502735 -0.036855258
0.004824368 -0.019644354 0.011749768 -0.016313205 0.018248208 0.058937196 -0.0030528589 -0.013392445
-0.024565622 0.008131363 -0.030106984 0.0024667233 -0.028813267 -0.008539765 0.0010744676 0.04374839
0.01164205 0.030349469 0.03440785 -0.013551559 -0.008239904 -0.025486479 0.0019061016 -0.0678321
-0.009964951 -0.017893167 -0.002303229 0.021219032 0.015312889 0.01634141 0.010344046 -0.04242799
0.028388377 0.036120385 0.0410059 -0.02087108 -0.018311951 -0.005294796 0.034485962 0.016934145
0.018668767 0.02474156 0.037156053 0.004959269 -0.032391157 0.025100354 0.012399065 0.040830288
00000000: 8174 cf3c d0c9 7e3c 0f94 adba 8742 143d
00000010: 6d4c 96bc e710 823c fb79 b03c d5d5 783c
00000020: 87b4 bfba dc05 873c 32ea f9bc 9d32 c8bc
00000030: b61d 013c a9ff ff3c 9601 10bd a600 d8ba
00000040: c584 dcbc 860f 16bb 247b 9abd 4bfe 24bd
00000050: 7b57 bebb ce35 753c 3839 043b b07e 033d
00000060: b24d 98bb 2907 23bd 2966 92bd 2758 cfba
00000070: 1ca2 823c ed46 e9bb 4d01 d2bc 3ff8 2a3d
00000080: a522 e63c 3c90 4a3d 2688 e23c 5bf3 883c
00000090: 54c6 813d 84a6 56bd 6412 0ebd 12ba 12bb
000000a0: 0a5e afbb 2c73 3e3d f8b7 e8bc feac d4bc
000000b0: 0d8c d43c 7b69 fb3c 1a38 1bbc 1342 873c
000000c0: e46d 0e3d d6c3 a43a 004d 143c 89e9 a73c
000000d0: 40f8 323c 6777 833d f97c b8bb 2bbf ff3c
000000e0: 0999 773c 5ab0 8fbb c77d 103c 5de4 53bc
000000f0: 7cf8 ac3c 5565 d33c 108a e2bc ae51 ac3c
00000100: a704 043d 03c4 a0bb 67c0 03bc e9b8 6fbd
00000110: e0b5 d43c 47c4 003c e32c 0abd b912 11bd
00000120: fd24 f9bc 194b 9f3c c3df ae38 9ead 5bbd
00000130: 53fd efbc 0ce0 6abd 2028 cebb 27fb cb3c
00000140: 03c0 243d 41e7 4e3b e95a feba a6d7 493c
00000150: 2c26 1e3d 33c2 b6bc d10f 173d ce46 823c
00000160: ba73 e2bb 15ed 043d 67d9 b7bc 8053 bbbc
00000170: 9378 9fbc 5637 babc afaa 1b3d 0d07 b9bc
00000180: c8b0 b03c 83f4 87bd db94 2dbc 7829 16bd
00000190: 3c38 3c3d d601 3dbd 3e37 e33c 01f9 f23c
000001a0: 3e36 eab8 5d29 39bb 9705 34bc 7fe9 b33c
000001b0: b6ba 0fbc b54a a0bb 6afc 463d 4611 77bb
000001c0: 653a 043d 242d aabb ce5e 413c ab59 11bc
000001d0: 09fd f23a 3843 b33c 752c d2bc 38e0 89bd
000001e0: 1dde 3a3d d47e 4bbd 44a8 58bb ea1f 3ebd
000001f0: 0e37 43bd f8d1 0ebd d206 8dbc 0545 90bc
00000200: 507d bc3b 27a1 123d a19e 8c3c 07a5 aa3a
00000210: d4ed 2a3d 9d45 d93c 8080 133b 5d62 d3bc
00000220: 139f 01bd 2124 c83c 307a 413d 4909 003d
00000230: 7029 f43b a1c5 d93c 1210 d53c 0385 42bd
00000240: 5125 85bc dbd6 943c f3d3 463d 8766 003d
00000250: 657d 18bd c7c3 913a 38f2 7ebd 4762 9fbc
00000260: 8fa9 49ba 4c9f 10bd 6e6c 76bb fde3 403b
00000270: 1f1e 0f3b 38de 96bb b095 84ba 46ef 12bd
00000280: d592 003d e253 413c d20b 2bbc d73e 06bd
00000290: 21e6 0fbd 591d a2bc 313d 1ebd 83e1 7d3c
000002a0: 79a5 df3c 7f90 17bb 7298 d23c e2fd 89bc
000002b0: 0ba2 e6bc c85c bfbc 1bbe 0f3b c2ac f8bc
000002c0: fd18 30bb cb4f 313d b112 563b 601d f43c
000002d0: eb31 3cbc 3e15 113d 069d 00bd ba32 15bd
000002e0: f351 2a3d b04e 92bc e7f8 293d 9dc4 05bd
000002f0: d832 41bd b48e e3bc 8a7d 0e3d 31e7 b4bc
00000300: af6b a63c aa54 87bc c7c0 adbc ac19 553b
00000310: 846f aebc bced 443d 2bb7 e13c a209 2abc
00000320: 3963 9b3c 72f4 59bc 2e92 24bd da02 46bc
00000330: 7009 b3bc 661e 26bd fac9 033a 8af5 16bd
00000340: bb15 9e3b 32ed a0bc 1982 403c 45a3 85bc
00000350: 447d 953c 2168 713d 7912 48bb fc6b 5bbc
00000360: d83d c9bc 6939 053c eca2 f6bc c0a8 213b
00000370: cd09 ecbc 5fea 0bbc 26d5 8c3a 8331 333d
00000380: 4cbe 3e3c 739f f83c 3fef 0c3d 5c07 5ebc
00000390: aa00 07bc 05c9 d0bc 28d6 f93a 8eeb 8abd
000003a0: 0944 23bc b194 92bc c5f1 16bb 89d3 ad3c
000003b0: e9e2 7a3c 6cde 853c 137a 293c f9c8 2dbd
000003c0: be8e e83c f8f2 133d cdf5 273d d4f9 aabc
000003d0: f202 96bc f87f adbb 2741 0d3d 7ab9 8a3c
000003e0: 3eef 983c d0ae ca3c f230 183d 5d81 a23b
000003f0: 97ac 04bd 429f cd3c 7325 4b3c a93d 273d

decoder.0.bias f4 [32]
-0.0041780835 -0.11334102 -0.07867708 -0.0653147 -0.058529116 -0.03467561 -0.07092664 -0.16419643
-0.155848 -0.106819704 -0.14590941 -0.15513878 -0.12444771 -0.08924003 -0.069402985 -0.0015156654
-0.11551421 -0.07528708 -0.10614084 -0.06263741 -0.084518746 -0.12568259 -0.14024882 -0.12502007
-0.10980175 -0.07277153 -0.13085009 -0.15122932 -0.086222745 -0.063306436 -0.09320321 -0.05602597
00000000: 4ee8 88bb 561f e8bd 7321 a1bd b7c3 85bd
00000010: 3abc 6fbd 0308 0ebd fc41 91bd 1c23 28be
00000020: 9e96 1fbe 4ac4 dabd 4769 15be b3dc 1ebe
00000030: 71de febd 7ac3 b6bd 2723 8ebd 4ba9 c6ba
00000040: b792 ecbd 1d30 9abd 5e60 d9bd 0b48 80bd
00000050: 2a18 adbd f0b2 00be 639d 0fbe 4305 00be
00000060: bddf e0bd 3d09 95bd 91fd 05be dcdb 1abe
00000070: 8d95 b0bd cea6 81bd 53e1 bebd 7d7b 65bd

decoder.1.weight f4 [32]
1.0190413 0.9944775 1.0137893 0.9764404 0.96902996 0.9834909 1.0269525 0.96879804
0.98648214 0.9500115 1.0259151 0.9823289 0.9908709 0.9876363 0.9753229 1.0255649
0.9820739 0.9707753 1.0257475 0.9703332 0.99601823 1.0076333 1.0289521 1.0335732
0.99987644 0.9754142 0.98786926 0.99751246 0.99955267 1.0010251 0.9309118 0.98145384
00000000: f26f 823f 1496 7e3f d9c3 813f 00f8 793f
00000010: 5912 783f 0fc6 7b3f 2e73 833f 2603 783f
00000020: 188a 7c3f f433 733f 3051 833f e879 7b3f
00000030: b7a9 7d3f bcd5 7c3f c3ae 793f b645 833f
00000040: 3269 7b3f bb84 783f b24b 833f c267 783f
00000050: 0dfb 7e3f 21fa 803f b4b4 833f 204c 843f
00000060: e7f7 7f3f bfb4 793f 00e5 7c3f fa5c 7f3f
00000070: afe2 7f3f 9721 803f 3c50 6e3f 8f40 7b3f

decoder.1.bias f4 [32]
-0.11135945 -0.01678212 -0.07791022 -0.1267944 -0.04859125 -0.13884483 0.055690944 -0.033266045
0.0063937195 -0.0651803 0.031876083 -0.01989458 -0.012770152 -0.041287933 -0.1376855 -0.103797734
-0.009694505 -0.114602774 -0.024750536 -0.097456045 -0.071222946 0.031674884 0.014591926 -0.12829915
0.017711356 -0.03143541 -0.025112351 -0.01790619 -0.07282308 -0.115757905 -0.040013056 -0.111468524
00000000: 6c10 e4bd a87a 89bc 658f 9fbd 64d6 01be
00000010: 9e07 47bd 572d 0ebe 301c 643d fa41 08bd
00000020: 6882 d13b 407d 85bd 7f90 023d f5f9 a2bc
00000030: e639 51bc 891d 29bd 6dfd 0cbe e893 d4bd
00000040: b3d5 1ebc dcb4 eabd a3c1 cabc 0997 c7bd
00000050: 56dd 91bd 86bd 013d f912 6f3c da60 03be
00000060: 6817 913c 6bc2 00bd 6bb8 cdbc 01b0 92bc
00000070: 4424 95bd 7b12 edbd bbe4 23bd 9c49 e4bd

decoder.1.running_mean f4 [32]
0.4041156 -0.50751984 0.38020536 0.38800654 -0.068796165 0.3749452 -0.42291605 0.2973122
-0.15253353 -0.30941793 -0.6667187 -0.24927169 0.18482567 0.27710888 0.4210367 0.59418654
0.28032288 0.22580068 0.12300858 0.4543046 0.13603763 -0.5810837 -0.49358183 0.36524042
-0.20773757 0.17263792 -0.063248575 0.15432529 0.3277002 0.2508841 -0.0045009046 0.14854617
00000000: 3de8 ce3e d2ec 01bf 47aa c23e cba8 c63e
00000010: 01e5 8cbd d1f8 bf3e 7488 d8be 4e39 983e
00000020: c031 1cbe 076c 9ebe 14ae 2abf 1441 7fbe
00000030: f142 3d3e 37e1 8d3e 1f92 d73e 9c1c 183f
00000040: 7b86 8f3e 4b38 673e eceb fb3d 9d9a e83e
00000050: 734d 0b3e e7c1 14bf c2b6 fcbe cb00 bb3e
00000060: 28b9 54be ffc7 303e 7888 81bd 7307 1e3e
00000070: 52c8 a73e e173 803e 537c 93bb 7d1c 183e

decoder.1.running_var f4 [32]
0.3271497 0.22200675 0.20753768 0.27957004 1.0814029 0.23898327 0.8185828 0.4737825
0.92787886 1.1090224 0.5981219 1.4230266 0.7678453 0.46817443 0.21197934 0.27609313
0.74662846 0.22880374 0.7348059 0.3214528 0.24258758 1.4281504 0.27955592 0.20867874
0.66436875 0.42073148 0.82435894 0.64641166 0.49638802 0.2994537 0.89965254 0.1514356
00000000: 2a80 a73e bd55 633e c284 543e ce23 8f3e
00000010: 696b 8a3f 08b8 743e a48e 513f 9f93 f23e
00000020: 7889 6d3f 72f4 8d3f 841e 193f bc25 b63f
00000030: 8291 443f 8fb4 ef3e 1d11 593e 145c 8d3e
00000040: 0b23 3f3f 874b 6a3e 3d1c 3c3f 7695 a43e
00000050: e168 783e a2cd b63f f421 8f3e e1af 553e
00000060: 1214 2a3f 1e6a d73e 3009 533f 3c7b 253f
00000070: 9226 fe3e ff51 993e a14f 663f ef11 1b3e

decoder.3.weight f4 [32, 16, 4, 4]
-0.03947829 -0.07979829 0.056890126 -0.06332864 -0.06775049 -0.03889445 -0.027582586 -0.057566833
0.037439387 0.004574533 -0.009625975 -0.10014941 0.026167296 -0.07389564 0.004138999 -0.028311128
0.018183146 -0.016653301 -0.0076957205 -0.018119974 -0.024592465 0.06737061 -0.044957537 0.0054028765
-0.012276886 0.012380799 0.075917 -0.011162765 -0.023870023 -0.058554683 0.03528258 0.059905306
0.037796542 0.028970148 -0.03536129 -0.055334162 0.052508634 -0.00048016576 0.077638224 0.005542711
-0.048504885 -0.016294913 -0.012344288 0.012021318 -0.0049752668 -0.040226664 0.028589586 -0.04412022
-0.060335826 -0.0014343571 0.08530037 -0.037382476 -0.053345263 0.0015220414 0.0036339462 0.02788596
0.09686783 -0.04951001 -0.06813442 -0.01019899 0.022565039 -0.048448212 0.031792693 0.04479838
0.035732873 0.035870004 -0.027583905 -0.07293444 0.049889944 0.022788528 0.023657955 0.07745677
-0.022076968 -0.08264154 -0.040797904 0.010853135 -0.017857116 -0.015049388 0.04938634 0.007364182
0.03014106 -0.040821508 -0.035606187 -0.00040121144 0.018656567 -0.003216771 -0.116332866 -0.018329673
-0.09985136 -0.04780056 0.024962336 -0.062974446 -0.04363082 0.005411908 0.056022465 0.048889432
0.060739852 -0.07015215 -0.076300226 -0.025325345 0.04174291 -0.0001751418 -0.03814749 -0.027215527
-0.020050641 0.04185137 -0.0018496618 0.023771537 0.021422539 0.043609403 0.043879833 0.07746888
-0.046851214 0.036359053 -0.019429352 0.05418881 -0.015755057 -0.07162796 -0.016068581 0.05404311
-0.060400687 0.05210308 -0.07420696 -0.08818649 0.0041142283 0.021004971 0.009953578 -0.017123647
0.0005370288 -0.06511594 0.011488361 -0.023614397 0.023000913 0.015081168 -0.04519894 0.0090945475
-0.006228486 0.032160044 0.0071386364 -0.017817866 -0.03907183 0.018359719 -0.057035193 0.010147039
-0.048021477 0.005189827 0.020013059 0.04511543 0.02223964 -0.0013844466 -0.044301994 0.017550709
-0.021647485 0.093293115 -0.050605807 -0.063917965 0.00643179 0.07616349 -0.0068662865 -0.017195169
0.09123643 -0.007229034 -0.02858885 0.0056140693 0.015097505 -0.033131048 0.0116644865 -0.053054597
0.059312142 0.0386255 0.0711991 0.029704884 -0.029989451 -0.04256965 -0.0029323502 0.020958932
0.0047028973 0.03913454 0.027901528 0.082424715 -0.0022136562 0.007322842 -0.0019615164 0.03642665
-0.042186167 0.107234485 0.0011341174 -0.015223529 -0.0032383618 0.002102954 0.010015799 0.0178125
0.045279704 -0.0834598 -0.107286975 -0.032115553 0.03183831 0.006672726 -0.029759776 -0.054461204
-0.03424622 0.021502616 0.07291634 -0.06384917 0.0002580527 0.05614259 0.0072026025 0.041907594
-0.037046928 -0.06785548 -0.06617984 0.001496947 0.04407215 0.012255971 0.062907025 -0.06351654
-0.009839282 0.017936397 0.035342813 -0.090142645 0.036004305 -0.057891943 -0.038446937 -0.035025224
-0.0029580765 0.01024456 0.053565156 0.02818976 0.0005896763 -0.010446208 -0.0205688 -0.023012178
0.09806602 0.055513907 0.067015976 -0.040198933 0.01952736 -0.005477564 0.01993106 0.002929632
0.013092117 0.04801856 -0.0040198183 -0.02322972 0.049805686 -0.056427762 0.0823006 -0.01886145
0.018199341 0.047096353 -0.013226677 -0.009220345 0.038383555 -0.031962257 -0.017025767 -0.014134169
00000000: fdb3 21bd 496d a3bd 9f05 693d 72b2 81bd
00000010: c5c0 8abd c94f 1fbd e0f4 e1bc 33cb 6bbd
00000020: 0b5a 193d f7e5 953b 44b6 1dbc 221b cdbd
00000030: cc5c d63c 9956 97bd 71a0 873b bdec e7bc
00000040: d2f4 943c 816c 88bc 622c fcbb 5770 94bc
00000050: 2376 c9bc 9af9 893d 6525 38bd 9d0a b13b
00000060: fe24 49bc d6d8 4a3c 5f7a 9b3d 08e4 36bc
00000070: 118b c3bc 09d7 6fbd 7784 103d 445f 753d
00000080: 8cd0 1a3d ce52 ed3c 00d7 10bd 13a6 62bd
00000090: 4b13 573d c2be fbb9 ca00 9f3d a19f b53b
000000a0: 0fad 46bd e97c 85bc b23f 4abc 10f5 443c
000000b0: 9007 a3bb b7c4 24bd b534 ea3c 67b7 34bd
000000c0: b322 77bd 0a01 bcba f6b1 ae3d 5e1e 19bd
000000d0: 9080 5abd 3c7f c73a 8027 6e3b 1971 e43c
000000e0: a462 c63d 02cb 4abd 0f8a 8bbd aa19 27bc
000000f0: 51da b83c a271 46bd 0e39 023d 827e 373d
00000100: a25c 123d 6dec 123d a4f7 e1bc a75e 95bd
00000110: 6659 4c3d 02af ba3c 54ce c13c a8a1 9e3d
00000120: c2da b4bc f83f a9bd b41b 27bd 59d1 313c
00000130: 1649 92bc b591 76bc 5549 4a3d 3c4f f13b
00000140: 62ea f63c 7434 27bd cbd7 11bd b059 d2b9
00000150: a8d5 983c 76d0 52bb ed3f eebd 1c28 96bc
00000160: df7e ccbd 85ca 43bd d07d cc3c bff8 80bd
00000170: 3bb6 32bd 6056 b13b d077 653d 4940 483d
00000180: 5aca 783d eeab 8fbd 4b43 9cbd 1977 cfbc
00000190: 9dfa 2a3d 45a6 37b9 8b40 1cbd 19f3 debc
000001a0: 3e41 a4bc 586c 2b3d 5a70 f2ba 87bc c23c
000001b0: 527e af3c c69f 323d 57bb 333d 01a8 9e3d
000001c0: 0fe7 3fbd 3bed 143d 4e2a 9fbc 16f5 5d3d
000001d0: c010 81bc aeb1 92bd 42a2 83bc 4f5c 5d3d
000001e0: b666 77bd 0a6a 553d d2f9 97bd 1e9b b4bd
000001f0: a6d0 863b 9e12 ac3c 5514 233c e446 8cbc
00000200: 65c7 0c3a 825b 85bd ae39 3c3c fb72 c1bc
00000210: 696c bc3c 0117 773c 8622 39bd 4c01 153c
00000220: 5418 ccbb 40ba 033d 39eb e93b c6f6 91bc
00000230: c909 20bd 1f67 963c bc9d 69bd c43f 263c
00000240: 2bb2 44bd 6d0f aa3b 6df2 a33c f5ca 383d
00000250: e82f b63c 5276 b5ba 0276 35bd 81c6 8f3c
00000260: 1156 b1bc 7610 bf3d 0948 4fbd 6ce7 82bd
00000270: c4c1 d23b 9bfb 9b3d 96fe e0bb e2dc 8cbc
00000280: 2ada ba3d 88e1 ecbb 2a33 eabc 3af6 b73b
00000290: 875b 773c 6cb4 07bd 671c 3f3c c74f 59bd
000002a0: 4af1 723d c635 1e3d d5d0 913d a857 f33c
000002b0: 70ac f5bc 835d 2ebd ac2c 40bb 11b2 ab3c
000002c0: c31a 9a3b 8a4b 203d bf91 e43c 4ace a83d
000002d0: fd12 11bb 73f4 ef3b c98c 00bb 1c34 153d
000002e0: 67cb 2cbd c19d db3d aaa6 943a 1c6c 79bc
000002f0: b23a 54bb b7d1 093b 4e19 243c 85eb 913c
00000300: 3677 393d f9ec aabd 46b9 dbbd 998b 03bd
00000310: e368 023d e2a6 da3b c6ca f3bc b612 5fbd
00000320: c445 0cbd 4126 b03c 2955 953d 5bc3 82bd
00000330: 3f4b 8739 c6f5 653d cf03 ec3b 4ca7 2b3d
00000340: 85be 17bd d0f7 8abd 4c89 87bd 3535 c43a
00000350: 0085 343d 45cd 483c 66d5 803d f614 82bd
00000360: f134 21bc 5aef 923c a0c3 103d b59c b8bd
00000370: 4079 133d 1a20 6dbd 897a 1dbd 9c76 0fbd
00000380: 4adc 41bb cdd8 273c 2367 5b3d 36ee e63c
00000390: 8294 1a3a 9226 2bbc e67f a8bc 0984 bcbc
000003a0: d6d6 c83d 8d62 633d ac3f 893d a3a7 24bd
000003b0: d8f7 9f3c 237d b3bb 7646 a33c 12ff 3f3b
000003c0: 5280 563c 1caf 443d aeb8 83bb 414c bebc
000003d0: 0c01 4c3d cc20 67bd 388d a83d 5483 9abc
000003e0: c916 953c 1be8 403d b4b4 58bc ee10 17bc
000003f0: 1338 1d3d dbea 02bd 9f79 8bbc 0093 67bc

decoder.3.bias f4 [16]
-0.031652253 -0.031501338 0.03793025 0.030395262 0.02070744 0.07675988 0.072393686 -0.07134795
0.015004861 -0.0335687 -0.015495083 -0.03182048 -0.010304777 -0.07818949 -0.029841386 -0.063095346
00000000: cba5 01bd 8c07 01bd c05c 1b3d 7cff f83c
00000010: a6a2 a93c 4934 9d3d 2443 943d e01e 92bd
00000020: f3d6 753c 557f 09bd 17df 7dbc 3156 02bd
00000030: 5ed5 28bc d021 a0bd ec75 f4bc 2238 81bd

decoder.4.weight f4 [16]
0.973809 1.0939561 0.98401785 0.9684722 0.958319 0.97753155 1.0723954 0.9592877
0.9936574 0.97084254 1.0018026 1.0213115 1.0080544 0.96077704 1.0885419 0.9390061
00000000: 8c4b 793f c106 8c3f 98e8 7b3f cbed 773f
00000010: 6554 753f 823f 7a3f 4144 893f e193 753f
00000020: 5560 7e3f 2389 783f 113b 803f 56ba 823f
00000030: ed07 813f 7cf5 753f 5755 8b3f b462 703f
