weights/improved_cae_ne3_b8_icub_left.pth (torch, 351343 bytes, 36 tensors)

encoder.0.weight f4 [16, 3, 4, 4]
00000000: dd91 d9bd 8dd7 743d bc50 4bbd 2ad9 a53d
00000010: e137 1fbe f4c0 f03b 77cb 0ebe 4f06 bebd
00000020: 14b0 30be 771b 1dbe 6796 0bbb 820c 0cbd
00000030: b50e 20be 6e40 4c3c 3aef f5bd 324e 0cbe
00000040: 334a e63c c17c fb3d dd1a ac3d d21d 903d
00000050: 39a8 d5bd b0f4 403d 9645 4e3d 1c5b 0e3e
00000060: 9713 87bd d957 b4bc 236f 08bd 58a6 043e
00000070: 367d e6bd cdc5 c13d ddcd 0b3d f1bc 6f3b
00000080: 48fe 8dbd 4e87 c7bd 80c6 f33d b496 eebc
00000090: fca1 0dbe f6bf 09bc 3330 c03d 1ae5 44bd
000000a0: 59f1 d33d 4a3c 7c3d 1339 d4bc 2559 023c
000000b0: 96f6 b6bd d007 343d 739f 443c 9dec adbc
000000c0: 4268 103d 36e8 98bd ab72 0abe 34cc cd3d
000000d0: 5b2f 8ebc d260 68bd 07d5 e3bc f5a3 0c3d
000000e0: b411 5c3d 5476 783d 190e c6bd caba f6bc
000000f0: a288 fdbd 43bd cf3c 9a2c 7cbd 46dc 873d
00000100: 1e51 753d 3f31 ffbc 49ee 083e 6fac 063e
00000110: ad28 2fbd 83b3 c43c a3e0 ee3d 3c08 613c
00000120: ea6f 84b3 51e6 f73d eb56 ce3d 0b94 033d
00000130: f60a a83c 7f0c 6abc 20a0 fcbd 1b7f f7bd
00000140: e516 91bd 727c 95bd b1f6 ca3d b04c de3d
00000150: 9450 c73d 2d2b b03d 2e47 8d3d d658 b0bd
00000160: 2b71 e3bd 9161 683d 780c 253d 97ce 5c3d
00000170: 9bfe abbd 4585 333d b73b 173e bd52 863d
00000180: dcfa 8a3d 8e20 1cbe b293 05be 9ec0 90bd
00000190: a5f8 9d3d 27c9 bc3d 014d 09be 4f00 b2bd
000001a0: 60c3 3ebd dcd7 1a3c b424 4bbc 8f91 06be
000001b0: ff01 b03d 6ce5 923d 40a1 17be ab91 613c
000001c0: aec2 50bc ad5b cabd 52be bcbd 438e 02be
000001d0: 4a49 b7bd 23fb 04bd 74fe 0dbd da6c 09be
000001e0: 55c9 fd3c 21ae c5bd 1fba ce3d 5808 1cbe
000001f0: bd06 a83d 33e6 08bd 2532 a13d 0abc 9ebd
00000200: 3502 a03c 532a 58bc f9b9 0c3d 3a84 aebc
00000210: c2ac dcbc 11c8 d73d 0da8 99bd d6cb ebbc
00000220: 4e3a 91bd c969 a33d 3312 093d 537d c23d
00000230: 5deb 443d e8fe a63d 0b74 be3d e3e5 903d
00000240: 5f6a 4bbd 8ddd a63d dba8 d8bd 4f00 86bd
00000250: 14d4 d6bd c4ae 85ba 522c 763d ce3b 953d
00000260: 5c27 abbb 01b6 e43d eb30 bebd 859c 433d
00000270: 324a 013d a858 cabd 1103 d1bd 48fd a33d
00000280: 2020 f9bd c697 2cbd c3f0 d2bc 58d2 4a3d
00000290: 46bb dbbd 7b83 1fbe 757f bf3d e773 80bd
000002a0: 79ac 883d e35c f03d a01c 1abc 665d 783d
000002b0: 63c4 963d 6172 e3bd 9a0b 6cbd 69c6 55bd
000002c0: ae1c 973d 2f8a a7bd c726 d4bc f4d9 a03c
000002d0: 1586 f03b 268a c3bd a00c 1bbe 0cd8 903d
000002e0: 5a09 06bc 0962 81bb b6f4 94bc de58 1d3d
000002f0: e04e c23d 5e54 133e 3880 dc3c cfbb 5cbd
00000300: bde8 b53c 0b81 90bd 31ef b23d cd19 af3d
00000310: ed87 e7bd 1070 b3bd 02c3 fc3d 9821 35bd
00000320: afb7 17bc b230 d2ba 1c3c b7bd 3c24 65bd
00000330: ff4b 2c3d 6ea7 02bd 3f7e 323d 06cd 943d
00000340: b663 d83d 12aa 543e aa2b 34bc 73ca a6bc
00000350: db23 93bd 9b55 2a3e b3d7 883d 6b82 4f3c
00000360: c24d 08bd f52e ea3c 75ec 023d 04dd c13b
00000370: d27d dc3d 4b0b 873d 0b7a 023e 6fd3 70ba
00000380: 1f5a 10bd 10f7 9b3d 31e3 673d b6a6 67bd
00000390: 2c26 7abd 58d3 ed3d 5ba0 113e 05ec aeba
000003a0: cf0a abbd fa39 ef3d d099 e1bd 7fb5 933d
000003b0: 3773 043e aa09 013e 5075 3cbd 2cfc 0cbe
000003c0: af38 12be 47e5 75bd 5682 47bc e779 ebbd
000003d0: 18a3 003e 9646 803d c238 ef3d 67a2 e03d
000003e0: d64a 04be d235 a13c 0ac8 e83d 454a fbbc
000003f0: 253b 0bba 995d d1bd f243 093e 24cc f6bc
-0.10623524 0.059775878 -0.04963754 0.080980614 -0.1554866 0.0073472206 -0.13944803 -0.09278547
-0.17254668 -0.15342508 -0.0021299364 -0.034191616 -0.1563061 0.012466533 -0.120085195 -0.13701704
0.028111553 0.12279654 0.08403561 0.07036938 -0.104324766 0.047108352 0.05035933 0.13901943
-0.06595533 -0.022014545 -0.033309113 0.1295408 -0.11254351 0.09461556 0.034131873 0.0036581124
-0.06933266 -0.09742604 0.11903095 -0.029124595 -0.13831323 -0.008407583 0.09384193 -0.04807005
0.10348768 0.061580934 -0.025906121 0.007955824 -0.08933751 0.043952763 0.012000906 -0.02123099
0.035255678 -0.07466166 -0.13520305 0.10048714 -0.017356565 -0.05673296 -0.02781154 0.03433605
0.05372782 0.06065972 -0.09670658 -0.030118365 -0.12379576 0.025358802 -0.061565973 0.06633811
0.059891813 -0.031151412 0.13372149 0.13151716 -0.0427634 0.02401138 0.1166394 0.013734873
-6.167086e-08 0.12104476 0.10075172 0.032123607 0.02051304 -0.014285206 -0.12335229 -0.1208479
-0.07084445 -0.07299127 0.09910334 0.10854471 0.09732166 0.08601985 0.06898342 -0.08610694
-0.111055695 0.05673367 0.040295094 0.053907957 -0.083981715 0.043828268 0.14768873 0.0655875
0.06786129 -0.15246794 -0.13044623 -0.07067989 0.07713441 0.09218054 -0.13408281 -0.08691465
-0.046573043 0.009450879 -0.012398887 -0.13141464 0.08594131 0.07172665 -0.14807606 0.01376764
-0.012741728 -0.09880767 -0.09215988 -0.12749581 -0.08949526 -0.032466065 -0.034666494 -0.1342043
0.030979792 -0.09652353 0.100940935 -0.15237558 0.0820441 -0.03342266 0.078708924 -0.07750709
0.019532302 -0.013193685 0.034357045 -0.021303285 -0.026937846 0.105362065 -0.07502756 -0.02878372
-0.07091199 0.07979161 0.03346462 0.0949656 0.048076022 0.08154088 0.09299477 0.070750974
-0.04966199 0.08147726 -0.105790816 -0.065430276 -0.104896694 -0.0010199179 0.06010086 0.072867975
-0.005223198 0.11167527 -0.09286674 0.04775669 0.0315649 -0.09880191 -0.10205663 0.08007294
-0.121643305 -0.04213693 -0.02574957 0.049517006 -0.10729079 -0.155775 0.093504824 -0.062721066
0.066735215 0.11736467 -0.009406239 0.060635947 0.073616765 -0.111058004 -0.05762825 -0.05219117
0.07378517 -0.08180653 -0.025897397 0.019635178 0.0073402026 -0.09547834 -0.15141535 0.07072458
-0.0081809405 -0.0039484543 -0.018183094 0.03841483 0.094877005 0.14387652 0.026916608 -0.053890046
0.022205705 -0.07055863 0.087370284 0.08549843 -0.11305223 -0.087616086 0.12341882 -0.04422149
-0.009260102 -0.0016036241 -0.08947012 -0.05594276 0.042064663 -0.031897955 0.04357743 0.072656676
0.10565893 0.20768002 -0.010996738 -0.020360207 -0.07184573 0.16634218 0.06681766 0.012665371
-0.03327728 0.028586844 0.031963784 0.0059162397 0.10766186 0.06593951 0.12741868 -0.00091867795
-0.035242196 0.07615483 0.05661315 -0.056555472 -0.06107156 0.11612576 0.14221327 -0.0013345486
-0.08351671 0.1168098 -0.110156655 0.07212352 0.12934576 0.12601343 -0.046010315 -0.13768071
-0.14279436 -0.06003311 -0.012177071 -0.114978604 0.12562215 0.06263463 0.116807476 0.10968476
-0.12919173 0.019678984 0.113662794 -0.030675063 -0.00053112424 -0.102229305 0.13404825 -0.030126639

encoder.0.bias f4 [16]
00000000: 6a23 ec3d 1aed acbd 99c0 17be 9abb b4bd
00000010: befd b73b 2cdc a23d 5e72 81ba f633 ddbd
00000020: 69f3 893d 9aae 463d 84f9 d0bd f68f b13d
00000030: 6e2b fcbd a7ac f73d eef5 9fbd 7151 db3d
0.11530192 -0.08443661 -0.14819564 -0.08824845 0.005614965 0.07952151 -0.0009876003 -0.108009264
0.0673588 0.048506357 -0.10203841 0.086700365 -0.12312971 0.12093478 -0.07810579 0.10708893

encoder.1.weight f4 [16]
00000000: c0ef 7f3f bf9c 7e3f 20f4 7e3f 57a9 793f
00000010: fcd7 7f3f 766d 803f 65a8 833f 4917 803f
00000020: b37b 7d3f 3dd7 803f 08ff 813f 7af9 803f
00000030: e0fa 7d3f db30 7f3f 5e3a 773f ccdc 7d3f
0.99975204 0.99457926 0.99591255 0.9752402 0.9993894 1.0033405 1.0285765 1.0007106
0.99016875 1.0065686 1.0155954 1.0076134 0.9921093 0.9968392 0.96573436 0.99165034

encoder.1.bias f4 [16]
00000000: bb60 ba3b f586 4bbc cc4a 2cbb 80bf ccbc
00000010: 6c29 dabc 60c1 ddbb 0b0f a9bc 7c21 413b
00000020: 14a1 913a 2e68 dabc d811 54bc 3acb bebb
00000030: 3853 50bd 85d5 30bd e46f 22bd 2378 8fbc
0.0056878007 -0.012422313 -0.00262897 -0.024993658 -0.02663108 -0.006767437 -0.020637056 0.002946942
0.0011110627 -0.026661005 -0.012943707 -0.0058225663 -0.050860614 -0.043172378 -0.03965749 -0.01751334

encoder.1.running_mean f4 [16]
00000000: 08e6 87be c1f9 d63e 1187 d7be db6e a4be
00000010: 7626 613f 4509 413f 09f5 2dbf 1038 31bf
00000020: ddd4 00bf 72b0 a43f 5432 a8bf 50dc f4be
00000030: 7cfb 41bf dcf7 473f 15ec 963e 8d1e 863f
-0.26542687 0.41987422 -0.42095235 -0.32115826 0.8794931 0.7540477 -0.6795202 -0.6922617
-0.50324804 1.2866347 -1.3140359 -0.47824335 -0.7577436 0.7811258 0.2947699 1.0478073

encoder.1.running_var f4 [16]
00000000: 6f6c c63c 42ef 903d 5271 553c ffcf 883b
00000010: 8b8e 0c3e c7d9 983d ab17 923d 2d07 cb3c
00000020: f4f2 d73c 4a51 803e 29d1 5b3e 0dd0 a23d
00000030: f23c 713d 3bda e03c 2f32 993c ace6 e03d
0.024221627 0.07076885 0.013027506 0.0041751857 0.13726251 0.07463413 0.071334206 0.024783695
0.026360966 0.2506202 0.21466507 0.07949839 0.058896013 0.02744781 0.018700687 0.10981497

encoder.4.weight f4 [32, 16, 4, 4]
00000000: 7e1b c4bd e5b6 113d de15 68bd 26c1 06bd
00000010: 19d8 76ba 8cf0 5e3d dcb2 b4bd 1010 5dbc
00000020: 0e0c ccbc 4053 5c3c cee5 2fbc fb8c 8dbc
00000030: 61b2 15bd f4b0 9a3c e297 9bbc 6146 6abd
00000040: 48db 1b3d c576 093d 0716 043d e579 1b3c
00000050: 6c41 20bd 2fff 53bd 298b dc3c 0821 49bd
00000060: 032b 0dbd c894 813d fa2c c23c e634 34bc
00000070: ce44 1c3d 75fa de3c 406f 013d 7568 7a3c
00000080: 6992 bc3c 4431 193c 03e8 8fbc b709 d7bc
00000090: 6793 a13c 22ad cf3c 3b14 4e3d 2357 00bd
000000a0: 1f2b c03c 970b acbc a04e 3cbd 0ee1 603a
000000b0: d17e 64bd 0e2e 39bc 8fa3 8bbd 1682 823c
000000c0: b596 82bd 4897 3e3d 447c 2d3d 6c92 dbbb
000000d0: 5720 03bd 74e4 76bd 8d6a 473c 391a 3e3d
000000e0: 58bc 5ebd 4cce 89bd fd70 3b3c b363 dfbc
000000f0: 57e2 2fbc 47e6 cfbc 9b0a 89bd 146e b5bd
00000100: cf80 81bc 5a01 e5bc a9cf d03c 0015 a5bc
00000110: ba93 ac3c ea9a 7a3c 3797 833d ec36 273d
00000120: 0e4e a63d 9fc4 783d f49b 67bc 3abb b93c
00000130: ebba f03c c091 723d fc07 123d 115d 0abc
00000140: d574 313d 82c4 203d b514 863c bf22 333c
00000150: 4565 ae3d 3958 a13d e2de f2bc a053 06bc
00000160: 6fad 873d 5681 163d 9545 8f3d 7e61 5fbc
00000170: 7f8f 1a3b f771 ed3a de6b b63c d835 e4bc
00000180: 263b 16bd 69ea f23c 6e17 a03d f324 e73d
00000190: b2cf 9dbc 916d c1bd d1fb dd3c bcfe c53c
000001a0: 14cd 25bd d5b8 13bd f969 39bb b53a 09bc
000001b0: 0dfb 0fbd 483e 58bd f42a ed3b 162d 51bd
000001c0: 2282 f8bc c1e6 a73d a515 a53b 7b80 84bc
000001d0: 516f 42bb 506c c1bc 2e88 5c3d cd2c 663d
000001e0: 414d 6cbd 5b97 dabc 6369 083b 1b0c 12bd
000001f0: 647e 8abc bc59 2f3d b350 b2bc c5ff 893c
00000200: 7e72 b8bd ce71 9bbc c4e8 e83c 9055 b7bb
00000210: 2e75 d2bd f18e b6bd 5c21 a33c b490 9fbb
00000220: ecf8 0dbc 4700 0fbd bbd1 5bbd 2718 62bd
00000230: 2af8 efba 4df8 93bd 5930 af3b 78c5 8bbd
00000240: 75f0 423d b21f 203d 5e26 a5bc a27c e63c
00000250: 74f8 a13c 3e87 463d a74a c5bc eff1 4d3d
00000260: 7971 253d b271 8e3d 9b76 953c ac08 163d
00000270: a32b 8f3d b85e 853d 3243 ce3c 0b96 573d
00000280: 938c 8fbd 4224 b0bb a18b b4bc 4586 313d
00000290: 95f9 98bd f5f0 1fbd 115e 063d 8539 8c3d
000002a0: 75fa 70bd fe7c 753c e1a4 81bd aee9 363d
000002b0: 7af0 15bd aeaa 95ba 951a fd3c d29f 25bd
000002c0: cf74 44bd d860 063d a4dd 15bc 85ae 29bd
000002d0: cd13 c5bd 3211 d4bd 0575 42bd 96a8 143d
000002e0: e334 bfbd 12b3 b4bd 36d0 2dbd 8365 813c
000002f0: 031f 87bd f189 67bd d2e5 b1bd fae0 a3bd
00000300: aa96 843d 5f9a e7bc 344d 833d c6c4 2c3d
00000310: 5b76 a9bd 8ae4 f13c 30f1 8c3c a703 463c
00000320: d5f4 d2bc 2668 89bd 3e33 7eba edd6 3b3d
00000330: e9ca 8c3c c618 3fbd ca7f 57bd 15a8 debc
00000340: c88a f63b 367f 4c3d 2872 953d 4409 6d3d
00000350: 22cd 233c c712 273c 1e0b 8d3d 1fba ec3b
00000360: efae 5b3d a7d9 453d 5f6a c33c 13d5 403c
00000370: 16a1 243d e15b 96bc 6a6f 103d 7b5d 4b3d
00000380: babf 6b3c dcbf 34bd 3662 073c 8d63 6fbd
00000390: 1e6f ba3c 7f4d 553d 6905 85bb 7500 683d
000003a0: 1bf4 823d 9f5e f1bc 6bb4 853d 6658 7d3b
000003b0: 571b ba3b 5d25 393d ad2f 343c 2e60 253d
000003c0: 7abf 1f3d dd87 6c3d f5ed d33c 09eb 87bc
000003d0: 23f3 173d 3a7d d2bb 4c0f 373d ab40 a83d
000003e0: d742 4cba d205 bd3d 60a8 3c3d f467 96bc
000003f0: 7e4f f03c 0775 83bc d0f5 453d 185a 003d
-0.09575556 0.035574812 -0.05666148 -0.032899044 -0.00094163563 0.054428622 -0.08823177 -0.013492599
-0.024908092 0.013447583 -0.010735942 -0.017279139 -0.03654707 0.018883206 -0.018993322 -0.057196025
0.03805092 0.033560533 0.03224757 0.009489511 -0.03912489 -0.051757034 0.026921825 -0.049103767
-0.034464847 0.06327206 0.023703087 -0.01099894 0.038151555 0.027219037 0.031600237 0.015283694
0.023019033 0.009350125 -0.017566686 -0.02624975 0.019723607 0.02535111 0.050312262 -0.0313331
0.023458062 -0.02100162 -0.04597342 0.00085784576 -0.055785004 -0.011302484 -0.06818306 0.01593117
-0.06376401 0.04653099 0.042354837 -0.0067008045 -0.032013264 -0.060276464 0.0121714 0.046411727
-0.054378837 -0.06728801 0.011440513 -0.02726922 -0.010735116 -0.02537836 -0.06691476 -0.08858886
-0.015808491 -0.027954746 0.025489645 -0.020151615 0.021066535 0.015295723 0.06425326 0.040823862
0.081203565 0.060734387 -0.014136303 0.022672284 0.029386004 0.05922103 0.035652146 -0.00844504
0.04332431 0.039249904 0.016367296 0.010933577 0.085154094 0.07878155 -0.029647294 -0.008198649
0.06624877 0.036744438 0.069956936 -0.013634084 0.0023584065 0.0018115629 0.022268232 -0.027857706
-0.036677502 0.029652791 0.07816969 0.112863444 -0.019264076 -0.09444726 0.027097614 0.024169318
-0.04047878 -0.03606494 -0.0028291924 -0.008375813 -0.03515153 -0.05279377 0.0072377864 -0.051068388
-0.03033549 0.0819831 0.0050379806 -0.016174546 -0.00296684 -0.023611218 0.05384081 0.05619507
-0.057690863 -0.0266835 0.0020814769 -0.035656076 -0.01690597 0.042810187 -0.021766996 0.016845593
-0.09006213 -0.018975165 0.028431304 -0.0055949166 -0.102762565 -0.08913983 0.019913368 -0.004869545
-0.008665305 -0.034912374 -0.05366681 -0.055198815 -0.0018308212 -0.07225094 0.0053463397 -0.068247736
0.0475926 0.039092727 -0.020159896 0.028135601 0.019771792 0.04846882 -0.024083449 0.050279554
0.04039142 0.069552794 0.018245032 0.036629364 0.06990745 0.06512207 0.025178526 0.052633327
-0.07009234 -0.005375416 -0.022039237 0.04334094 -0.07469479 -0.039048154 0.032804552 0.068469085
-0.058832604 0.014983414 -0.06330276 0.044656448 -0.03660629 -0.0011418664 0.030896464 -0.04043562
-0.04796296 0.0328072 -0.0091470815 -0.0414262 -0.09622917 -0.10354842 -0.04747488 0.03629359
-0.09336259 -0.088232175 -0.042434894 0.015795475 -0.06597712 -0.056528036 -0.08686413 -0.08001895
0.064740494 -0.028271852 0.0641121 0.042179845 -0.08274528 0.029527921 0.01720485 0.012085832
-0.02575151 -0.06709318 -0.0009696967 0.045859266 0.017186599 -0.046654485 -0.052612104 -0.027179757
0.0075238682 0.049926005 0.07297164 0.057870165 0.009997638 0.010197348 0.06886886 0.007224336
0.053633627 0.048303273 0.023854433 0.011769551 0.040192686 -0.018354358 0.035262503 0.049649697
0.014388973 -0.044128284 0.008263161 -0.05844455 0.022758063 0.05207586 -0.004059483 0.05664106
0.06394216 -0.029464064 0.065285526 0.0038657426 0.0056795287 0.045201648 0.010997695 0.040374927
0.039000966 0.057746757 0.025870303 -0.016591566 0.037097108 -0.0064236196 0.044692323 0.082154594
-0.00077919423 0.09229626 0.046059012 -0.018360116 0.02933478 -0.016047014 0.04833013 0.03133592

encoder.4.bias f4 [32]
00000000: f126 f6bd cc10 81bd 4613 28be 4d2c a3bd
00000010: e931 02be 68dc 13be 1e99 1bbe f753 ecbd
00000020: 967a a2bd 8a09 bdbd ee3b 2ebe 5593 63bd
00000030: 946d c2bd fb8b 2bbe 9ebd eebd 2dcd 20be
00000040: 4989 f9bd bfc2 94bd 289f 9abd 2869 cdbd
00000050: e957 41bd 2f99 c3bd f743 fabd f08c ddbd
00000060: b8c1 4abd bba1 d5bd fbdd bebd 04d2 aabd
00000070: d857 2ebe 2c91 f1bd b7a6 e5bd 751c 88bd
-0.12019146 -0.06302032 -0.16413602 -0.07967434 -0.12714352 -0.14439547 -0.15195128 -0.115394525
-0.07933538 -0.09230335 -0.17015049 -0.05556043 -0.094935566 -0.16752617 -0.1165726 -0.15703268
-0.12184388 -0.07263707 -0.07549888 -0.100298226 -0.04720298 -0.09550702 -0.122199945 -0.10817897
-0.04950115 -0.10431238 -0.09319683 -0.083408386 -0.17025697 -0.117952675 -0.11213439 -0.06646053

encoder.5.weight f4 [32]
00000000: 581e 803f d142 803f 2c4a 803f 90ee 7e3f
00000010: 5dbd 743f 90a2 7f3f 21bc 793f 2c9a 803f
00000020: 0e4b 833f 905a 843f d607 803f c5df 823f
00000030: 381d 833f 8bee 7b3f a353 823f 2f3e 7e3f
00000040: 2e1c 7b3f c493 7c3f 82cf 813f 1daf 803f
00000050: 440b 7f3f db4f 813f 04ac 813f c0e8 7d3f
00000060: a702 803f 6bdb 803f ed9d 833f abb6 7d3f
00000070: d468 843f dace 7d3f ff74 7f3f e7ba 803f
1.000926 1.0020391 1.0022635 0.9958277 0.95601445 0.99857426 0.97552687 1.004705
1.025728 1.0340137 1.0002391 1.0224539 1.0243292 0.9841086 1.0181774 0.99313635
0.98089874 0.9866297 1.0141451 1.005344 0.99626565 1.0102495 1.013062 0.99183273
1.000081 1.0066961 1.028257 0.99106854 1.0344491 0.99143755 0.99787897 1.0057038

encoder.5.bias f4 [32]
00000000: b1f8 1fbd 7bb8 673d 9485 b3bb 5451 a7bc
00000010: 636c 0cbd 7f13 5cbc 1b97 cc3a ae25 da3c
00000020: e4f2 883c 59b1 263d a1fb 16bd 6ca6 883d
00000030: 5e73 8bbc 3a3d 48bc 3b7e a4ba db20 e7bc
00000040: 097d a5bc e08a c3bc d86f 043d acc4 943d
00000050: c737 60bc 6d1b d1bb a581 ccbb 5446 db3c
00000060: 0ef9 acba 8003 c53b 6482 0e3d 47f0 1fbb
00000070: 82ec 513b e80d bdbb ae8c 8b3c 4b21 8a3c
-0.03905553 0.05657242 -0.0054785702 -0.020424522 -0.034283053 -0.013432383 0.0015608998 0.026629295
0.016717382 0.040696476 -0.036861066 0.066723675 -0.017022785 -0.012221629 -0.0012549827 -0.028213909
-0.020201223 -0.023869932 0.032333225 0.07264075 -0.013685173 -0.0063814432 -0.006241041 0.026766934
-0.0013196783 0.00601238 0.03479232 -0.002440469 0.0032031839 -0.00576948 0.017034855 0.016861578

encoder.5.running_mean f4 [32]
00000000: 81b7 383f f70e 68bf 04b5 023e ff77 84be
00000010: b3a6 803b cdf2 823f 888d 62bf 644b f4bd
00000020: 2794 2cbe 67db 4abf a5c6 753e d589 94bf
00000030: a621 4fbe 4337 dbbc 223f 4f3f 4630 0f3f
00000040: b7ea 193f 8812 5fbc 2533 dbbd 786a 8ebe
00000050: f8ae 3f3f d052 003f 371f d03e 44fb 28be
00000060: 0d55 b53e b067 0cbe 4bed 97be ffab 71bf
00000070: f3af 083f 5147 283f e436 2abf 445c eabe
0.72155005 -0.90647835 0.12764364 -0.258728 0.003926122 1.0230347 -0.8849721 -0.11928442
-0.1685339 -0.7924103 0.24001558 -1.1604563 -0.2022768 -0.02675975 0.8095571 0.55933034
0.6012377 -0.013615258 -0.107031144 -0.27815604 0.74876356 0.5012636 0.40648815 -0.165021
0.3541645 -0.13711429 -0.29673228 -0.9440307 0.5339348 0.6573382 -0.66490006 -0.45773518

encoder.5.running_var f4 [32]
00000000: 7f46 093f f640 0640 c3c6 0940 fe4d 1e40
00000010: e10a a93f bd2b ad3f dde4 303f 38a8 9c3f
00000020: c278 f73f f3c5 383f bdd8 a03f 5cfd c83f
00000030: 486a 9b3e 83eb 483f d42f 543e 56bb 413f
00000040: aced 443f 4a35 453f 1763 b93f 1d80 753f
00000050: 3456 9c3f c691 233f 1d8b 8f3f 5df2 3c3f
00000060: 3587 b23f c49b 873f caac a13f a530 e53f
00000070: 1132 ab3f 177c 843f 467d 943f 9af3 733f
0.53623194 2.097715 2.1527565 2.4735103 1.3206445 1.3528973 0.6909922 1.2238836
1.9333727 0.72177047 1.2566143 1.5702319 0.30354524 0.7848436 0.2072137 0.75676477
0.7692516 0.7703444 1.4483365 0.9589861 1.2213807 0.6389431 1.1214329 0.73807317
1.3947512 1.0594411 1.2630856 1.790547 1.3374654 1.0350369 1.160073 0.9529358

encoder.8.weight f4 [64, 32, 4, 4]
00000000: a005 dcbc 058c 013d 6d2b a5bc ebc7 273d
00000010: 8343 f63a e263 a9bc c6db 60bc 99d6 e4bc
00000020: 9a09 413c 2359 a03c 83a7 3e3b 5d3f c93a
00000030: 273b 693c c6f5 74bc f914 95bc d698 5b3c
00000040: d4b5 f73a 03a6 d43c 2392 2a3c 2fb3 793c
00000050: 0641 ef39 3c9c 78bb 37e7 88bc 2d82 5b3b
00000060: 64ab 1f3c 475e 313d 4a31 c8bb bece cfbc
00000070: a8a0 153d 45ab 033d 56eb bebc 1301 3fbc
00000080: 78ef 3ebd aacc 8a3c 9e5e ddbc 6dc0 af3c
00000090: 9c93 b2bc ae58 443c a3e7 ebbc 5229 293c
000000a0: 1482 04bd 5743 b93c 6f5f 5abd 54a3 cf3c
000000b0: c21d e0bc 0071 66bc 7b1b 57bd dc6b 24bc
000000c0: a62c d5bb 5d3e eb3c 9fe1 433c 26b3 dcbc
000000d0: 4116 2b3d 2e96 433d 40e8 473b 9ed6 3f3c
000000e0: 7cbf 473d 2571 6dbc 20c3 bc3b 09dd 01ba
000000f0: 420f 113d c9a8 80bc 85c2 cabc 2f16 36bd
00000100: 926f eebc b4d4 d1bc 0a50 f33c c815 00bd
00000110: 09c4 26bd f78e 1fbd e2b6 65bd 809b 453c
00000120: c33f 193d 4567 c8bc bd24 96bc f47e 99bc
00000130: 08a7 2cba dcb3 2bbd b47f 1dbd 95a3 87bd
00000140: f032 0ebb 820c afbb 4d1a 983b bc80 52bd
00000150: 79e8 d63c b3c7 b5bc fffe ac3c e79c 59bd
00000160: ffe0 8a3c e5b3 52bd 1574 41bb 6e12 593c
00000170: dbe5 c73a 609d 32bb ba48 b93c 44d9 ddbb
00000180: e548 da3a 1573 a3bc a852 a5bc cb01 953c
00000190: 84e2 86bc 2a18 6dbc b463 11bd 9622 a7bc
000001a0: be20 a43c afb6 703c 508a d2bc 1dc5 b83c
000001b0: 0da2 4fbd edca 053d 9784 bebc d750 41bd
000001c0: 30e7 013d 5f32 bcbc ebac 5d3d 85c5 213c
000001d0: f7b7 16bc 7e48 123d 64eb 873c 32c9 bebc
000001e0: 5cdd 683b fa59 403d cb8d 0b3d 4581 38ba
000001f0: 4a07 cdbc 7d24 a0bc e86e ae3c 7286 27bd
00000200: 21e6 e73a c849 30bb fa5c 66bc 7cd4 593d
00000210: db41 203d 4c18 253d 487b 233b 1c0a 013c
00000220: 672d 4f3d 5ba3 8ebb a278 a83c a186 30bb
00000230: 1dac 093d a873 11bd 0aa5 72bc cd92 bebc
00000240: eace ae3b 95e1 0f3d 21ea 2f3d 7230 f43c
00000250: cadf d73b 84dd 953c 40a4 3c3d 7653 a63b
00000260: b617 3d3d 9661 fdbb e1de 553a 0083 7d3c
00000270: 89df 923c 3660 f13b feb6 22bc 2dd3 443d
00000280: 6642 8f3c 4044 8dbc a4e5 e2bb 29ec 083d
00000290: 4f4b 463c 41cb 983c 70fb 233c 1095 013d
000002a0: b296 26bd 2cdd 21bc 5ff7 00bd b800 15bb
000002b0: b4db d63c 6c2e 0d3d 0f71 b03c 09bc 873c
000002c0: d65a c9bb 9765 6a3c 40dd 5c3c f369 eebc
000002d0: d383 053d e318 6a3d 7755 2a3d c438 213d
000002e0: 719f 0a3d 1460 f03c f5be 503d f96a 3ebc
000002f0: 66e3 563c ac6a 383d 7f52 3e3d 5e5a 383d
00000300: 50f1 ccba cc00 e7bb 8a48 f7bc 570f f5bc
00000310: 4214 74bd 3e51 eabb 7e02 82bc dc08 33bd
00000320: 48ed e1bb d552 2bbd c9a7 86b9 29c6 9a3c
00000330: df34 87bd 1eb5 25bd 1088 ccbc 05a8 5e3c
00000340: cc2e ddb9 2c32 643c 77b9 983c 40d2 57bc
00000350: 69b3 a0bb e329 063d d082 383a 1e72 c6bc
00000360: d80a df3c 0fff 01bd 7d7c 5d3c c208 43bd
00000370: 1be6 9abc be84 413c 20ec 883c 5887 a43c
00000380: 423e 65bd e691 a3bd 914a 58bd ca98 84bd
00000390: 1fef 40bd 3498 b5bd cb8c 79bd 963d 37bd
000003a0: d91f 933c 8759 e9bb 0b48 95bd 3774 90bc
000003b0: 8d26 c7ba 9b63 65bc 8bdf 5ebd abe4 22bd
000003c0: e25e 4eba e6af 043d 8928 bfb9 1227 233d
000003d0: 2a70 a53c e529 3bbd 052a f93c f2bf 36bc
000003e0: 5a6d a5bc 1979 45bc 72a7 89bc 1f95 30bd
000003f0: ada6 463c 4e09 27bd ff17 e9ba 98b6 82bd
-0.026858151 0.031627674 -0.020162309 0.04096214 0.0018788431 -0.02067751 -0.013724273 -0.02793436
0.011782074 0.019573754 0.0029091544 0.0015353967 0.014235294 -0.014951175 -0.018198477 0.013403138
0.0018898793 0.025958067 0.010410818 0.015240475 0.0004563408 -0.003793492 -0.016711814 0.003349434
0.009745453 0.0433028 -0.0061093913 -0.025367137 0.036530167 0.032145757 -0.023305576 -0.011657971
-0.046615094 0.016943295 -0.027022656 0.02145406 -0.021798901 0.0119840335 -0.028796976 0.010324793
-0.032350615 0.022615118 -0.05331367 0.025346436 -0.02735794 -0.014065027 -0.05251644 -0.010035481
-0.0065055666 0.02871626 0.011955648 -0.026940893 0.04176927 0.047750644 0.0030503422 0.011708884
0.048766598 -0.014492308 0.0057605654 -0.0004953896 0.03541494 -0.015705483 -0.024750957 -0.04445475
-0.029105935 -0.02561412 0.029701252 -0.031270772 -0.040714297 -0.0389547 -0.056082614 0.012061
0.037414324 -0.024463305 -0.018328065 -0.018737294 -0.0006586169 -0.041919574 -0.038451865 -0.06622998
-0.0021697842 -0.005342067 0.004641807 -0.051392302 0.026233898 -0.02218995 0.021117685 -0.05312815
0.01695299 -0.051441092 -0.0029518653 0.013249023 0.0015250997 -0.0027254447 0.022617687 -0.006770285
0.0016653804 -0.019952336 -0.020181015 0.018189332 -0.016465433 -0.014471093 -0.035495475 -0.020402234
0.020035144 0.014691993 -0.025700718 0.022554928 -0.050691653 0.03266423 -0.023256583 -0.047196236
0.03171462 -0.022973238 0.054119986 0.0098737525 -0.009199134 0.035713665 0.016591735 -0.023289297
0.003553233 0.04696081 0.03407077 -0.00070383056 -0.02502789 -0.019548649 0.021293119 -0.0408997
0.0017692485 -0.0026899446 -0.014060253 0.053181157 0.039125305 0.040306374 0.0024945308 0.007875945
0.05058041 -0.0043529696 0.020565335 -0.0026935714 0.033611406 -0.03551069 -0.014809856 -0.02326336
0.0053347247 0.03512724 0.042947892 0.029808257 0.006587957 0.018294103 0.04605508 0.0050758673
0.04616519 -0.0077325804 0.0008158517 0.015473127 0.017928855 0.0073662056 -0.009931324 0.048052955
0.017487716 -0.017244458 -0.006924348 0.033428345 0.012102916 0.018651607 0.010008678 0.031636298
-0.040671058 -0.009879392 -0.03148591 -0.0022736024 0.02622781 0.0344681 0.021538286 0.016569154
-0.0061448617 0.0143064475 0.0134804845 -0.029103255 0.03259642 0.05715264 0.041585412 0.039360777
0.03384346 0.029342689 0.05096336 -0.011622184 0.013115739 0.045023605 0.046465393 0.045008056
-0.0015635882 -0.0070496555 -0.030185957 -0.029914541 -0.05958963 -0.007150798 -0.015870329 -0.04370962
-0.006894741 -0.04182704 -0.0002568348 0.018893318 -0.06601881 -0.04045593 -0.024967223 0.013589864
-0.0004218727 0.0139279775 0.018643124 -0.013172686 -0.0049042 0.03275479 0.00070385356 -0.024224337
0.02722685 -0.031737383 0.01351845 -0.047615774 -0.018908551 0.011811433 0.016714156 0.020084068
-0.055967577 -0.07986812 -0.052805487 -0.06474455 -0.047103044 -0.08866921 -0.060925286 -0.044736467
0.017959522 -0.007121268 -0.07289132 -0.01763354 -0.0015193984 -0.014000799 -0.054412406 -0.039768856
-0.0007872415 0.032394312 -0.0003646056 0.039832182 0.020195086 -0.04569425 0.030415544 -0.011154162
-0.020193744 -0.012052798 -0.016803477 -0.043110963 0.0121247 -0.040780358 -0.0017783641 -0.06382483

encoder.8.bias f4 [64]
00000000: 781e 9fbc 1eb8 03bc 496c a83c b3ab 18bd
00000010: 6140 833d 582c 983b 9cd5 bcbc 1a38 a0b7
00000020: 3f73 6fbd fe66 1fbd 4b50 0bbd 609b f93c
00000030: 86ea 8a3c 64bf 013b ecb8 42b7 68a6 fdbb
00000040: c184 b4bc 64bc 6b3c 6ff8 53bd 5e57 1fbc
00000050: fb0f efbc 3a18 c63c 389c 81bc cf13 f2bc
00000060: 38c2 01bc f720 34bb 594b 37bd f160 6abd
00000070: d63f 16bd baa1 af3c 8d29 12bd 4109 20bd
00000080: 8a8c 503c 899f 083d 201a 8e3d eda0 14bd
00000090: cb9b a73c 769e 12bd 85c0 b0bc 9acf 04bd
000000a0: 8641 e33c cb98 a73c eb0b 26bc 7e24 12bd
000000b0: 71bb 553c bc06 d33c 628c 32bd 654b 24bd
000000c0: 6a9e bd3c 9eb5 e7bc 98d0 283d 2f48 173c
000000d0: 428e d0bc d13e 4e3d d5cf 8e3c 9e40 29bd
000000e0: d2d5 04bc e32b d9bc 6251 36bd 9d5a 0b3d
000000f0: 789c 043d 6bfa 18bd eea4 ba3c 4177 6fbc
-0.019423708 -0.008039502 0.020559447 -0.03727312 0.06408764 0.004643958 -0.023051076 -1.909961e-05
-0.058459517 -0.03891658 -0.03401212 0.030469596 0.016957533 0.0019797916 -1.1606357e-05 -0.0077407844
-0.022035958 0.014388178 -0.051750597 -0.00972542 -0.029182425 0.024181474 -0.015821561 -0.029550461
-0.0079198405 -0.002748547 -0.04474959 -0.057221357 -0.036681972 0.021439422 -0.035684157 -0.039071325
0.01272882 0.03335527 0.06938577 -0.036286283 0.02046003 -0.03579565 -0.021576175 -0.032424547
0.027741205 0.0204586 -0.010134677 -0.035679333 0.013045178 0.025760047 -0.04359091 -0.040110964
0.023146827 -0.028284844 0.041214556 0.0092335185 -0.025458459 0.050352875 0.017433086 -0.04132139
-0.008107619 -0.026510185 -0.044511206 0.034021962 0.032375783 -0.037348192 0.022783723 -0.014615835

encoder.9.weight f4 [64]
00000000: 7986 813f 9cbc 823f 20fe 783f cc66 7d3f
00000010: c702 873f 451a 7f3f a27f 813f b2f8 803f
00000020: 01dd 7d3f de4f 853f 0f9e 7f3f e26b 803f
00000030: a31d 7d3f c4ea 7c3f 7bff 803f 9ff8 833f
00000040: bcbe 823f 69e0 7f3f c202 7b3f f4a1 813f
00000050: 9a0f 813f 3711 863f 4c4f 7c3f 5d48 823f
00000060: ec2a 823f 6039 7d3f d02a 803f 45b0 723f
00000070: a938 803f fa14 7f3f 4925 803f 40a4 7f3f
00000080: 0a56 803f 8f74 7e3f 64c2 803f b83d 863f
00000090: 8cd2 7e3f 5be1 7c3f e00d 7a3f 9f08 7b3f
000000a0: 0fcb 883f 0a50 7e3f 60d9 7b3f 447b 7a3f
000000b0: f1ca 7e3f 1878 823f 2e8b 763f 047a 7d3f
000000c0: 5315 813f d305 833f c039 7d3f a4cb 803f
000000d0: 1c93 753f 38a1 813f 3898 7c3f cdd4 7f3f
000000e0: 80e4 813f cb38 803f b5c8 723f 632b 7b3f
000000f0: abf5 823f a502 6f3f 89a8 7b3f 674a 7b3f
1.0119163 1.0213809 0.97262764 0.9898498 1.0547723 0.9964946 1.0117075 1.0075896
0.9916535 1.0414999 0.99850553 1.0032923 0.9887335 0.98795724 1.0077966 1.0310248
1.0214458 0.999518 0.98051083 1.0127549 1.0082886 1.0474004 0.985585 1.0178334
1.0169349 0.9891567 1.0013065 0.94800216 1.0017291 0.9964138 1.0011379 0.9986
1.0026257 0.99396604 1.0059323 1.0487585 0.9954002 0.98781365 0.9767742 0.9806003
1.0686969 0.9934088 0.9837856 0.9784434 0.99528414 1.01929 0.9630612 0.99014306
1.0084633 1.0236152 0.98916245 1.0062146 0.95927596 1.0127325 0.9866977 0.99934083
1.0147858 1.0017332 0.94837505 0.9811308 1.0231222 0.9336341 0.9830404 0.98160404

encoder.9.bias f4 [64]
00000000: 8e01 5b3d 2fd5 313c 57bf 15bc 2ac4 a2bc
00000010: 263e 1e3d 5d52 98bc 1a0c b5bb a2f3 733c
00000020: c4a7 133c 25dc 583c 6254 6d3b c558 c73c
00000030: 7a09 1b3a 3db8 09bd a658 babb 9f49 8b3c
00000040: 23bc 243d 525b 573c cd7b 4abd 96f3 b83c
00000050: 10d0 b9bc fdb2 633c 8f1c 8bbc 6cf4 d9bc
00000060: a901 c23c 40b3 71bd 11f1 2fbb 2568 25bd
00000070: 147e 353c 8264 9dbc 3539 abbc 50cc 8a3c
00000080: 12e0 633b c471 43bd 28dd ea3d 7099 8cbc
00000090: b18d 56ba 9969 4ebd f662 05bb f619 22bc
000000a0: 5034 843d 2811 d5bc 0e86 913b ba1b 3dbd
000000b0: c6fe afbb 0f18 573c 0cdc 46bb bf33 a1bc
000000c0: 6254 303c e50d 133c f634 16bc 1347 88bb
000000d0: 8aa7 60bc 0167 233c 4a03 da3c 617d 8a3c
000000e0: c8df 353d 227c 8fbb 89ee f7bc 4dd3 853c
000000f0: b026 d03c 657b 0abd 0164 85bc 03a2 93bc
0.05346828 0.01085405 -0.009139857 -0.019868929 0.038633488 -0.018593961 -0.0055251243 0.01488963
0.009012166 0.01323608 0.0036213626 0.02433432 0.0005914193 -0.03362297 -0.0056868372 0.017002879
0.040218484 0.013144331 -0.049434472 0.022577088 -0.02268222 0.013897655 -0.016981391 -0.026605807
0.023682432 -0.059008837 -0.0026846568 -0.040382523 0.011077423 -0.019212965 -0.020901302 0.016943127
0.0034771007 -0.047715917 0.114679635 -0.017163008 -0.0008184566 -0.050393675 -0.0020353175 -0.009893885
0.0645529 -0.026009157 0.0044410294 -0.04616902 -0.0053709475 0.013128295 -0.003034356 -0.019677995
0.010762306 0.008975481 -0.0091679 -0.0041588633 -0.013711819 0.0099732885 0.026612896 0.016905488
0.044402868 -0.0043788115 -0.03026511 0.016336108 0.025409073 -0.033809084 -0.016283037 -0.01802159

encoder.9.running_mean f4 [64]
00000000: 1142 b6bd a779 3ebe 220b 83be e052 a1bd
00000010: 9449 fcbe c8b0 c53e c5e8 54be 7ef9 b6bf
00000020: 7201 c8bf decd 3cbf 9bc1 acbe 32fe 48bf
00000030: 1d03 0ebf d356 ce3e 5bcc 69be 57e3 2d3e
00000040: 30de 15c0 b812 5f3e 3f91 eebe d5af 09bf
00000050: 0d57 8e3d b71a a13d 6ebd 063e 2ca3 4fbf
00000060: dce7 e53d 401b 6c3d cc1e 39bf c2c6 813d
00000070: 3965 0dbf 0f20 3abb 570d dabe b213 b1bf
00000080: 122c 67bd 0a92 cabf 7ed5 a2bf d519 aabf
00000090: 1111 abbd 1684 0abd e8db c4bf c6b6 84be
000000a0: 5e34 afbf 1a16 0fbf 9779 3bbf df37 55bf
000000b0: 2b0f 593d ecf1 cd3e f23f acbf d3ae 54bf
000000c0: 08f8 76be 3a2e a5bc ce43 95be 5406 c3bf
000000d0: 886d 00be 1269 9bbe 7541 81be 2d99 b3bf
000000e0: 3424 4bbf ae08 013d de15 763c 6e8d b1bd
000000f0: bb1c 813e 6c35 a43e ccde b7be 8e9f e0be
-0.0889932 -0.18601094 -0.2559443 -0.07877135 -0.49274886 0.38611436 -0.2079192 -1.4294889
-1.5625441 -0.7375163 -0.3374146 -0.7851287 -0.554735 0.40300617 -0.22831862 0.16981255
-2.3416862 0.21784484 -0.4659519 -0.53783923 0.06950197 0.078664236 0.13158199 -0.81108356
0.11225864 0.057643175 -0.7231262 0.06336738 -0.5523258 -0.0028400456 -0.42588302 -1.3834136
-0.056438513 -1.5825818 -1.2721403 -1.3289133 -0.083528645 -0.033817373 -1.537961 -0.25920695
-1.3687856 -0.558931 -0.73232406 -0.8328838 0.05299298 0.40223634 -1.3457015 -0.8307926
-0.24118054 -0.020163644 -0.29153293 -1.5236306 -0.12541783 -0.303536 -0.25245252 -1.403112
-0.79352117 0.03150242 0.015019862 -0.08669554 0.25217232 0.32072008 -0.35912168 -0.4387173

encoder.9.running_var f4 [64]
00000000: a510 7040 914b ad40 5c67 3640 ae97 c640
00000010: d6ba 953f 2b43 a63f a16b 6640 8080 3f40
00000020: 9f6c 5540 8aac c53f e502 a440 812f e53f
00000030: cd43 ba3f 2519 593f 83e0 8140 86b3 d040
00000040: 8b98 9e3f 93ca 6240 acc5 bc3f 4205 8040
00000050: 51a5 083f 168e 8b3f 9807 4840 c3d2 8b3f
00000060: 17a6 9d40 4a44 2a40 51ab 1d40 6786 c23f
00000070: 8e2a 6f40 d4c4 5440 ee32 7d40 24c2 7640
00000080: abda 8b40 ac41 ef3f 1ad9 1f40 15a6 8d3f
00000090: 6ffd 3940 a8b9 1940 3596 5140 050a c13f
000000a0: 7eb4 6d3f 7285 9b3f 8e21 1d40 2e9b cd3f
000000b0: aefd 8b40 c641 0341 6bb1 0a40 27ad b640
000000c0: ce9d 8740 be71 c140 9def 2240 4cf4 663f
000000d0: ceac 1440 f070 393f 670a e43f 8067 0c40
000000e0: f9e7 6b40 c747 a540 ef2f 4e40 6c28 f03f
000000f0: 46e3 a13f f589 bf3f d339 9240 e7fa 8940
3.751016 5.4154744 2.8500586 6.2060156 1.1697643 1.2989248 3.6003191 2.992218
3.3347547 1.544328 5.1253533 1.7905122 1.4551941 0.8480399 4.058656 6.5219145
1.2390302 3.5436141 1.4747825 4.000642 0.5337725 1.0902736 3.1254635 1.0923694
4.9265246 2.660418 2.4635813 1.5197266 3.7369723 3.3245134 3.9562335 3.8555994
4.370443 1.8691916 2.4976258 1.1066309 2.9060934 2.4019566 3.274793 1.5081183
0.92853534 1.2150099 2.455173 1.6062982 4.3747168 8.203558 2.1670787 5.7086368
4.2380133 6.0451345 2.5458748 0.9021652 2.3230472 0.72437954 1.7815675 2.1938171
3.6860335 5.165012 3.2216756 1.8762336 1.2647483 1.4963976 4.5695586 4.3118777

decoder.0.weight f4 [64, 32, 4, 4]
00000000: 36f9 76bd 5933 273c 36ba dfbc a7a1 24bd
00000010: c3bf c6bb f3b6 8abc de60 89bc fe48 913c
00000020: 79ee 00bd fd30 00bd 94d2 cabc 558c 0ebd
00000030: fe12 91bc c424 a6bc b2d4 29bc cd62 c4bb
00000040: 6c97 24bd 6d1b be3c c9a1 b6bc 629c bdbc
00000050: b0eb 16bc ea0f d33a 127b e83a ebab 3cbd
00000060: e289 1ebd abaa 60bb 7178 963c 9eda 6bbc
00000070: 910b 06bd 131f 5abd ee44 0bbd 1b6d 44bc
00000080: ddb7 cb3c 7176 433d 0b37 f83b 4b58 0cbd
00000090: 819c 68bc 2907 39bd 29e5 223b 4554 6abd
000000a0: b316 55bc 38fe d9bc 51be 14bc 2307 033a
000000b0: 9db8 1ebc 020c 07bd 1fe3 b13c 5cb0 c1bc
000000c0: 7012 2abd 04ff f4bc 8053 f13a 6c87 b2bc
000000d0: 8172 f63b f6b0 553d 43eb e3bc 2344 6e3c
000000e0: 89f5 213d 214c 143d cb06 253d 14b0 b2bc
000000f0: 683b 19bd 0d03 cf3b ba3a ef3c 4dcd 413d
00000100: 4922 b1bd 8e84 c0bd 7db4 c4bd c1b3 4fbd
00000110: 68b3 7bbc 59b3 35bd 0f57 04bd 7af2 8bbd
00000120: cca9 9abd 51b1 35bd fbc8 55bd 2b18 d53c
00000130: 388f 71bd e674 88bd 72a8 a93c 0324 d23c
00000140: 9f29 873c e5ef 0c3d d425 e73c 64af b0bc
00000150: 98da ddbc 47ec 6cbc 8638 47bd dfd0 08bd
00000160: d193 f83c f09c 25bc be7c 07bd 2ff5 93bb
00000170: 51cd a93c 647b c93c 86e1 54bd cecc 373c
00000180: e61f b33c 2d11 b43c 1967 03bd 492a f5bc
00000190: 3396 393d 42c5 4a3d 9b23 083c fc39 92bc
000001a0: ac63 593d f9a7 9c3d c92f 44bc 7599 473d
000001b0: 518a a73c 3a93 d3bb 96c0 cbbc f17f f3bc
000001c0: 6d72 14bd 6428 17bc 2d9f 143d 2cb9 53bd
000001d0: 8941 323c c81c 1b3c 51cd e0bb 219a 83bc
000001e0: 975c 393d c934 153d 18df 4abc 973b 153b
000001f0: d096 abbc 9cc6 4a3c 2ef4 2f3b d40e 9e3b
00000200: 8d0b 943b d125 fcbc 54c3 0b3d 471a 76bc
00000210: 6403 93bc a4e5 9abc 3292 1cbc 9f4d 063d
00000220: 08a9 023d 5daa d6bb 0d62 ef3c c9bd 37bb
00000230: bbc4 f6bb 0ab3 b53c 4c77 8f3c 37ae f03c
00000240: 0d9d c6bc 960d bb3b 9786 8abc c589 91bb
00000250: 7260 45bd 1dd5 39bc 8541 e13c 7878 afbc
00000260: 20ac 653d 05f3 833c b45e 20bb 6bf8 f6bc
00000270: 3a64 bebc 139d 953c a78c d6bc 9796 53bc
00000280: 8293 213d d73c 2abd 2bb6 ddbb 5d95 233d
00000290: 75d5 893c 9833 5cbd c3c7 55bd 534f 26bd
000002a0: 13e6 06bc 18f4 8fbd ec10 f7bc 8659 7bbd
000002b0: acb8 4ebc 8837 54bb 50ff 3cbd 83a4 d2bc
000002c0: a5de d0bc e512 2ebd 0662 e83c 7904 bfbc
000002d0: e332 2bbd ff5c 5cbd 751d 03bd 43c1 c1bc
000002e0: 5036 89bd 432a 1cb9 cfdf 10bd e764 70bd
000002f0: ee99 37bd e13d 8cbb a385 133d de1c 97bd
00000300: 288c 3fbc 0eba aabc 1a10 b73b 9877 b63c
00000310: f5cb de3b 19dd a33c 94f5 933c 68bc 15bd
00000320: da21 27bd c954 05bd c586 013d 58d2 143d
00000330: c1af c53c d3b9 51bd b065 ebbc 075d 453c
00000340: 6e7b d7bc acc9 bbbc 67d3 5cbc 1f78 a2bc
00000350: ca79 d23c 6017 4abd 9c19 43bd e8af 28bd
00000360: 2e9b ee3b 3a7d 28bd 685f 13bd 427c 1f3d
00000370: 702a 18bc fe66 fe3c 2a00 38bd 1265 0bbc
00000380: 1ff6 c4b9 d03c 343d 1480 bebb 8367 00bd
00000390: 3aa0 34bd 3c6e 26bd 87eb 6ebc 68c6 c8bc
000003a0: 9179 01bd dadb ee3c 8c61 a83b 8103 10bd
000003b0: bc1b cbbc 5c86 03bd db04 9838 b428 8cbd
000003c0: 150c fabc 9d36 183d 5b29 f23a 5b6c 27bd
000003d0: a0e2 20bc f556 acbc 34d5 6abc 2e2e 61bb
000003e0: 249b 0c3d ce76 0a3d 0f45 943b dca7 60bc
000003f0: c604 0fbc b1ca c6bb 2061 44bd 6f55 653c
-0.06029626 0.010205113 -0.027310472 -0.040193226 -0.0060653402 -0.01693294 -0.016769823 0.017735
-0.031477425 -0.03129672 -0.024758615 -0.0348018 -0.017709251 -0.020281203 -0.010365652 -0.0059932233
-0.04018347 0.023206437 -0.022293942 -0.023145858 -0.009211466 0.0016102765 0.0017736873 -0.04606239
-0.038705714 -0.0034281414 0.018367978 -0.014395384 -0.032725874 -0.05325229 -0.034001283 -0.011988903
0.024867946 0.047720376 0.007574921 -0.03426389 -0.01419747 -0.045172844 0.0024855828 -0.057209272
-0.0130059 -0.026610479 -0.009078578 0.0004998317 -0.00968757 -0.032970436 0.021714745 -0.023643665
-0.04152149 -0.029906757 0.0018411726 -0.02179309 0.007520974 0.052170716 -0.027822142 0.014542612
0.0395408 0.036205415 0.04028968 -0.021812476 -0.03741017 0.0063175024 0.029202808 0.04731493
-0.086491175 -0.09400283 -0.09604738 -0.050708536 -0.015362598 -0.044360492 -0.032309588 -0.06833358
-0.075519174 -0.044358555 -0.052193623 0.0260125 -0.058974475 -0.066629216 0.020710204 0.025651937
0.016499339 0.03440847 0.02821628 -0.021568008 -0.027081773 -0.01446063 -0.04863789 -0.03340232
0.030343922 -0.010108218 -0.033077948 -0.004515312 0.020727785 0.02459497 -0.05197289 0.011218263
0.021865796 0.021980846 -0.032080743 -0.02992739 0.045309257 0.049504526 0.00830927 -0.017849915
0.05307357 0.07649226 -0.0119742835 0.048730332 0.020451697 -0.0064567598 -0.024872106 -0.029724093
-0.036241937 -0.0092259385 0.036284614 -0.051690266 0.010879883 0.009467311 -0.006860413 -0.016064705
0.045254316 0.036427293 -0.012382291 0.0022771114 -0.020945936 0.012376454 0.0026848423 0.004823545
0.0045179785 -0.030779751 0.034121826 -0.015020913 -0.017945953 -0.01890833 -0.00955634 0.03278887
0.031899482 -0.0065510706 0.029221559 -0.0028036705 -0.0075307763 0.022180099 0.01751294 0.029379947
-0.02424481 0.0057084067 -0.01690988 -0.0044414722 -0.04818768 -0.011342314 0.027497062 -0.021419749
0.056072354 0.016107092 -0.002447051 -0.030147752 -0.023241151 0.018263375 -0.026190115 -0.012914321
0.039447315 -0.041561928 -0.006766101 0.039937366 0.016825417 -0.05376014 -0.05219246 -0.040602993
-0.008233565 -0.07028979 -0.030159436 -0.061364673 -0.012617271 -0.0032381732 -0.046141922 -0.02571321
-0.02549679 -0.042498488 0.028367054 -0.023317562 -0.041796576 -0.053799625 -0.032010514 -0.023651725
-0.066998124 -0.00014893063 -0.03536969 -0.058689978 -0.044824533 -0.0042798375 0.036016118 -0.07378553
-0.011691131 -0.02084067 0.0055866363 0.022273824 0.006799216 0.020002889 0.018061437 -0.03655663
-0.040803768 -0.03255156 0.031622667 0.036333412 0.024131658 -0.051202606 -0.028735012 0.012046105
-0.026303973 -0.022923313 -0.013478137 -0.019832669 0.02569284 -0.0493387 -0.047631845 -0.041183382
0.0072816825 -0.04113505 -0.03597966 0.03893686 -0.009287462 0.03105497 -0.04492203 -0.008507984
-0.00037567408 0.044003308 -0.005813608 -0.031348716 -0.044098116 -0.04063247 -0.014582521 -0.02450867
-0.031610075 0.029157568 0.0051385816 -0.03515959 -0.024793498 -0.032110557 7.248829e-05 -0.06843701
-0.03052334 0.03716146 0.001847546 -0.04087482 -0.009819657 -0.021037558 -0.014333058 -0.00343598
0.03432764 0.033804707 0.004524834 -0.013711896 -0.008729165 -0.006066643 -0.047944188 0.01399742

decoder.0.bias f4 [32]
00000000: 3db7 bcbd 78a6 26be 63b6 c0bd 9121 04be
00000010: c8f6 a0bd 823b 09be 6ff8 e7bd cd1e 0fbe
00000020: 2b71 9cbd 88a2 bfbd 0020 04be 0cf7 04be
00000030: f527 15be 6d89 febd 0ba9 edbd e777 c9bd
00000040: 5ab7 04be 5fe4 fbbd 8873 13be 2914 11be
00000050: 58cb 0bbe 6516 aabd 6a20 0abe 9d50 e7bd
00000060: 0629 19be 5ac2 18be d407 abbd c204 c1bd
00000070: 169f 37be a72d 69bd 8bb3 26be 594f 93bd
-0.092146374 -0.1627444 -0.094097875 -0.1290343 -0.0785957 -0.13401607 -0.11326682 -0.13976593
-0.076387726 -0.09357172 -0.12902832 -0.12984866 -0.14566024 -0.12428556 -0.11604508 -0.09837323
-0.12960568 -0.12299418 -0.1439954 -0.14167847 -0.13651788 -0.08305053 -0.13488927 -0.11294673
-0.14957055 -0.14917889 -0.083511025 -0.094247356 -0.1793178 -0.056928303 -0.16279428 -0.07192869

decoder.1.weight f4 [32]
00000000: 0f0f 753f 71d9 743f 5950 873f 9127 823f
00000010: 96d4 863f 1d15 7f3f bce1 813f 330d 793f
00000020: b2f8 773f d6d7 853f cd8e 813f c5e2 7a3f
00000030: ff5f 753f b013 833f a6be 843f 5b8e 723f
00000040: 34f9 813f b420 783f 5f3a 783f f325 7b3f
00000050: 083c 803f 26d9 823f 3cd8 823f 9c37 7a3f
00000060: 8aa7 783f 775a 763f dcbe 7d3f 3267 763f
00000070: c725 783f ad04 813f 01d5 7e3f 611c 893f
0.957261 0.9564429 1.0571395 1.0168325 1.0533626 0.9964159 1.0147014 0.97285765
0.96863854 1.0456493 1.0121704 0.9800227 0.95849603 1.0240383 1.0370681 0.9474847
1.0154176 0.969249 0.9696407 0.9810478 1.001832 1.0222518 1.022224 0.97741103
0.97130644 0.9623179 0.99119353 0.96251214 0.96932644 1.0079552 0.9954377 1.0711786

decoder.1.bias f4 [32]
00000000: 91d6 3bbd a43b 3bbd 1482 643d fb5e 193d
00000010: 0cc7 083d 64c3 1b3b cd31 bb3d 8c8d 883b
00000020: e365 c1bb 534f 653d d6c3 de3c 515f 6fbc
00000030: 8284 0cbc cc64 083d 1733 073d bdac f4bc
00000040: ad3c b43c e653 3abd 7f8e a6bb b668 d1bb
00000050: 698b b13c 5316 413d 01cb e93c a0a4 bd3b
00000060: 6cd3 9bbc a6dd 38bd b47a 0cbc 5e43 6abd
00000070: 5a84 48bc 2d31 df3c 44db 96bc b108 4a3d
-0.045858923 -0.045711175 0.055788115 0.037444096 0.03339295 0.0023767585 0.09140358 0.0041672643
-0.0059020384 0.055983853 0.027192991 -0.014610128 -0.008576514 0.033299252 0.033007707 -0.029867524
0.022001589 -0.045490168 -0.005082905 -0.0063906563 0.021672921 0.04714043 0.028539183 0.005787447
-0.019021712 -0.045133255 -0.008574177 -0.057193153 -0.012238586 0.027245129 -0.0184151 0.049324695

decoder.1.running_mean f4 [32]
00000000: 1c35 6abd 6bd2 7bbd c61f 3dbf 3087 17bf
00000010: e7e8 4bbe d9b9 48be db5a 4fbf 0dd4 b4be
00000020: 9fad 93be d561 25bf b546 15bf 947e bdbe
00000030: b29f 60be 73b5 a8be 8018 aebe ade0 8cbe
00000040: 0b23 04bf 484d f0bc 867e 10bf 22bc a8be
00000050: 0154 01bf ab0d c5be c03c b4be 8633 dfbe
00000060: 3024 ecbe 423d 913e f516 d53c 1558 31bf
00000070: a592 43bf 37f0 2abf 0cad c5be 3b50 2f3c
-0.057179555 -0.061479967 -0.7387661 -0.59190655 -0.19913064 -0.19602145 -0.8099801 -0.35318032
-0.288434 -0.64602405 -0.58311015 -0.37010634 -0.21935919 -0.32950935 -0.34003067 -0.27515164
-0.5161597 -0.029333726 -0.5644306 -0.32956034 -0.50518805 -0.3848699 -0.352026 -0.43593997
-0.4612136 0.28367049 0.026011923 -0.6927503 -0.76395637 -0.6677279 -0.38608587 0.010700281

decoder.1.running_var f4 [32]
00000000: 1535 943f 5342 883f 7009 933f 783c ed3f
00000010: 1b08 503f 9ff7 873f 9a21 2340 b1cf 073f
00000020: aa9f 0a40 a9b0 bd3f c3af 243f 4dd9 943f
00000030: f707 6e3f f4d3 cc3e 752e 1b3f c366 b53f
00000040: 45eb d43e c659 cb3f a087 903f 981e b13f
00000050: 9a1b 933f cbbe 0f3f 0692 393f 7a21 8e3f
00000060: a7ad 773f 28e1 ee3f 5741 6d3f 7a14 a93f
00000070: 42b1 1b3f 145c ab3f 5d30 1c3f 2a26 293f
1.1578699 1.064524 1.1487255 1.8534079 0.8126237 1.0622443 2.5489259 0.53051287
2.1659951 1.4819537 0.6433069 1.1628815 0.92980903 0.40005457 0.6061776 1.4171985
0.41585746 1.5886772 1.129139 1.3837461 1.1492798 0.561505 0.7248844 1.1103966
0.9674935 1.8662462 0.92677826 1.3209374 0.6081735 1.3387475 0.61011297 0.6607386

decoder.3.weight f4 [32, 16, 4, 4]
00000000: 55fb dbbc 0582 08bc e63c dabb fb48 16bd
00000010: e39c d53c 4b78 81bd af7b 6cbd c340 04bb
00000020: 4627 aa3a e338 3fbd 9fab 0abd e4ce 1cbd
00000030: a331 b73d 0b7d 843d 2da5 c53c 7a57 d33b
00000040: 85ad a2bd 94b9 a2ba 26d3 0a3d 18f4 f33c
00000050: 9f95 203d fe4d afbd 3dfe 7fbd c112 32bd
00000060: 435a 3dbd 1ba7 81ba a242 25bd 7e0a 55bd
00000070: d9ef 2d3d c656 133c 7a01 34bd 0c7c 233c
00000080: cf3a f3bc e2c3 abba 9246 ae3c 61ba bc3c
00000090: db91 9bbd efa5 363d 6565 95bc b1b6 863c
000000a0: 88a7 88bc f262 8dbc da64 34bc f59c b43c
000000b0: 71fa d43c 8dfe 2fbd 48ec c4ba 3aad 0c3c
000000c0: b00c 4bbb d1ab 53bc c4c5 bbbb 039f 15bd
000000d0: 5a2f 8ebd 900f 863d 94b4 bdbb 965c 7b3d
000000e0: e419 023d 175a ff3a 59e7 983d 464b 3bbd
000000f0: c05e 72bd a6b9 a03b 03da 19bd 93cf 2ebd
00000100: c3a3 b83c a3b2 733d f1ee 04bd 7d99 063d
00000110: 4952 f9bc 646c c03c 52a2 ce3b be80 703d
00000120: 4761 10bd 3135 3b3d d865 f9bc 7858 73bd
00000130: 874c 40bd 5f0a 1a3b 255b 733c d621 5c3d
00000140: a6f1 113d e1c0 63bc b75c 19bd 1664 2ebc
00000150: 32a8 0ebd b58f 6abd 67df 56bd a73f 1b3d
00000160: 9f6b 5f3c 89ef 703d 78da 413b cf36 653d
00000170: 677f a13a 2639 50bd 8101 0fbd f8e2 413d
00000180: 6bdb 133d 6eef be3c 9114 453d 122f bcbc
00000190: c44c 0ebd 0520 e1ba bda0 e63c f4bf edbc
000001a0: b55c d1bc d091 bdbc 40f7 a33b 20f4 aabc
000001b0: 4f9b 0c3c 0228 f53c d8ed fdba 893a 2c3d
000001c0: 61f4 97bd d899 bebc 063f 9bbd 19c0 ebbc
000001d0: 09b4 5b3b 1534 0fbd c052 8fbc e3af 8bbd
000001e0: b492 85bd e3d5 a5bd d57b 813c 8871 ac3c
000001f0: 786b 1b3d 5494 863c b1c3 ee3c d41a 783d
00000200: 6b4d 89bd 66e6 43bd b4a8 53bd 2029 43bd
00000210: 89b2 4fbd 6c6c 1d3d 473d 89bd a890 1dbd
00000220: 44e7 d73c 6b6e c6bc 6e99 9cbd fbfa 0fbd
00000230: 4128 ca3c da19 d6bc 9811 07bc f308 98bb
00000240: df25 383a 92cd fbbc c443 2fbd 72cd ea3c
00000250: b070 f6bc 0333 843d 7715 a93c c749 9b3c
00000260: d283 1f3d 94ad 193d 3d85 5c3c a29b 883b
00000270: 35e3 e5bc 6482 1fbd c430 ce3c 5825 653c
00000280: 0add a4bd 5820 9abd 8e87 9fbd 29c1 83bd
00000290: 5f5b 55bd 0590 31bd 5772 cd3c b648 0e3d
000002a0: 9eb9 083d 100e 23bd f7ff 48bd ea5c be3c
000002b0: 6c9a 52bd 3d33 483d 4ac2 8fbd d0ee 5ebd
000002c0: 060a 5f3d a512 a3bc dede debc c53c 153c
000002d0: 98b1 7abd b286 a1ba 7eb6 53bd 13cb 9d3b
000002e0: 5b17 b4bc 5f4a 60bd bdfd 513d 7828 80bd
000002f0: 8154 fc3c 5e39 21bd 50e8 363d 1d1d dc3c
00000300: c4b0 2bbd acc9 47bc 5dd8 f23c 687b 153c
00000310: 612c bd3c f356 083d 9906 ec3b fef2 1d3d
00000320: 85a0 203d 64f8 533d 9cc2 d73b 3f55 5bbb
00000330: 3d9c b4bb 16b8 693d 1f85 913d 8eb6 633d
00000340: b0fc 1a3d 4be9 3cbc c382 48bd c50e a8bb
00000350: a8a4 433d db25 903c f4be 0ebc e8ed 12bd
00000360: d714 053c b9bd 893c 3897 2e3d 5fa8 54bb
00000370: 14d4 893d 70b0 823c d57e 233d 6a59 573a
00000380: 39b9 9c3c 8eff 6cbc 1f7f c03c 111f a2bc
00000390: c09d 8f3d a625 313b 417c 23bb 5849 58bd
000003a0: 7869 743d a23f 183d 3749 493d b00d a2bc
000003b0: 7948 a83c 6e88 5bbd a732 45bd 5f48 5a3a
000003c0: 6522 263b 9b17 f8bc e659 a93c 2b90 ce3c
000003d0: 3186 58ba fc35 a2bd 1b9b eabc 57f0 87bd
000003e0: a34a fc3c 63ab 8fbd b62d adbd 645d d6bc
000003f0: 2f26 023c 5d26 2cbd fc70 55bd 4015 91bc
-0.026853243 -0.00833178 -0.0066600917 -0.036690693 0.026075786 -0.06321772 -0.05773514 -0.0020180203
0.0012981675 -0.04668511 -0.033855077 -0.038283244 0.08945014 0.064691626 0.024126614 0.006449637
-0.079432525 -0.0012414926 0.033892773 0.029779479 0.03920519 -0.08559798 -0.06249832 -0.043474916
-0.04622866 -0.000989172 -0.04034675 -0.05201196 0.042465065 0.008992856 -0.04394672 0.009978306
-0.029691128 -0.0013104642 0.021273885 0.023038091 -0.07596179 0.04459184 -0.018236825 0.016444536
-0.016681448 -0.017259095 -0.011010373 0.0220475 0.025998326 -0.042967368 -0.001502403 0.008586222
-0.0030982904 -0.012919382 -0.0057303626 -0.0365286 -0.06942625 0.06545937 -0.005789349 0.061367594
0.031762972 0.0019481805 0.07466001 -0.045726083 -0.059172392 0.0049049435 -0.037561428 -0.042678427
0.022539025 0.059496533 -0.032454435 0.03286122 -0.030434744 0.023489185 0.006305971 0.058716528
-0.03524902 0.045705024 -0.03044407 -0.059410542 -0.046947982 0.0023504717 0.0148532735 0.053743206
0.035630845 -0.013900966 -0.037441935 -0.01064398 -0.034828372 -0.057265956 -0.052459147 0.0379025
0.013636499 0.05882219 0.002957968 0.055960473 0.0012321294 -0.05083575 -0.034913544 0.047335595
0.036097925 0.023307528 0.048115317 -0.022971664 -0.03474118 -0.001717568 0.028152818 -0.029022194
-0.025556901 -0.023140818 0.0050038397 -0.020868361 0.00858195 0.029926304 -0.0019373251 0.04204801
-0.074196585 -0.023266718 -0.0758038 -0.028778123 0.0033524057 -0.03496178 -0.017495513 -0.06820657
-0.06522122 -0.08097436 0.015806118 0.02105023 0.037944287 0.01642815 0.029146047 0.06057246
-0.067042194 -0.047827147 -0.05167456 -0.04764664 -0.050707374 0.038433477 -0.06701141 -0.038468033
0.026355393 -0.024222573 -0.07646452 -0.035151463 0.024677398 -0.026135374 -0.008243941 -0.0046397387
0.0007024686 -0.030737672 -0.042789236 0.028662417 -0.03008303 0.06455042 0.020640118 0.018956078
0.038944073 0.037519053 0.013459501 0.0041689435 -0.028062442 -0.03894271 0.025169738 0.013985954
-0.08049972 -0.075257 -0.07789527 -0.06433327 -0.05208909 -0.04335024 0.025078936 0.03473731
0.033380143 -0.039808333 -0.049072232 0.023237664 -0.0514168 0.04887699 -0.070194796 -0.054426968
0.05445292 -0.019906351 -0.02720588 0.009108727 -0.061204523 -0.0012323468 -0.05168771 0.004815468
-0.021983793 -0.054758426 0.051267374 -0.06257719 0.030802013 -0.03936135 0.044655144 0.026869351
-0.041916624 -0.012194078 0.029644186 0.009123661 0.02309245 0.033286046 0.007202935 0.038561814
0.039215583 0.051750556 0.0065844785 -0.0033467559 -0.005511789 0.057060324 0.07105469 0.05559402
0.037838638 -0.011530231 -0.04895283 -0.005128714 0.04776445 0.017596176 -0.008712519 -0.035871416
0.008122644 0.0168141 0.042624682 -0.003244899 0.06729904 0.015953273 0.03991588 0.0008214923
0.01913129 -0.014465226 0.023498116 -0.019790204 0.0701251 0.0027030497 -0.0024945887 -0.05280432
0.059670895 0.03717006 0.04914209 -0.019781917 0.02054237 -0.053596906 -0.04814401 0.0008326824
0.002535009 -0.030284693 0.02067275 0.025215229 -0.0008259742 -0.07920453 -0.028638413 -0.06637638
0.030797308 -0.07015111 -0.08455984 -0.026167579 0.007943674 -0.042028774 -0.052109703 -0.017710328

decoder.3.bias f4 [16]
00000000: df3c 913d 2d91 f03c 5906 21bd 4ddb ccbc
00000010: 8391 38bd a2b4 f6bb eda7 40bd d6da 68bc
00000020: 3c5c 20bd b72d ebbc c0db 253d 9fb5 0fbd
00000030: 63ad c1bc eed3 823c 844a 2d3d 2b00 fa3b
0.07091688 0.0293661 -0.039312694 -0.025006915 -0.045060646 -0.0075288573 -0.047035147 -0.014212331
-0.03915046 -0.028708322 0.040492773 -0.035085317 -0.023642248 0.015970197 0.04230739 0.0076294146

decoder.4.weight f4 [16]
00000000: e99f 873f 6836 863f 8fa1 753f 6a2d 733f
00000010: e009 7f3f cf24 853f 4b34 713f 19da 823f
00000020: 3f88 753f 6051 843f 4428 813f f0d1 763f
00000030: a700 873f 6789 763f 0d77 6f3f f36e 883f
1.0595676 1.0485353 0.95949644 0.9499117 0.99624443 1.0401858 0.9422042 1.0222808
0.9591102 1.0337334 1.0090413 0.9641409 1.0547074 0.9630341 0.9354103 1.0658859

decoder.4.bias f4 [16]
00000000: 214d c03d d36e c83d a793 f23c b7a7 9fbc
00000010: b2c2 603d 290b 5a3d e5e7 31bc 4619 803d
00000020: 57a0 dfbc 451c 313d a93b 7d3d b8fd 68bc
00000030: 6719 953d fb94 403d e9d0 1fbd 634a a03d
0.09389711 0.09786763 0.029611422 -0.019489152 0.054873176 0.0532333 -0.010858511 0.062548205
-0.027298136 0.04323985 0.061824474 -0.0142206475 0.07280236 0.04701708 -0.03901759 0.07826688
