weights/improved_cae_ne3_b8_color_noise.pth (torch, 351431 bytes, 36 tensors)

encoder.0.weight f4 [16, 3, 4, 4]
000000 9d cd 31 3d 69 ec ce 3c 2a e3 bd 3c 05 8c fe bd
       0.04340898 0.025259214 0.02317961 -0.1242905
000010 9b 6d e5 bb 1c 15 16 3d 78 f2 75 bd df d2 00 3d
       -0.0070015914 0.036641225 -0.06004569 0.031451102
000020 c0 e8 fb bc 1e a5 78 bc e9 d5 da bd c8 a4 05 bb
       -0.030750632 -0.015176086 -0.106853314 -0.0020392407
000030 f4 c3 a2 3d da fe 6c bd 13 a6 06 3e b6 ca 3a 3d
       0.07947531 -0.057860233 0.1314929 0.045603476
000040 74 95 68 bc 5b a6 0f bd a0 ef 59 3d 74 c4 6b bd
       -0.014195789 -0.03507076 0.05320704 -0.0575604
000050 79 33 0b be 05 9f 10 3e 10 24 ed 3d 67 17 c3 3c
       -0.13593854 0.14123161 0.11579144 0.02381487
000060 8e 2b bd bd f6 5d 19 ba 3a ca e9 3d c4 16 35 3d
       -0.09236823 -0.0005850488 0.11415525 0.044211164
000070 a9 2b a5 3d 0b 33 ff bc d8 17 e3 3d 99 6d 04 be
       0.08064968 -0.031152269 0.11088532 -0.12932433
000080 96 1a 35 bd d7 bb 92 3d 5c e2 a0 bc 0c 4f 86 bd
       -0.044214807 0.07164734 -0.019639187 -0.06558046
000090 58 7c 0d 3e 27 32 04 3e b3 3e 46 3d 20 ac 5d 3d
       0.13816965 0.12909757 0.04839964 0.05411923
0000a0 62 01 6e 3d 2f cb 0f 3d f1 ef c6 bd 3a 41 d8 bd
       0.058106788 0.03510588 -0.09713734 -0.10559316
0000b0 5d 0b 72 bd fa 1e 9c 3d 33 57 15 3e 21 2c 18 3e
       -0.059092868 0.07623096 0.14584045 0.14860584
0000c0 5f 75 fa bd 9a d7 40 bd c9 41 c4 3d 2e 2e 12 3d
       -0.12229418 -0.047080614 0.0958286 0.03568857
0000d0 15 5b 91 3d 1b 5d bd bd 34 84 3f bd b7 74 4a bd
       0.07097451 -0.09246274 -0.046756938 -0.049427714
0000e0 39 e8 76 3c 94 e3 8d bd 6e 61 7d bd ab 82 f2 bd
       0.015070015 -0.06928173 -0.061860494 -0.11841329
0000f0 a8 d9 bc bd 4f 1b c8 3d 05 39 c0 3d 87 1c 29 bd
       -0.09221202 0.09770834 0.093858756 -0.04128697
000100 27 73 da bd 84 54 2d bd 93 16 e1 bd 5c 0a e1 3d
       -0.10666495 -0.04231693 -0.10990634 0.10988304
000110 1c 57 e0 bd c8 82 22 3e fe 53 07 bd 08 a1 8e 3c
       -0.10954115 0.15870202 -0.033039086 0.01741077
000120 07 f4 23 bd a8 bb 43 3d 41 20 ac bc 82 2c f5 3c
       -0.040027644 0.047786385 -0.021011474 0.02992845
000130 a1 09 eb bd 91 10 6c bc 58 c3 01 3d 7c bd c1 bd
       -0.11476446 -0.014408247 0.031680435 -0.094599694
000140 71 ac cd 3d a0 ca 35 3d e2 05 0a 3e a3 34 ca bd
       0.10042656 0.04438269 0.13478807 -0.09873321
000150 e7 df 1b 3e e3 5f 13 3e 8c be db bc 45 fa 07 3e
       0.1522213 0.14392047 -0.026824258 0.13279064
000160 65 dc 88 3d d1 d6 ea bb 62 9e fb 3d 22 60 97 3c
       0.06682662 -0.0071667214 0.122860685 0.018478457
000170 f5 37 24 3d 9f c9 f6 bd 9c f5 ee 3d 45 53 1b 3e
       0.040092427 -0.12050175 0.1166794 0.15168484
000180 5f f1 1f be c7 24 03 bd cf f4 d4 bd 50 3d 01 3d
       -0.1561942 -0.032017495 -0.10398256 0.031552613
000190 e5 52 3b bd 4c ac e6 3a f6 21 e0 3c 72 6b ca 3b
       -0.04573335 0.0017598956 0.027359944 0.0061773593
0001a0 b6 f8 de bd 42 3e 12 3d ed 47 31 3d 0e 97 d3 bd
       -0.108872816 0.035703905 0.043281484 -0.10331546
0001b0 7a c0 74 3d 65 54 c8 3d 94 ba 11 be e3 49 0c bd
       0.059753872 0.09781722 -0.1423133 -0.03425015
0001c0 ed bd 8a 3d c0 a6 91 3d 75 8c 5d 3d 18 5d 8e bd
       0.06774507 0.07111883 0.05408903 -0.0695135
0001d0 d1 21 ae 3d f3 5a 1e 3d 61 0d 00 be 57 49 9e bd
       0.08502544 0.038660955 -0.12505104 -0.07728832
0001e0 25 27 81 3d 08 a8 ee 3d 13 87 ab bd 86 cc e1 3d
       0.06306294 0.11653143 -0.08375373 0.11025338
0001f0 a1 05 93 3c 16 92 e9 bd 13 f9 99 bd f9 21 fe 3d
       0.01794702 -0.11404817 -0.0751821 0.124088235
000200 e9 84 46 bd a5 6f 05 3e cd ef f3 bc 8a 17 83 3c
       -0.048466597 0.1303087 -0.029777432 0.016002435
000210 f9 0d 16 3e 83 26 d3 3c 47 b0 3b bc 15 51 93 3d
       0.14653768 0.0257752 -0.011455602 0.071931995
000220 b3 dc 1d 3e f9 83 4d 3d f6 a1 77 3c f1 19 eb bd
       0.15416221 0.050174687 0.015114298 -0.11479557
000230 1f 1f 8d bc 86 b7 09 be 06 14 18 3e 23 3a fc bd
       -0.017226754 -0.13448915 0.14851388 -0.12315776
000240 dd 36 90 3d 41 e5 88 3c ba 3a e6 bd 9f 1c bf 3d
       0.07041714 0.01671088 -0.1124167 0.09331631
000250 75 20 c1 bc 7f c9 3d bd 9e 4c d4 bd ef 31 f0 3a
       -0.023575047 -0.04633474 -0.10366176 0.0018325428
000260 d6 51 10 bd b0 6e e8 3d 83 10 05 be f0 78 81 bc
       -0.035234295 0.11349237 -0.1299458 -0.015804738
000270 1b 00 ca bd a5 03 26 be d3 06 0c bd ec 81 45 bd
       -0.09863301 -0.16212328 -0.034186196 -0.048219606
000280 de e9 4e 3c ce c9 c5 bd d5 cb b3 3d ea f7 d4 bc
       0.0126290005 -0.09657632 0.08779112 -0.02599712
000290 6a bc 0d be 9e 38 17 bd 51 8f 1e be 85 8a 22 be
       -0.13841406 -0.03691923 -0.15484358 -0.15873154
0002a0 1a 8a 0e 3c 89 2a eb bd 93 fe c3 bd 1e fd e1 bd
       0.008699918 -0.11482722 -0.095700406 -0.110346064
0002b0 eb 3e 00 be 78 b4 ac 3d 1b 67 65 3d 9c f4 a4 bd
       -0.12524001 0.08432859 0.056006532 -0.08054468
0002c0 14 65 88 3d 5e 5c 60 3c cc d3 1e bd fa 40 0e bd
       0.06659904 0.013693897 -0.038776204 -0.034729935
0002d0 35 4d 96 3d 17 86 12 3c 43 6a 04 be be 21 ff bb
       0.07338945 0.008943102 -0.1293116 -0.007786005
0002e0 d8 0b e6 3d 98 e2 20 3c bb a8 0d 3c 2c b0 88 3d
       0.11232728 0.009819649 0.0086461855 0.06674227
0002f0 63 3b fe bd f3 28 d1 3a 68 42 84 bd 03 ba d4 bd
       -0.12413671 0.0015957638 -0.064579785 -0.103870414
000300 16 9a 84 bd 4b 2f 13 be 9c 0e ab bd 3c 78 4c 3d
       -0.06474702 -0.1437351 -0.08352396 0.049919352
000310 fb ae 51 bd db 5b 0d 3b fe e3 28 be 5e 4b fa bd
       -0.051192265 0.0021569643 -0.16493222 -0.122214064
000320 27 87 a3 bd 52 22 80 bd 9a 71 94 bd ce d3 1d be
       -0.07984763 -0.06256546 -0.0724823 -0.15412828
000330 d1 f4 28 be d1 4a 30 be a2 fb 0c be 75 23 2e be
       -0.1649964 -0.1721604 -0.13767865 -0.17005713
000340 9f 99 9e 3a bb 50 6f 3b b5 87 2c 3c 92 b5 3f 3d
       0.0012100226 0.0036516625 0.010530402 0.04680402
000350 36 39 b9 3d 58 3d 8c 3c e0 08 ab bd 5c f0 a2 bd
       0.09044115 0.017119095 -0.08351302 -0.07956001
000360 9b 65 98 bd 76 f4 3e 3d d2 8f da bd 4f 63 74 bd
       -0.07441255 0.046619855 -0.10671963 -0.05966502
000370 4b 7c a1 3d 32 c4 00 3d 44 e8 c0 bd a1 a8 5e 3c
       0.07885035 0.031437106 -0.09419301 0.013590009
000380 ec 4f 8c 3c 71 10 e7 3d b9 7a 0d be 42 87 08 be
       0.017127953 0.11282433 -0.13816346 -0.13332847
000390 ca e8 bc 3d f5 7e 14 3d bb 76 83 bd 04 6e a2 3d
       0.092240885 0.03625389 -0.064191304 0.0793114
0003a0 cf 85 73 3d 89 2a df 3d 5d 28 cf bd 6b c3 33 bd
       0.05945378 0.10896785 -0.101151206 -0.043887537
0003b0 ef 27 9f 3d 6f 44 06 be 70 2a d8 3c 3f f6 fc 3d
       0.077712886 -0.13112043 0.026387423 0.12351655
0003c0 43 56 2d bc fd 6c 03 be 3b 71 13 be 0b 05 2d bd
       -0.010579648 -0.12834544 -0.14398663 -0.042241137
0003d0 0e b2 ad 3d d9 57 44 bd fe 9e f7 bc 5b 16 12 3d
       0.08481227 -0.04793534 -0.03022718 0.03566585
0003e0 20 58 28 3d 43 8c de 3d f8 8c d6 3d 67 84 f0 3c
       0.041099668 0.108665965 0.104761064 0.02936001
0003f0 99 4b 7f bd 06 7c 10 be 3d 66 d3 3b 8c b9 5f bd
       -0.062327955 -0.14109811 0.0064513967 -0.05462031

encoder.0.bias f4 [16]
000000 f1 3d a1 3d 31 a3 05 3d 04 38 c2 3c 04 ef 69 bc
       0.078731425 0.032626335 0.023708351 -0.014278177
000010 54 d5 eb 3d c1 ee 13 be 15 45 de 3c 8a 58 0c bc
       0.115152985 -0.14446546 0.02713255 -0.008566031
000020 5d 0a 94 3d d2 9e 08 bc c1 23 bb 3c af bf ad bc
       0.07228539 -0.008338647 0.022844197 -0.021209566
000030 73 f3 c1 bd 26 48 cf bd 07 a7 14 be 43 ed e3 bd
       -0.094702624 -0.10121183 -0.14516841 -0.111292385

encoder.1.weight f4 [16]
000000 c9 8b 7c 3f 40 f6 78 3f 1c 55 79 3f 9a 75 7d 3f
       0.98650795 0.9725075 0.9739549 0.9900757
000010 10 1a 7c 3f 97 5d 7a 3f 76 48 7d 3f 06 2a 82 3f
       0.9847727 0.97799057 0.9893869 1.0169075
000020 e1 06 7f 3f d7 ed 7b 3f 2a d9 78 3f d7 16 7a 3f
       0.9961987 0.9840979 0.97206366 0.976911
000030 8a fd 77 3f ef 43 77 3f 9b 33 7a 3f 64 c8 7d 3f
       0.96871245 0.96588033 0.97734994 0.99133897

encoder.1.bias f4 [16]
000000 27 07 8c 3c 1c c4 0c 3c 30 47 16 b9 56 15 8f bc
       0.017093254 0.008591678 -0.00014331634 -0.017466228
000010 18 6a d5 ba a6 94 b6 3c 10 23 3d bc 1f 8b 65 bc
       -0.0016282229 0.022287678 -0.011544004 -0.01401022
000020 ec 4f 2c 3c c9 61 d1 bc f4 b9 fa 3b 3d ce 12 b9
       0.010517102 -0.025559323 0.007651562 -0.00014000475
000030 11 6c 76 bd cf 91 e6 bc 63 f6 0c bd a9 27 6b 3c
       -0.060161654 -0.028145699 -0.03441466 0.014352717

encoder.1.running_mean f4 [16]
000000 ee c6 f1 3e 58 9b 1e 3e ce 77 16 3e 78 f7 4c bf
       0.47222084 0.15488946 0.1469414 -0.8006511
000010 ee f7 28 bf 98 a1 51 3e cc 6a 30 bf 8b 4e 16 bf
       -0.6600331 0.204718 -0.6891296 -0.587136
000020 69 69 7b 3f b1 a4 1d bf a9 a3 a9 3e 15 fb 8d 3e
       0.9820772 -0.61579424 0.33132675 0.27730623
000030 0f ef 49 bf 3c 80 5f bf ba 9a 53 bf 63 0d b3 3e
       -0.788804 -0.87305045 -0.8265797 0.3497115

encoder.1.running_var f4 [16]
000000 3e 10 24 3d d9 4c 43 3d 2d 1b 24 3d 29 7b 3d 3d
       0.040054552 0.04768071 0.04006498 0.046260033
000010 55 a1 4d 3d ce 34 1f 3d 0c 81 44 3d 7c 6c 9b 3d
       0.050202686 0.038868718 0.04797463 0.07589051
000020 dd 93 44 3d 6b 75 45 3d 9e 92 f5 3c b9 b5 2b 3d
       0.047992576 0.04820768 0.02997714 0.04192135
000030 53 55 08 3d 41 eb 38 3d 8c bc 17 3d 93 13 3d 3d
       0.033284497 0.04514623 0.037045047 0.046161246

encoder.4.weight f4 [32, 16, 4, 4]
000000 1f 10 76 3d 84 e8 5a bd 1b 91 01 bc dd 1e 46 3d
       0.060073968 -0.0534444 -0.007908131 0.048369277
000010 94 c1 23 3d 8d 4a b6 3c 01 a7 5a 3c 94 7e 83 bc
       0.039979532 0.022252345 0.013345481 -0.016051568
000020 71 ce 34 3c 0b 6d bb 3b a7 3d 3b 3d cd a7 c9 3c
       0.011035548 0.005719786 0.045713093 0.024616146
000030 74 24 0b 3d fe 87 43 bb 46 ed 54 bd b9 bd 7b bb
       0.03397031 -0.0029835696 -0.051984094 -0.0038412644
000040 25 5c 39 bc 6d 79 30 bc d9 6e 93 3d 98 5e b5 3c
       -0.011313473 -0.010771138 0.07198877 0.022139832
000050 45 96 1c 3d 6a 9e ff bb f8 3b 3a 3d 5f fb 0e 3d
       0.038229246 -0.007800867 0.045467347 0.034907695
000060 a1 11 43 bb 2b a6 47 3b 41 3c 64 bc 6f 63 d3 3b
       -0.0029765146 0.0030464034 -0.013930381 0.0064510624
000070 5c 16 52 bd 31 64 6e 3d 9a 59 a2 3c e0 86 ee 3b
       -0.051290855 0.05820102 0.019818116 0.007279262
000080 2e e5 23 bd 3b 8b ef bc 8f 33 07 3b 8c 04 8f 3d
       -0.040013485 -0.029241195 0.0020630097 0.06983289
000090 58 e4 57 bd 9f 4a 71 3c fc 86 8a 3d 06 28 f3 b9
       -0.052708 0.014727264 0.067640275 -0.00046378392
0000a0 29 1e 98 ba 66 54 7c 3c 51 2c ad bc 67 84 0b 3d
       -0.0011605668 0.0154009815 -0.021139296 0.034061816
0000b0 3e 89 44 3d 91 aa 75 bc f7 41 06 3c 31 d3 91 3d
       0.047982447 -0.0149942795 0.008194438 0.0712036
0000c0 3a 1c e9 bc 9e 82 6d 3c 7d 12 06 bd 5e d3 f3 3b
       -0.028455842 0.014496474 -0.032732476 0.0074409684
0000d0 3c 27 82 bd d9 fb 41 bd 3f ac 85 bd a1 1c cc bc
       -0.063551396 -0.04735932 -0.06526994 -0.024915995
0000e0 3c 45 69 bd 4a 25 03 3d 03 36 8f bb e0 fd 36 bd
       -0.056950793 0.032017983 -0.0043704524 -0.044675708
0000f0 7c 88 43 3c 21 7c c1 bb df 60 ac 3c 11 3a 0e bd
       0.011934396 -0.00590469 0.021042285 -0.034723345
000100 25 fc 20 bc 73 03 83 3d 2f 47 2b 3d 44 e5 01 3d
       -0.009825741 0.06397142 0.041815933 0.031712785
000110 69 a9 37 bd 50 21 7b 3d 01 7d 35 bc e1 7b e4 bb
       -0.044839296 0.061311066 -0.011077167 -0.0069727753
000120 98 9e 6c bd 03 13 39 3d c8 64 d3 3c 19 90 00 3c
       -0.057768434 0.045184147 0.025804892 0.007846856
000130 95 17 4b 3d 07 19 8e bc 7f cb ec 3b bd f2 52 3c
       0.049583036 -0.017345918 0.007226407 0.012875256
000140 bb bd 9d 3c a3 c2 c5 3c e5 f8 f7 3c 78 14 f6 bc
       0.01925551 0.024140662 0.03027005 -0.030039057
000150 e0 c0 bc 3c 8d 6a 25 3c 4b b5 56 bd 02 56 3b bd
       0.023041189 0.0100962045 -0.05241899 -0.04573632
000160 28 3b 2b 3d b1 3f 15 3d 4b 07 85 3c 73 ae f8 3c
       0.041804463 0.036437694 0.01623883 0.030356621
000170 e9 76 11 3d c1 01 1a bd a1 41 83 3d 71 1c 83 3c
       0.035513792 -0.03759933 0.06409002 0.016004773
000180 81 00 45 bd c9 90 6e bd 49 3f 81 bd 8b 6c a5 bb
       -0.048096184 -0.058243547 -0.06310899 -0.0050483397
000190 a0 a5 1a 3d d8 09 39 bd c8 0c 38 3d b4 7d 3e 3d
       0.03775561 -0.045175403 0.044934064 0.0465066
0001a0 c7 47 c2 bc e7 42 6a bd 5f b2 38 3d 0b 33 9b bb
       -0.023715867 -0.05719271 0.045091983 -0.0047363094
0001b0 0e 52 ee bc 19 55 a5 3c 4b c9 28 bd aa 50 9f bd
       -0.029091861 0.02018218 -0.041207593 -0.07779057
0001c0 33 b2 3d bd ca d5 ff bd 2c ef 79 bd a0 8e cf 3c
       -0.046312522 -0.12491949 -0.061019108 0.025336564
0001d0 77 f0 bd bd 19 40 73 bd 61 2b 4e bd 35 28 3a bd
       -0.09274381 -0.0593873 -0.050334338 -0.0454485
0001e0 c1 87 af bb e0 51 79 bd eb 55 bc bd 2e 1a 6d bd
       -0.0053567593 -0.060869098 -0.09196075 -0.057886295
0001f0 ac d6 58 bd 80 50 09 bd f2 df 1f bd 7a 86 90 bd
       -0.052939102 -0.033524036 -0.03903193 -0.07056899
000200 12 e5 a4 bc c6 22 12 3d 8b 57 c9 bb 44 ce f0 3c
       -0.02012876 0.035677694 -0.006144469 0.02939523
000210 80 ef 23 bc fe cb 41 3d 90 27 fe 3a e9 2a de 3c
       -0.010005832 0.047313683 0.0019390453 0.02712007
000220 32 ec 20 bc 44 fb 50 bd e2 3f 30 bc 9d 41 ba bc
       -0.009821938 -0.051020876 -0.010757418 -0.022736365
000230 9b 75 17 3d 25 d4 8b bc 4a 0f a3 3b 0e 64 1e 3d
       0.03697739 -0.017068932 0.004976188 0.03866964
000240 3e 7d 11 bd 85 f5 32 3b 5e 5c dc bc e3 34 38 bd
       -0.03551983 0.0027306986 -0.026899513 -0.04497231
000250 d8 09 dc bb 8c 5f 19 bc ef 1c 9c bd bc 4c 52 bd
       -0.0067150407 -0.009361159 -0.07622706 -0.05134271
000260 1a 32 03 3c bd 82 0e bd f1 fb a7 3c 56 42 97 bc
       0.008007551 -0.03479265 0.020505877 -0.018464249
000270 11 87 e7 bc f2 fe 2a 3d 39 b1 a6 bc c7 ea 92 bd
       -0.028262647 0.04174704 -0.020348178 -0.071736865
000280 4e ee 46 bc 14 8f 5b bd 6e 59 7e bd 34 02 5c 3d
       -0.012141777 -0.053603247 -0.062097006 0.05371304
000290 85 e3 4f bc 02 10 31 3d 7d c7 0b bd 47 e6 4e 3d
       -0.012688522 0.043228157 -0.034125794 0.05051258
0002a0 76 c4 05 3d 22 4f d2 bc dc b2 65 bd 8a a5 db bc
       0.032658063 -0.0256725 -0.056078777 -0.026812334
0002b0 47 e5 8e 3c 0d 24 d8 b9 3b 0d 26 bd 0b 6b 4d bc
       0.017443312 -0.0004122559 -0.04053996 -0.012537728
0002c0 9e 4a 36 bd c5 00 8f 3d aa 5a 89 3d 3e f9 57 bd
       -0.044504754 0.06982569 0.06706746 -0.05272793
0002d0 25 29 09 bd ab a6 50 3d 79 40 13 bc 73 2b 01 bd
       -0.033486504 0.050940197 -0.008987539 -0.031535577
0002e0 11 02 10 bd 0f 4c ca 3c aa 68 2d bc a8 f1 af bb
       -0.03515822 0.02469447 -0.010584036 -0.005369384
0002f0 82 a4 02 3b 08 b5 61 3d 33 9d 3d bc 12 e4 e5 bc
       0.001993448 0.055104285 -0.011573124 -0.028062854
000300 dc 45 a0 bd df 24 79 3b b6 e2 84 bc 69 da 45 bd
       -0.078258246 0.0038016362 -0.016221385 -0.048303995
000310 d3 e4 c9 3a 4c e6 8a 3c 0a 56 11 3d 73 e4 9f bd
       0.0015403278 0.016955517 0.035482444 -0.07807245
000320 b2 55 72 bc 2f a6 0a 3d 06 e9 98 bd 0f 68 34 bd
       -0.014790939 0.03384989 -0.07466321 -0.04404455
000330 53 fb 6c bd 33 af 4d 3d f6 24 27 bd 16 b9 c8 bc
       -0.05785687 0.05021591 -0.040806733 -0.024502318
000340 0b 43 88 bc 2c f6 39 bd 78 1c c0 3c aa 96 21 3d
       -0.016633531 -0.045400783 0.023451075 0.039450325
000350 cf 16 99 bb fe 54 e2 bc 3b fa 8e 3a 9f a8 d9 bc
       -0.0046719084 -0.027628418 0.0010908315 -0.026569663
000360 e8 90 6e bc d9 97 1c bd 73 df 9a bc b5 f5 2b 3d
       -0.0145609155 -0.03823075 -0.018905377 0.04198237
000370 43 bd 79 bc 5a e2 f1 3c 8e 7f fd bc 1d 16 13 3d
       -0.015242877 0.029526878 -0.030944612 0.03590976
000380 b7 cf aa ba c2 10 f6 bc 03 2d 86 bd 70 25 a4 bc
       -0.0013031875 -0.030037288 -0.06551554 -0.020037383
000390 4d 33 73 bd 0c 5e cf bc ca 6c 33 bc ff 00 bb 3c
       -0.059375096 -0.0253134 -0.01095123 0.022827623
0003a0 77 8f ce bc 6a 52 08 3d ed 38 9d bd 9b fc 2f bd
       -0.025214894 0.03328172 -0.07676873 -0.042965513
0003b0 2f 17 a8 3b a5 b7 49 bc 82 33 b7 bc 02 7e 68 bc
       0.005129717 -0.012311851 -0.022363428 -0.014190199
0003c0 81 e8 c2 3b 37 01 ad bc 8e 6f 34 bc 7d ae 8c 3d
       0.005948127 -0.021118743 -0.011012925 0.068692185
0003d0 82 36 52 bc 98 ab 17 3d 7f d5 35 bd fb 62 1f 3d
       -0.0128303785 0.03702888 -0.04439306 0.038912755
0003e0 4b c2 46 3d d1 82 8f bb 65 69 20 3d 75 92 48 3b
       0.048525136 -0.004379608 0.039163012 0.0030604873
0003f0 7a 7d ba ba 01 ea 0f 3d 27 bb ac 3b cd b0 17 bd
       -0.0014228069 0.035135273 0.0052713337 -0.037033845

encoder.4.bias f4 [32]
000000 86 ad b7 bd 27 a2 af bd f3 cd 35 be 43 99 0f be
       -0.08968644 -0.0857585 -0.17754345 -0.14023308
000010 96 bd 22 be a2 11 f0 bd c9 df d5 bd 73 c8 a3 bd
       -0.15892634 -0.11722113 -0.10443074 -0.07997217
000020 a1 c2 07 be d5 6d 23 be a3 1d 0c be 2a 65 0e be
       -0.13257839 -0.15959866 -0.1368318 -0.13905779
000030 07 db 1e be 77 54 d8 bd 64 80 1a be 9a bc ec bd
       -0.1551324 -0.105629854 -0.1508804 -0.115594104
000040 c9 8a f9 bd 68 16 b7 bd b4 27 de bd 66 a8 27 be
       -0.12184674 -0.089398205 -0.108474165 -0.16372833
000050 14 96 f7 bd e2 c5 6f bd 28 bb ec bd 5c 53 ef bd
       -0.12089172 -0.058538325 -0.11559135 -0.116858214
000060 fd 77 95 bd b5 8d 89 bd 5c b7 04 be 21 64 2b be
       -0.072982766 -0.067164816 -0.12960571 -0.16737415
000070 d0 fb 39 be 19 53 3e be b3 fb a6 bd 19 c0 e9 bd
       -0.18162465 -0.18586387 -0.081534766 -0.11413593

encoder.5.weight f4 [32]
000000 b6 48 7b 3f b5 42 7b 3f b7 b7 79 3f 75 23 79 3f
       0.98157823 0.9814866 0.9754595 0.9731973
000010 be f7 76 3f 39 82 81 3f 13 87 79 3f 02 96 7d 3f
       0.96471775 1.0117866 0.9747173 0.9905702
000020 6f 83 7e 3f 19 86 79 3f 4e b7 74 3f 51 7f 7b 3f
       0.994193 0.9747024 0.955922 0.98241144
000030 55 32 79 3f 05 0c 79 3f bd 40 7b 3f f4 b4 7a 3f
       0.97342426 0.97283965 0.9814566 0.9793236
000040 0e be 78 3f 29 2e 81 3f 69 e1 7c 3f 66 03 77 3f
       0.97165 1.0092212 0.9878145 0.9648956
000050 2c 8d 82 3f 45 a9 7b 3f cf 8c 70 3f 05 28 79 3f
       1.0199332 0.9830516 0.93964857 0.9732669
000060 fd 80 79 3f 61 d4 80 3f 06 e5 79 3f 4c a2 74 3f
       0.97462445 1.0064813 0.9761509 0.95560145
000070 15 7f 7e 3f ae 33 7d 3f f0 ce 85 3f 9b 49 80 3f
       0.9941266 0.9890698 1.0453777 1.0022463

encoder.5.bias f4 [32]
000000 90 b9 e5 3c 9d 65 0f bd ab 0d 2f bd 6c ae 55 bd
       0.028042585 -0.035009015 -0.042737644 -0.052168295
000010 be 89 c5 bc 77 a5 dd 3b 7b be 79 3c 2b 9a a5 3c
       -0.024113532 0.0067641097 0.015243168 0.020215115
000020 69 06 d4 3c fc e1 50 bd ae 27 93 bd 6e ea 52 bd
       0.025881963 -0.050996765 -0.07185303 -0.0514931
000030 9c c7 9f 3c ca d3 96 3c 5f 09 22 3d 1d d2 d7 3c
       0.01950436 0.018411536 0.03955972 0.026345307
000040 8f d7 4a bd 62 e9 47 bd 73 13 74 3c 38 93 ea b9
       -0.04952198 -0.048806556 0.014897215 -0.00044741645
000050 aa 88 9b bb 77 fd 50 bd dd 66 3a bd 32 af ae 3c
       -0.0047465162 -0.051022973 -0.045508254 0.021323774
000060 a4 89 9e 3b 61 7e ba bc 10 bc ff 3c ec bd c1 bc
       0.0048381854 -0.02276534 0.031217605 -0.023650132
000070 7f 31 39 bd 30 c8 82 bd a7 d0 e3 bc 31 c1 5b bd
       -0.04521322 -0.06385839 -0.027809454 -0.05365104

encoder.5.running_mean f4 [32]
000000 2b 86 86 be 39 89 27 3d 42 f7 16 3f d7 07 aa 3e
       -0.26274237 0.04090235 0.58971035 0.33209106
000010 c0 0d fe 3d c9 a9 e9 bd f5 56 66 3e 3b 05 da be
       0.12404966 -0.11409337 0.22494109 -0.42582116
000020 05 8b d3 be c7 80 0f 3c 29 e6 65 3d ef f8 1f be
       -0.41317 0.00875873 0.0561277 -0.15622304
000030 52 70 2d be 9c 2d de be 9d 84 53 be 0c c5 10 bf
       -0.16937378 -0.43394172 -0.20656057 -0.5655067
000040 27 5a 11 be df 7c 11 bf d2 1e ff be dc 88 82 bf
       -0.14194547 -0.56831163 -0.49828202 -1.0198016
000050 db 05 ad 3e 66 f8 8b be 3a af a5 be 5e f2 52 bf
       0.3379353 -0.2733795 -0.3236025 -0.8240107
000060 f1 a7 eb be f6 2c c3 be 10 45 1f bf c3 b8 0a 3e
       -0.46026567 -0.3812024 -0.62214756 0.13547044
000070 cf 60 08 be b8 bf 83 be a0 69 59 bf c9 a6 0b bf
       -0.1331818 -0.25732207 -0.84926796 -0.5455137

encoder.5.running_var f4 [32]
000000 f3 8e 36 3f e5 18 16 3f 7f e4 e0 3e e3 4b d0 3e
       0.71311873 0.58631736 0.4392433 0.40682897
000010 a4 8c 18 3f 86 89 29 3f 1e 66 39 3f 91 80 5b 3f
       0.595896 0.6622547 0.72421443 0.8574305
000020 f7 fe 02 3f 95 32 18 3f 5d ef 0d 3f 27 cf e6 3e
       0.51170295 0.5945218 0.55443364 0.4507992
000030 ef d9 42 3f 9f e5 f0 3e 83 3b 1c 3f 20 80 f8 3e
       0.7611379 0.47050187 0.6102831 0.48535252
000040 e5 77 0d 3f 90 ce b8 3f 55 67 69 3f 3c 4d c8 3e
       0.5526107 1.4438038 0.911733 0.39121425
000050 13 f0 9f 3e 48 74 9a 3f 23 14 9f 3e eb 3a 17 3f
       0.3123785 1.2066736 0.3107005 0.59074277
000060 8e 1b 1d 3f 5f 4d 9f 3f 8d 92 17 3f 1b 14 39 3f
       0.6137017 1.2445487 0.59207994 0.72296304
000070 d6 2a be 3f 2d 06 8e 3f ac ef 05 40 9a 16 c9 3f
       1.4856822 1.1095635 2.0927534 1.5710022

encoder.8.weight f4 [64, 32, 4, 4]
000000 32 aa b5 bb 3d d1 cb 3b 8e f1 d9 bc 3a 22 2e bd
       -0.0055439705 0.0062200115 -0.02660444 -0.04251311
000010 0f 83 23 bd 70 f3 52 bd 32 cd a1 bc 5a ae b6 bc
       -0.03991991 -0.05150169 -0.019751165 -0.022299934
000020 2a f7 2e bd 83 f0 41 bd 55 05 51 bd c2 aa 57 3c
       -0.042716183 -0.04734851 -0.051030476 0.01316327
000030 97 18 7c bc 00 fd 08 3d a0 fe 66 bd 9d ac af bc
       -0.015386722 0.033444405 -0.056395173 -0.021444613
000040 22 99 db bc 23 0b 1c 3b 8f bc 6e bc ea 15 8f 3c
       -0.026806418 0.002381035 -0.014571323 0.017466504
000050 73 04 fd bc 8e 2b a6 3c 01 dc 15 3d 31 13 c7 ba
       -0.03088591 0.02028444 0.036586765 -0.0015188215
000060 a1 b3 16 bd 3a f5 ad 3c 48 45 0a bb e9 f9 0b 3d
       -0.0367924 0.021235097 -0.0021098424 0.03417388
000070 e3 3a 44 3c 2b fc eb bc 54 8e 00 3d 93 a3 d0 3c
       0.01197693 -0.028806766 0.031385735 0.025468623
000080 62 a2 15 bd c3 6f b3 bc 2c dc c2 3c 8b 7c 8b b9
       -0.036531813 -0.021903878 0.023786627 -0.00026604938
000090 f4 f1 bb 3b 25 b8 2e bd d5 e7 e4 bc 09 23 3b bb
       0.00573563 -0.042656083 -0.027942577 -0.0028554818
0000a0 b3 b5 27 3d 8c 83 02 3d 1e 1b 20 3d 2b d3 d7 bc
       0.040944766 0.031863734 0.03908836 -0.02634581
0000b0 da e1 d9 bc e8 8e 77 3c f8 89 64 bb 13 a8 85 3d
       -0.026596952 0.015109755 -0.0034872275 0.06526198
0000c0 3e 91 18 bc 7c ea 93 bc db a7 65 3c 75 4b 54 3c
       -0.009311972 -0.018056147 0.014017071 0.0129574435
0000d0 4f d4 e8 bc 3d da f3 3c a0 00 26 3d d1 1a 14 3d
       -0.02842155 0.02976715 0.04052794 0.036158387
0000e0 fb 5e 18 bd 42 53 4e 3c d7 2c 7f bc f4 6b e3 bc
       -0.037199955 0.012593092 -0.0155746555 -0.027761437
0000f0 1f a5 f0 3c 80 ca c2 bb 92 e7 5f 3d bc c4 21 3d
       0.02937561 -0.00594455 0.054664202 0.03949426
000100 84 ea 4b bc 35 5e 75 bc 3b 99 86 bc 50 d1 ad 3a
       -0.01244605 -0.014976074 -0.016430488 0.0013261233
000110 c8 50 97 bd 6b 86 1b bb 4a 26 90 3d 3f a2 0b 3d
       -0.07388455 -0.0023731242 0.07038553 0.034090277
000120 89 99 96 3b e3 de eb bc ce 92 fe 3c 39 39 ee 3c
       0.0045959395 -0.028792804 0.031075861 0.02908002
000130 5b a1 a6 bc 49 04 a0 3a cd 70 64 3d 7d 9b 68 3d
       -0.020340612 0.0012208308 0.055771638 0.05678891
000140 16 aa 29 3c 08 74 8f 3c 85 db df bc 48 13 a1 3c
       0.010355493 0.017511383 -0.027326355 0.019662514
000150 68 58 9e 3c ee e4 25 bd 6f 41 12 bd 64 ea a1 bd
       0.019329265 -0.040501527 -0.035706934 -0.079060346
000160 61 a9 04 3c be bc 23 bd 2c bb 2f bd e3 26 de bd
       0.008097024 -0.03997492 -0.04290311 -0.10847261
000170 3d 8c cf 3c c3 6d 3d bd df 51 5f 3c 04 86 a9 3b
       0.025335426 -0.046247255 0.013630359 0.0051734466
000180 b4 a1 6e bc ae 51 0b bb 3a 0d 98 bc b8 c3 1f bd
       -0.01456492 -0.0021258402 -0.018560994 -0.03900501
000190 e1 16 b1 3b 47 09 4f bd 1b 58 bb 3c 0d 95 17 bd
       0.0054043387 -0.050545957 0.02286916 -0.03700738
0001a0 a6 d6 93 ba 40 48 23 bd 5e 94 2f bd b2 45 4e bb
       -0.001127918 -0.039863825 -0.042866103 -0.0031474647
0001b0 71 70 8c 3c 52 a5 23 bd 65 1d f8 3c 31 1b 21 bd
       0.01714346 -0.039952584 0.030287454 -0.039332572
0001c0 70 dc 12 3d 63 a2 d0 bc 5d a4 cb 3c b2 e3 03 3c
       0.035854757 -0.025468057 0.024858648 0.008049892
0001d0 58 0d 51 3c 76 9f 7b bd b9 01 4f bd 7d 31 33 bd
       0.012759529 -0.06143137 -0.050538752 -0.043748368
0001e0 59 7d 17 3c a4 e7 2c bd 23 4a c6 bb ed 18 cb bc
       0.009246194 -0.042213097 -0.0060513183 -0.024792159
0001f0 7c 13 88 bc 35 e7 28 bd bc c0 18 bd e4 52 36 bd
       -0.016610853 -0.04123612 -0.03729318 -0.044512644
000200 aa b2 a8 bc c3 58 03 bd e6 e8 a6 bc 53 1e 05 bd
       -0.020593006 -0.03206707 -0.020374727 -0.032499623
000210 07 c6 41 bd c0 4f e6 3c a5 1c 3a bc 09 77 62 bd
       -0.047307994 0.0281142 -0.011359368 -0.055289302
000220 b0 fe c1 3c 9d c6 22 bd 57 ee 4e bd be e3 28 bd
       0.023681015 -0.039740194 -0.050520267 -0.041232817
000230 fb 9e 48 3c 2f 04 3a 3c 2f 4b 24 bd 20 5f c3 bc
       0.012244935 0.0113535365 -0.040110763 -0.02384907
000240 46 f8 dc 3c 0d 42 9a 3b 00 7f 6d 3d 86 6d f6 3c
       0.026973855 0.004707581 0.057982445 0.030081522
000250 37 d5 e3 3b cf 8e 0c 3d 32 8d 47 bc c5 38 51 3b
       0.0069529074 0.03431588 -0.01217966 0.0031924706
000260 be 96 da 3c 82 4c cc bc 3d 2e 80 3d d4 b9 13 3d
       0.026683208 -0.024938826 0.06258819 0.03606589
000270 e1 f6 44 3c 05 a8 32 3d e0 3c 00 3d 46 83 c5 3c
       0.012021751 0.043617267 0.031308055 0.024110448
000280 60 8b 9d 3c 16 7a d8 bc 68 4b b6 38 ed 9a 9f bc
       0.019231498 -0.026425403 8.692482e-05 -0.019483054
000290 d3 4f 0b bd 05 15 26 bd c0 80 f7 3b 94 c7 0d 3d
       -0.034011673 -0.04054739 0.00755319 0.03461416
0002a0 df c0 4c bc d7 79 0a bd d9 46 35 3d a7 a9 c6 3c
       -0.012497156 -0.0338076 0.04425702 0.024250818
0002b0 60 c2 c3 bc 51 1c 14 bd 47 df be 3c 7a 03 bf 3b
       -0.023896396 -0.036159817 0.023299826 0.005829272
0002c0 3b 64 3e bd 4a 7a 86 3a 4c 6d f1 3c 24 e0 97 bc
       -0.046482306 0.0010259834 0.029471062 -0.018539496
0002d0 9e da a6 bc e0 6c 5f 3b ef 2c 4d bb a9 55 a3 3c
       -0.020367917 0.0034091994 -0.00313073 0.019938307
0002e0 99 62 07 3c 8f cb 37 3d 21 88 4c 3d 2c 44 ef bc
       0.008263254 0.044871863 0.04993451 -0.029207312
0002f0 be 3d 32 bd 59 a5 b5 3c 79 5f f3 bc 78 8f 44 bd
       -0.043515913 0.02217357 -0.02970861 -0.047988385
000300 ce fe 70 3a 4d 6f 74 3c 8b a6 01 3c 61 9b 08 bc
       0.00091932423 0.014919114 0.007913242 -0.0083378265
000310 25 bf c8 bc 66 f6 0c 3c 29 26 87 bd 3e 50 45 bd
       -0.024505207 0.008603668 -0.06599075 -0.048172228
000320 06 0c 6b 3c b3 dd 80 bc cf 96 16 bd a5 b7 35 bc
       0.014346128 -0.015730714 -0.036764916 -0.011091148
000330 7a 5d 9f ba 81 c1 ea bc 4c 6d 4d bc a0 b6 17 bd
       -0.0012158595 -0.028656723 -0.012538265 -0.0370394
000340 33 ff 65 bd 75 d3 87 3c 9b d2 2d bd f8 9e de 3c
       -0.05615158 0.016580323 -0.042437177 0.027175412
000350 76 ce 78 bc 2e e6 98 bc 6e c7 77 bd 8b 64 1b bd
       -0.015185943 -0.018664446 -0.060492925 -0.037937682
000360 5c ee af bc 0c 99 b2 bb 4d 7c 54 3c 5c 1f 34 bd
       -0.021475963 -0.0054503735 0.012969089 -0.04397522
000370 db 0b 9f 3c a2 9d 9b 3b 29 fd 88 bc ba 81 05 bd
       0.019414833 0.004749016 -0.016722279 -0.03259442
000380 9c fb 98 3c f8 68 8e 3c 9c bf 2b 3c 3d 6c 90 3c
       0.018674664 0.017384037 0.010482695 0.017629737
000390 41 f1 03 bd e6 26 5b bd f8 46 30 bd d4 16 46 bd
       -0.0322125 -0.053503893 -0.04303643 -0.048361614
0003a0 b4 47 77 bc 80 7e a4 bc 12 b1 a2 bc 20 41 36 bd
       -0.015092779 -0.020079851 -0.019859824 -0.0444957
0003b0 b1 17 9e bc 06 08 03 3a 73 82 b6 ba 99 31 df 3c
       -0.019298406 0.0004998449 -0.0013924375 0.02724533
0003c0 5c b8 03 bc 10 7a db 3c a1 eb 22 bd bd 83 30 bd
       -0.00803956 0.026791602 -0.039775494 -0.043094385
0003d0 c4 b7 30 3b 24 6a 45 bd 87 5f 2e bd 5b 36 61 3c
       0.0026965002 -0.048196927 -0.04257157 0.0137458695
0003e0 19 80 86 bc 9b b0 21 3c f0 ad 88 ba 0b e0 42 bd
       -0.016418504 0.009868766 -0.0010427814 -0.047576945
0003f0 77 f7 94 3c 38 50 04 bd 8f 50 13 3d 73 6a 01 bd
       0.018184407 -0.032303065 0.0359655 -0.03159566

encoder.8.bias f4 [64]
000000 9f 79 c1 3c b4 bc 40 3c aa 90 12 3d 7a 7b cb 3b
       0.023617564 0.01176374 0.035782494 0.006209788
000010 54 54 02 bd f4 5a 3b 3d 77 18 5a 3c e7 d1 0f 3d
       -0.031818703 0.045741037 0.013311497 0.035112288
000020 ab 61 5a bd 4d de bd bc 82 9e b1 bc 34 d4 fa 3b
       -0.0533158 -0.02317729 -0.021682028 0.007654691
000030 c1 5d 2c bd 9e ba c8 3c 57 6f bd bb 41 a7 1b 3d
       -0.0420816 0.024503049 -0.005781095 0.038001303
000040 25 b9 83 3d ed f6 59 bd 50 7a 27 3d 0b 26 a4 3d
       0.06431798 -0.053214002 0.04088813 0.080150686
000050 b5 cb 6b bd c1 ab 08 3d 6c 52 58 bd b5 d7 2c 3d
       -0.057567317 0.033366922 -0.05281298 0.0421979
000060 8e 36 47 3c 9b d3 12 bb 41 19 a3 3c 17 d6 94 bd
       0.012159003 -0.0022403959 0.019909503 -0.07267397
000070 a7 1a 0b 3d 7a 91 7f bd 7e e7 36 3d d9 ce 18 3d
       0.033960965 -0.062394597 0.044654362 0.03730664
000080 31 4f d8 bb 19 fe 2c bc 1d cf fc bc 16 91 4e 3d
       -0.006601237 -0.0105586285 -0.030860478 0.050431333
000090 10 bd 43 bd 36 5a d8 bb 1d 8c 28 3d eb 2f 8f bd
       -0.047787726 -0.006602551 0.041149247 -0.069915615
0000a0 9a 2e 12 bd d7 18 41 bc 56 4f 47 3d 44 a3 bd bc
       -0.035688974 -0.011785707 0.048659645 -0.02314914
0000b0 9b c4 03 3c 6a 14 06 bd e2 be 00 3d 54 a1 00 3d
       0.00804248 -0.032734312 0.03143204 0.031403854
0000c0 4a 17 22 3d 8c 58 58 3c 74 63 1d bc f2 c9 b1 bc
       0.03957299 0.013204705 -0.009606231 -0.02170274
0000d0 29 1a 0f bd e9 2c 13 bd f0 dd b3 bc f3 c4 4f bd
       -0.034937058 -0.0359315 -0.021956414 -0.050724935
0000e0 ef 80 84 bc 79 a8 7a bc e6 a1 82 3c f3 7c 80 bd
       -0.016174762 -0.015298956 0.01594634 -0.06273832
0000f0 c4 d8 df 3b cd 44 08 3d 3a f6 4f 3d 81 ea 2c bb
       0.0068312604 0.03326874 0.05077193 -0.0026384892

encoder.9.weight f4 [64]
000000 04 00 80 3f 64 c8 7c 3f 40 59 76 3f c9 e2 80 3f
       1.0000005 0.9874327 0.96229935 1.0069209
000010 86 78 84 3f 05 2c 82 3f 4f 35 77 3f c0 b1 7c 3f
       1.0349281 1.0169684 0.9656572 0.98708725
000020 13 28 7d 3f 5e ff 7d 3f 0b 90 78 3f 0a 11 81 3f
       0.98889273 0.99217784 0.9709479 1.0083325
000030 f8 fc 77 3f 10 30 7e 3f 0d b4 78 3f 59 2c 75 3f
       0.96870375 0.9929209 0.97149736 0.95770794
000040 a9 79 75 3f 22 03 83 3f 8e 00 77 3f 49 44 71 3f
       0.95888764 1.0235331 0.9648522 0.9424482
000050 3d a1 7e 3f 97 fa 81 3f de 3f 81 3f 30 88 7c 3f
       0.9946478 1.0154599 1.0097616 0.98645306
000060 43 fd 77 3f be f1 78 3f 97 30 74 3f 3b 2b 78 3f
       0.9687082 0.9724387 0.9538664 0.96940964
000070 75 15 67 3f 78 a8 7d 3f 2d 5a 7a 3f fd 1d 7c 3f
       0.90267116 0.9908519 0.9779385 0.9848326
000080 c3 ab 81 3f b5 5a 79 3f 67 db 88 3f 36 61 70 3f
       1.0130543 0.9740403 1.0691956 0.9389833
000090 92 d9 87 3f 2d 94 7d 3f 8b 33 6d 3f 04 b8 7d 3f
       1.0613272 0.99054223 0.92656773 0.9910891
0000a0 6b 5a 7a 3f a8 f2 7a 3f 30 41 80 3f 59 af 7a 3f
       0.97794217 0.98026514 1.0019894 0.9792381
0000b0 06 86 81 3f 39 7d 75 3f e1 37 77 3f 89 f1 7b 3f
       1.0119026 0.958942 0.9656964 0.9841543
0000c0 c6 3b 80 3f 91 1d 7a 3f 41 63 76 3f a3 40 7a 3f
       1.0018241 0.97701365 0.962452 0.9775488
0000d0 91 7d 7e 3f 80 0a 7a 3f 90 fb 79 3f 74 6d 86 3f
       0.9941035 0.9767227 0.9764948 1.0502152
0000e0 92 81 79 3f 64 57 80 3f b1 9b 75 3f c6 5f 7a 3f
       0.97463334 1.002667 0.9594069 0.9780239
0000f0 2d 03 7d 3f 8a ef 7a 3f 61 e3 82 3f da a4 75 3f
       0.9883297 0.9802176 1.022564 0.9595467

encoder.9.bias f4 [64]
000000 65 d2 ac bb 99 7b b7 bc 80 9b 86 3c 4c 0c 3c bc
       -0.0052741044 -0.022397803 0.01643157 -0.011477541
000010 59 92 a7 3c dc 6a 25 3c 97 ab 87 39 12 c5 93 bb
       0.020455526 0.010096278 0.0002587705 -0.0045095766
000020 45 e5 b8 3c 8d f3 9f 3c 70 55 c0 bb ee 2f 18 bd
       0.022570262 0.019525314 -0.00586956 -0.037155084
000030 72 41 2e bd 5b 7c 6e 3d 36 08 2c bd ab 87 48 bd
       -0.042542882 0.058224063 -0.042000018 -0.048957508
000040 99 ab bd 3c f4 0c 68 bd 9d 48 d0 bc 16 b8 ee bc
       0.023153113 -0.056652978 -0.02542525 -0.029140513
000050 21 35 d9 bc 74 e5 f3 3c e1 89 f0 3c 76 3f 12 bc
       -0.026514592 0.029772498 0.02936262 -0.008926263
000060 f7 08 c8 bc 4f c9 a0 bc 53 4f 9e 3c 91 e3 c8 bb
       -0.024418337 -0.019627241 0.019324934 -0.0061306437
000070 0d 78 15 bd 42 2e 06 bd 47 e3 5e bd f2 50 cb bc
       -0.036491442 -0.03275896 -0.054415967 -0.024818871
000080 46 06 73 bc e1 3b 0d 3c ee 53 92 bd 61 39 d6 bc
       -0.014833039 0.008620233 -0.071449146 -0.026150407
000090 04 bc 26 bc 1d 41 0c bd f1 91 ce bc ea 62 55 bc
       -0.010176662 -0.034241784 -0.025216075 -0.013024071
0000a0 e0 3a 66 3c 58 20 dd 3b 20 c6 da 3c 81 2a 1b 3d
       0.014052123 0.0067482404 0.026705801 0.03788233
0000b0 76 71 ce 3c 53 55 8f bd 1b 05 4b 3b 93 29 88 bd
       0.025200587 -0.06998696 0.0030978385 -0.06648555
0000c0 69 f2 7f 3d 3f 7a 52 bd d4 37 27 bd 4f f3 67 bd
       0.06248704 -0.051386114 -0.040824726 -0.05662852
0000d0 bc 30 f0 3c 16 80 55 3c 89 7f 98 bd ad 05 17 bd
       0.029320113 0.013031026 -0.074462004 -0.036870647
0000e0 e5 5f d2 bc 24 00 cf bb 8e d6 f9 bc a3 ae 7c 3c
       -0.025680492 -0.0063171554 -0.030497815 0.015422496
0000f0 55 c8 39 bc 66 64 cb 3c 36 0b 15 3c f3 ba c2 3b
       -0.011339267 0.024828147 0.009096911 0.0059426962

encoder.9.running_mean f4 [64]
000000 1f 09 69 bf 3a 4b 4a 3f 2e 8f 60 bf 84 2c 41 bf
       -0.9102954 0.79021037 -0.87718475 -0.7545855
000010 cc 1c d7 bf fa a8 22 bd ec 19 7c bf 58 f6 8a bf
       -1.6805663 -0.03971193 -0.98477054 -1.0856428
000020 81 b7 07 be f7 2a 90 bf 27 26 95 bf 9e 22 b9 bf
       -0.13253595 -1.1263112 -1.1652268 -1.4463689
000030 d9 c4 8e bf d4 15 a1 be 26 51 48 be ad 6b ab 3e
       -1.1153823 -0.31461966 -0.19562206 0.33480588
000040 94 37 9c bf a7 f0 05 bf 1f 70 71 3e 86 eb d6 3e
       -1.2204461 -0.5232033 0.23577927 0.41976565
000050 80 f6 b8 bf c0 d7 17 c0 4c fe 10 c0 ba 5d ad 3d
       -1.4450226 -2.3725433 -2.265521 0.084651425
000060 2e 5f 4a be fd e2 ad be 4c 77 0a c0 18 25 8d be
       -0.1976287 -0.3396224 -2.1635313 -0.27567363
000070 4d 78 f0 3d f5 12 57 3f 28 a6 12 bf 1f b7 93 bf
       0.117416956 0.840133 -0.57284784 -1.1540259
000080 0d 3f b6 bf 0d 84 24 c0 d1 d5 a5 bf b1 84 96 3e
       -1.4237992 -2.5705597 -1.2955877 0.2939811
000090 ff e7 59 bf 42 9c fe 3e 4f c0 a7 3d b5 3d c4 bf
       -0.8511962 0.4972859 0.08190977 -1.5331331
0000a0 4c a1 66 bf c8 fc 2c 3e b1 87 87 bf 10 eb 38 c0
       -0.9008987 0.16893303 -1.0588285 -2.889347
0000b0 63 56 12 c0 ff e6 b5 bd 0e 79 fa be ab db d6 3e
       -2.2865226 -0.0888195 -0.48920482 0.41964468
0000c0 60 39 b9 bf 6c ab b1 be 09 88 25 3f 37 80 40 3f
       -1.4470634 -0.34701097 0.646607 0.7519564
0000d0 25 1b ba bf 84 fa 38 bf aa 85 fd 3d 1d 74 cf bf
       -1.4539534 -0.72257257 0.1237901 -1.620731
0000e0 0a 40 33 bf 19 cd c6 bf ea 83 a7 bc b6 97 f3 bf
       -0.7001959 -1.5531341 -0.020448644 -1.9030674
0000f0 b4 36 25 bf a0 47 0e c0 db 5a 12 c0 b3 98 80 bf
       -0.64536595 -2.2231216 -2.2867954 -1.00466

encoder.9.running_var f4 [64]
000000 6e f3 f6 3f 68 7d 43 40 0b 1a 8c 40 f7 10 22 40
       1.9293039 3.0545292 4.378179 2.5322855
000010 61 f0 1b 40 c4 49 93 3f c8 25 6d 40 0d ac 2e 40
       2.4365466 1.1506886 3.705431 2.7292511
000020 b8 5e 72 40 0c e1 4c 40 26 50 3c 40 b0 1c 47 40
       3.7870312 3.2012358 2.9423919 3.111126
000030 15 84 41 40 7f ab 98 40 90 0a 8a 40 92 1d 7f 40
       3.0236866 4.7709346 4.3137894 3.9861798
000040 69 d6 c9 3f a3 ef de 3f b3 8c 1b 40 16 49 46 40
       1.5768558 1.7416881 2.4304626 3.0982108
000050 f3 9d 55 40 93 96 3c 3f 85 63 1f 40 13 ae af 40
       3.3377655 0.7366726 2.4904492 5.4899993
000060 49 a1 7a 40 8a ca 8e 40 b3 4a 2a 3f 36 a1 4c 40
       3.916094 4.462224 0.6652023 3.1973395
000070 67 82 21 40 33 35 93 40 98 16 ec 3f 39 6c 5e 3f
       2.5235841 4.600244 1.8444395 0.86883885
000080 f8 bd 51 40 fd 69 d4 3f 00 e5 a5 3f e4 81 44 40
       3.2772198 1.6594845 1.296051 3.070428
000090 5b b7 02 40 14 2b 58 40 fd c6 26 40 5b 52 4a 40
       2.0424411 3.3776293 2.6058953 3.1612766
0000a0 05 22 7b 40 05 a9 9c 40 71 92 66 40 35 e2 ce 40
       3.9239514 4.8956323 3.602688 6.465113
0000b0 c7 ed ea 3f 88 63 20 3f ba c6 88 40 e6 81 a0 3f
       1.8353814 0.6265187 4.2742586 1.2539642
0000c0 a1 8b 61 40 ca 49 51 40 a9 46 5f 40 bd ec 11 40
       3.5241473 3.2701287 3.4886878 2.2800744
0000d0 28 6d 46 40 e5 a2 7e 40 75 39 a0 3f e2 ff 01 40
       3.1004124 3.9786923 1.2517534 2.0312428
0000e0 27 e3 88 40 91 9f 4e 40 d0 9e e9 3f 4d cf 2c 40
       4.2777286 3.2284892 1.8251591 2.7001526
0000f0 26 bd a6 40 a4 c1 41 40 46 da 9e 3f 52 36 67 40
       5.2105894 3.027444 1.2410362 3.6126904

decoder.0.weight f4 [64, 32, 4, 4]
000000 f0 ac 3d bd 71 13 02 3d 53 bc 4d bd bb 01 4e bd
       -0.046307504 0.031756822 -0.050228428 -0.05029462
000010 43 a1 ee bc a2 27 89 3d 7c de 87 3b b6 7c 02 bd
       -0.02912963 0.066970125 0.0041463953 -0.031857215
000020 0a b9 23 bb 3d 97 5e 3d b1 55 e6 3c 76 8d 0c bd
       -0.0024982118 0.05434345 0.028117033 -0.034314595
000030 70 78 84 bd 62 fa 5b 3c 0c 81 2a bc b9 ca c5 bc
       -0.06468284 0.013426395 -0.010406744 -0.024144517
000040 3f 69 87 3b 29 de 08 bc ad 68 19 3c 06 f2 39 ba
       0.0041324194 -0.008353748 0.009363336 -0.0007093254
000050 00 7f df 3c 55 8b e7 3c cb 11 4d 3b 19 fb 1f bd
       0.027282238 0.02826468 0.0031291123 -0.039057825
000060 e0 f9 55 3b 68 5b e2 3c 0e df 18 bd 7b 52 7e bd
       0.0032650158 0.027631477 -0.037322097 -0.06209038
000070 6f c3 19 bd 04 3e 31 3d 15 82 55 bd 16 ba 29 bd
       -0.037539896 0.043272033 -0.05212601 -0.04143723
000080 4d 47 8a bc 8c 0f fd 3b c9 cb cc 3c e7 1c 55 3d
       -0.016879702 0.0077228006 0.024999516 0.052029517
000090 f8 66 dd 3b 84 08 cf 3c 08 e2 9f 3d fd f5 19 3d
       0.0067566596 0.025272615 0.07806784 0.03758811
0000a0 25 c4 c8 3c 26 3c ac 3c 71 6e 88 3d e5 35 bb 3b
       0.024507592 0.021024775 0.0666169 0.005713212
0000b0 94 f4 57 3c a3 c3 40 3d 66 3a 61 3d 6e 09 fc bc
       0.013180871 0.047061574 0.054987334 -0.030766215
0000c0 a0 4c 23 bc ed 86 24 3d 3b 66 ea bc b4 f2 35 3d
       -0.009966999 0.040167738 -0.0286132 0.044420913
0000d0 ab a1 82 bb 6b ba fe bc f4 40 82 bd e4 12 06 3b
       -0.0039865575 -0.03109475 -0.06360045 0.0020458037
0000e0 98 8b 81 3c 0c c6 09 bd 86 a6 8f bc 9f be 3a bc
       0.015813634 -0.033636138 -0.01753546 -0.011397987
0000f0 fd 25 12 3d a0 88 9e ba 3e 51 94 bb c0 69 56 bd
       0.03568076 -0.0012095161 -0.0045262864 -0.052346945
000100 4a ad 59 3d a7 94 ce bc e5 1b b0 bc a2 40 23 3d
       0.053143777 -0.025217367 -0.021497676 0.03985656
000110 bc be 1f 3d a7 29 3d bd 54 f3 45 bd 60 67 7d bd
       0.039000258 -0.0461823 -0.04832776 -0.061866164
000120 a9 8f 52 3d 2e 5b f4 3b e0 ea 57 3c 1f 86 0d bd
       0.051406536 0.0074571585 0.013178557 -0.034551736
000130 d1 61 3d 3d 7b 14 59 bd 39 0c f9 3c 19 df a3 bc
       0.046235863 -0.052998047 0.030401336 -0.020003842
000140 3d f7 67 bd 00 91 f8 bb d7 f2 20 3c 99 0e 16 3d
       -0.05663227 -0.0075856447 0.0098235225 0.036635015
000150 ab 3b 0a bd 8a 9c 37 bd b4 e3 64 3d 82 dc d4 3c
       -0.03374831 -0.04482702 0.055881217 0.025984053
000160 32 2e 5a bc 9d 0b 5f 3c 4d 02 bd bc fc aa f6 3c
       -0.013316678 0.013613609 -0.023072386 0.030110829
000170 f1 41 55 bd a9 a5 1f bc a9 c3 93 3c 14 08 c8 3b
       -0.05206484 -0.009744086 0.018037634 0.0061044786
000180 68 53 63 3c c0 db 04 bd b3 44 a9 3c 76 1e 1f bd
       0.013874866 -0.032436132 0.020662641 -0.03884741
000190 a8 60 91 3d 2a 43 e0 3b 9f 7f 87 bd 4f f7 71 bd
       0.07098514 0.006843944 -0.06616139 -0.059073742
0001a0 aa 4f 4e 3c 88 4f ac bc 44 aa e2 bd a5 89 5b 3c
       0.012592236 -0.021034017 -0.11067632 0.013399516
0001b0 c9 5d f9 3c 75 eb b9 bc 68 eb 9a bd 5e af 9c 3c
       0.030440228 -0.022695282 -0.075644314 0.01912659
0001c0 d3 d9 65 bd 6e ab ba bc 01 84 d8 bb dd 71 ff bb
       -0.056115936 -0.022786822 -0.006607533 -0.007795556
0001d0 1e d5 21 bd 0f c4 fe bc 12 4a 57 bb 2a 3a d1 3b
       -0.039509885 -0.031099347 -0.0032850546 0.0063851075
0001e0 d4 66 f3 bc fa 3a 58 3c 2a 08 34 bd 93 df 35 bd
       -0.029712118 0.013197655 -0.0439531 -0.04440267
0001f0 e0 f3 b7 bc 6e 5e f9 3c 53 b9 92 bc 55 1e 2a 3d
       -0.022455156 0.030440535 -0.017910635 0.041532833
000200 ad 5c 15 bd a8 12 30 3c 96 61 8b 3c a4 26 39 3c
       -0.036465336 0.0107466355 0.017014306 0.011300717
000210 38 78 08 3d dc c7 0b bd fe 71 bc bc 83 f8 c2 bc
       0.033317775 -0.034126148 -0.023003574 -0.02380014
000220 ca 3a c8 bc ef 3a 66 bc 55 e9 b8 3c 84 d3 f7 3b
       -0.024442095 -0.014052137 0.022572199 0.0075630564
000230 d8 00 56 bc 7d 87 86 3c db 65 00 3a 98 b2 1e bc
       -0.013061725 0.016422028 0.000489799 -0.009686135
000240 10 f6 5e bc af c9 92 3c 40 1d 2a bd 98 48 0b 3d
       -0.013608471 0.017918436 -0.0415318 0.034004778
000250 49 63 86 bc 5b 7a 21 bc c1 40 1d bd 4b da 03 bd
       -0.016404765 -0.009855832 -0.038391832 -0.032190602
000260 39 dc 14 bd 2a c7 8b 3c 29 a0 5f bc c7 de 0e 3d
       -0.036342833 0.017062742 -0.013649025 0.034880426
000270 10 00 0a bd 7c c0 0f 3d 80 0a 38 3c f3 db 27 3c
       -0.033691466 0.035095677 0.011232972 0.010245311
000280 25 d5 c3 3c b6 a8 95 3c 9b 06 c7 bc ef 36 ae 3b
       0.023905346 0.018268924 -0.024295142 0.005316607
000290 9f 2b 18 3d f7 69 d5 3b 89 18 9a bb 40 cf 7f bd
       0.037150975 0.006512876 -0.004702632 -0.06245351
0002a0 2f c7 91 3c 04 3c 58 bd 37 cc 9e bd 1c e5 60 bd
       0.017795173 -0.05279161 -0.07753795 -0.054905996
0002b0 21 2c 57 3d eb db a7 3c f3 09 c8 ba 36 1a af bc
       0.05253232 0.020490607 -0.0015261754 -0.021374803
0002c0 ad 30 3d bc 93 3e ff 3b 80 ad 66 3d 2a e6 c7 3a
       -0.01154725 0.007789442 0.056317806 0.0015251089
0002d0 d2 5d 5d ba ea 90 0c 3d 23 55 1a 3d 91 d4 a9 3a
       -0.0008444461 0.03431789 0.03767885 0.0012957026
0002e0 e8 2f 0f bd 70 6b 18 bc 58 39 bf bc 83 4f ce bc
       -0.034957796 -0.009302959 -0.023342773 -0.025184399
0002f0 02 34 d4 3c 87 4c b6 3a 86 1f 26 bd dc 72 57 bd
       0.025903706 0.0013908305 -0.040557407 -0.052599773
000300 d4 8a 75 bd c8 23 31 bd 0c f2 05 3c d0 f2 0d bb
       -0.05994685 -0.043247014 0.008175384 -0.002165962
000310 16 ff 52 bc 92 c6 4e 3c e3 e0 8f 3c 08 7a 67 3d
       -0.0128782 0.012620585 0.017563289 0.056512862
000320 7e 49 0e bd 6c 66 63 3d 09 c9 86 3d 2d 7f cd 3c
       -0.034738056 0.0555176 0.06581313 0.025085056
000330 40 2a 41 bd ea 66 61 3c f3 9a 4e 3d 20 ce 2e 3d
       -0.047159433 0.013757447 0.05044074 0.042677045
000340 78 6a d1 3c aa 9b 3a 3c 22 6d bb 3c c5 27 2e bd
       0.025563464 0.011389652 0.022879187 -0.042518396
000350 e1 fb 95 3c fe 75 20 bd a8 39 6f bd 5f 08 83 bd
       0.018308582 -0.039175026 -0.058404595 -0.06398081
000360 6e f0 85 ba ce f2 9c ba 10 94 8a 3c 21 2e b2 ba
       -0.0010218748 -0.0011974217 0.016916305 -0.001359407
000370 c9 be ba bc d8 78 56 3b 03 74 18 bd 8c 82 15 bc
       -0.022796052 0.0032725837 -0.037220012 -0.009125363
000380 7a a4 46 3c 33 de f8 bc 9b ab 4f bd 62 e1 92 bb
       0.012124175 -0.03037939 -0.050700765 -0.004482434
000390 65 1c 68 bd af 48 1f 3d 30 ce db 3b 1a 13 93 3c
       -0.056667704 0.038887676 0.006707929 0.017953444
0003a0 40 86 53 bd 0f 82 4b bc 36 6f bd bc 84 f9 70 3c
       -0.051641703 -0.012421145 -0.023124319 0.014707927
0003b0 6b b3 ca bc 97 af 1e bd 7f 22 39 3c a1 90 a5 3c
       -0.024743756 -0.038741674 0.011299728 0.020210566
0003c0 6a 6c 66 bd 56 47 66 3b bd 98 b3 bc 1a 02 d6 bb
       -0.056255735 0.0035137734 -0.021923417 -0.0065310122
0003d0 c7 00 47 3d 3d 4b 6f bd 58 13 49 bd 24 6a 02 3a
       0.048584726 -0.058421362 -0.049090713 0.00049749226
0003e0 62 6b 77 bd 75 d4 55 bd b8 42 3b bc 7f aa 1f bd
       -0.060405143 -0.052204568 -0.011429481 -0.038980957
0003f0 b1 33 d2 3c ce 88 85 3a 3c 25 d2 3c 21 27 da bb
       0.025659414 0.0010187866 0.02565252 -0.0066574966

decoder.0.bias f4 [32]
000000 9d 7a e9 bd 22 54 e2 bd 1b 36 8e bd 5c 10 95 bd
       -0.1140034 -0.11051203 -0.069439135 -0.07278511
000010 0f 00 fb bd 24 6c 1a be 9b cb d9 bd 92 ab 17 be
       -0.122558706 -0.15080315 -0.10634538 -0.14811543
000020 1c 85 28 be 12 5e d1 bd 64 3e 06 be fd 54 d0 bd
       -0.16457027 -0.102230206 -0.13109738 -0.1017246
000030 29 7c 1f bd c2 cf a9 bd a5 72 9b bd c7 e2 ce bd
       -0.038936768 -0.0829158 -0.07590226 -0.10101848
000040 db b0 e0 bd a9 39 cd bd 6e fc a0 bd 7d 3d 7d bd
       -0.109712325 -0.100207634 -0.07860647 -0.061826218
000050 a0 8d f5 bd 60 4a f8 bd a6 e0 20 be cd ab f2 bd
       -0.119899035 -0.12123561 -0.15710697 -0.11849175
000060 6b 3e f5 bd 50 d3 05 be 1a bf 0f be 21 6a 1f be
       -0.11974796 -0.1306889 -0.14037743 -0.15567829
000070 55 e9 c1 bd 40 67 dc bd c5 cc b2 bd f8 cc d9 bd
       -0.09468333 -0.10761881 -0.08730463 -0.10634798

decoder.1.weight f4 [32]
000000 d3 5c 77 3f 26 a5 83 3f 49 1b 80 3f c0 3f 75 3f
       0.96626014 1.0284774 1.0008327 0.958004
000010 bb e5 78 3f ce a5 79 3f 1e 01 81 3f 67 9e 7b 3f
       0.9722554 0.9751862 1.0078466 0.9828858
000020 10 b9 74 3f 1d c6 7d 3f 54 a4 7b 3f 26 3f 82 3f
       0.9559488 0.9913042 0.9829762 1.0175521
000030 c1 26 7e 3f f8 22 80 3f 37 f4 6e 3f 20 7e 78 3f
       0.99277884 1.0010672 0.9334139 0.9706745
000040 cd 96 7e 3f bf 6b 7e 3f 59 b1 71 3f 04 07 87 3f
       0.99448854 0.9938316 0.94411236 1.0549016
000050 8d 1b 7b 3f b6 6b 80 3f b3 a4 7d 3f cc 4a 7c 3f
       0.98088914 1.0032871 0.99079436 0.9855163
000060 f6 df 7c 3f 5b 89 80 3f 43 5e 77 3f 37 22 75 3f
       0.9877924 1.0041918 0.96628207 0.9575533
000070 b4 5a 81 3f b8 bb 78 3f 44 26 7a 3f 9c 83 77 3f
       1.0105805 0.97161436 0.9771464 0.96685195

decoder.1.bias f4 [32]
000000 0b b0 77 bd c5 11 5c bc db 0f ec 3a 7b 7c f7 3c
       -0.060470622 -0.013431971 0.0018010096 0.030210724
000010 08 15 31 3d be ae 54 bd ee 30 80 3d a9 d5 a8 3c
       0.043232948 -0.05192446 0.062593326 0.020609694
000020 d5 c0 9f bc c8 2d 3c 3d 22 b3 a4 3b 6a 37 37 3c
       -0.01950113 0.045942098 0.005026237 0.011182645
000030 e3 26 d0 3c 2a 00 5e 3d de 45 3a bd 3a 3a 61 3d
       0.025409168 0.054199375 -0.045476787 0.05498717
000040 41 40 71 3b 29 b4 0e 3d 39 87 97 bd fe 1b ec 3c
       0.003681198 0.034839783 -0.073988385 0.028821941
000050 e6 e8 1f 3d 73 08 37 3d 2d 7a 4c bb e8 b4 6f bc
       0.03904047 0.044685792 -0.0031200752 -0.014630534
000060 32 e5 7d bd 3f 5d ac bc c3 97 9d bc e2 bb 2a bd
       -0.061986156 -0.021040557 -0.019237405 -0.041683085
000070 23 bd 20 3c ee 3e ae bd 79 96 a2 3c a0 70 0d bc
       0.009810719 -0.08508097 0.019847142 -0.008632809

decoder.1.running_mean f4 [32]
000000 fc 16 c4 bb f9 08 29 bf 1e 7e cf bd c3 2b 2a bf
       -0.0059841853 -0.66029316 -0.10131477 -0.66473025
000010 32 df 1c bf ff 7c e6 3d 9e 8b 36 bf 25 88 f6 bd
       -0.6127807 0.1125431 -0.7130679 -0.12037686
000020 13 6f e1 be d4 d9 28 bf 52 d5 3a bf 80 01 05 bf
       -0.44030055 -0.6595738 -0.7298175 -0.51955414
000030 d2 4d f2 bc 93 49 f8 be 6b 59 2e be 10 9f 55 bf
       -0.029578123 -0.48493633 -0.17026298 -0.83445835
000040 2b 17 49 3e 14 bb 54 bf 67 76 89 3d 35 bf bf be
       0.19637744 -0.8309796 0.067120366 -0.37450567
000050 57 3b eb be 79 73 08 bf 41 f7 27 bf 16 46 e8 be
       -0.4594371 -0.533012 -0.65611655 -0.4536597
000060 20 70 fd be 57 16 1e 3e 40 fe 91 bd db 3e 7d be
       -0.49499607 0.1543821 -0.071285725 -0.24731009
000070 17 01 93 be 8b a2 e6 3e 53 1c 16 bf f4 fe 05 bf
       -0.2871177 0.45045885 -0.5863697 -0.5234215

decoder.1.running_var f4 [32]
000000 0a 79 99 3e 1d 41 0c 3f 6c 9e 43 3f 4c 32 f4 3f
       0.29975158 0.54786855 0.7641361 1.9077849
000010 d5 17 c5 3f 5d bd f1 3e 15 10 c3 3f be 0a 0b 3f
       1.5397898 0.47214785 1.5239283 0.54313266
000020 91 6c ee 3f b2 2a b9 3f 41 2a 8e 3f de f0 68 3f
       1.8626882 1.4466155 1.1106645 0.90992534
000030 9d fc 4f 3f 40 88 fa 3f a6 cd ed 3f c3 01 dc 3f
       0.8124483 1.957283 1.8578384 1.7188038
000040 c6 4d 7f 3f d1 bf dc 3f 36 f2 e7 3e e1 54 84 3f
       0.9972805 1.7246038 0.4530198 1.0338403
000050 c9 c2 a7 3f 8a fa b9 3f 3b 6b 0d 3f 8c de 18 3f
       1.3106319 1.4529583 0.55241746 0.5971458
000060 2b 28 73 3e 1e ab c6 3e 80 42 24 3f c2 da 98 3f
       0.23745792 0.38802427 0.6416397 1.194176
000070 2b f3 94 3f 3f 69 b8 3e 44 32 db 3f 5e 52 b3 3f
       1.1636709 0.36017796 1.7124715 1.4009511
