weights/improved_cae_ne3_b8_color.pth (torch, 351167 bytes, 36 tensors)

encoder.0.weight f4 [16, 3, 4, 4]
0.10970359 0.025095321 0.0021905568 0.038370024 0.009360797 0.07782405 0.05255107 -0.11178992
-0.04436858 0.03397818 0.009343223 -0.13851775 -0.1207034 -0.042002212 0.1035926 0.12428164
0.07168036 -0.024629742 -0.09473687 -0.070723414 -0.029774949 -0.10405533 -0.014276448 0.037205055
0.0028033336 -0.11262823 0.121594965 -0.030276112 0.066601865 -0.014526543 0.0015449513 0.13912699
-0.024703985 -0.086440444 -0.14612614 -0.013905434 -0.12719648 0.083452925 0.09926996 0.08623787
0.019464612 0.03086063 0.11492608 0.12460586 0.13535811 0.09958545 0.04013141 -0.12343968
0.019529402 0.13353533 -0.025516357 -0.12313966 0.12829341 -0.14852087 -0.09617628 -0.0346113
-0.04955819 -0.10499985 0.062296692 -0.039813418 0.081944235 -0.011688654 0.0341581 -0.058370896
-0.049349893 -0.09298986 -0.1437182 0.04549718 -0.1264047 -0.0031824436 0.04810281 -0.020497123
-0.10025483 0.029393276 -0.021783164 -0.095421396 0.079531 -0.056531146 0.041161105 0.036540654
0.1296256 -0.02684759 -0.05208622 -0.016973948 0.10048813 -0.016679559 0.08813109 0.10867093
-0.0027756917 -0.10279033 -0.0053827832 -0.1602657 0.018134886 -0.08643604 -0.14077331 -0.14364716
-0.10876332 -0.05405799 0.11847402 -0.04136358 0.09807182 0.043681987 -0.13156451 -0.019819448
0.05730506 0.013979539 -0.03648078 -0.103601865 0.03394189 0.104902245 0.06941011 -0.03994803
-0.07287806 0.055640217 0.07833786 -0.107562095 0.09333278 -0.04768982 0.06993262 -0.07302777
0.0015110722 -0.13562293 0.03165925 -0.09016708 0.1060055 -0.053029623 0.080973335 0.11573273
0.10350336 0.11600876 -0.090163164 0.12870783 0.08623743 0.14663447 -0.11511428 0.11420177
0.04303577 -0.02276742 -0.09189426 -0.017380865 -0.12705852 -0.103707105 0.14061631 -0.017693616
-0.054547943 -0.119577385 -0.13352638 -0.04417183 -0.018102594 -0.122930005 -0.077609345 -0.032147374
0.05705564 0.06961892 -0.14987299 0.113152355 0.02198107 -0.033580728 0.11175557 -0.03661329
0.08431094 0.08375833 -0.05960497 0.13633098 -0.12972319 -0.08724219 0.000850493 0.05534149
0.13545582 -0.0848993 0.12597366 0.06656094 -0.12984176 0.09652785 -0.08894988 0.08538337
0.022583582 -0.020728404 0.14371689 0.012592093 0.0889749 0.06697238 0.06951148 0.06482724
-0.004827483 -0.073168546 0.010097446 -0.057669587 0.078136966 0.06410217 -0.02649202 -0.08286181
0.015161502 0.071334034 -0.03158367 -0.08003369 0.080120936 -0.0118834665 0.091378324 -0.05670775
0.032543365 -0.019626705 -0.014810203 -0.14491375 -0.07147115 0.021356931 0.093741715 0.006669511
-0.0039305724 0.07630426 0.01781739 0.011544739 -0.12368556 0.02664736 -0.1372449 0.050192297
0.024525745 -0.16584843 0.061013013 -0.12699674 -0.006288773 -0.06947641 0.030895693 0.14326066
-0.055817306 0.05058381 0.07697799 0.076651864 -0.10738427 -0.038846813 -0.051809978 0.058125865
-0.09221869 -0.1658742 -0.0068205227 -0.07807188 -0.011678394 -0.13005091 -0.10316955 -0.040810816
-0.10091718 -0.1462236 0.11183177 -0.04619438 0.019694159 -0.057841577 0.044547375 -0.07553855
-0.038304437 -0.1343314 0.06446591 -0.13940749 0.055564933 -0.057112034 -0.011231795 -0.017332343
00000000: 47ac e03d b494 cd3c 728f 0f3b e329 1d3d
00000010: 075e 193c 3762 9f3d ca3f 573d 1df2 e4bd
00000020: d4bb 35bd b42c 0b3d 5114 193c 99d7 0dbe
00000030: 5833 f7bd 830a 2cbd 5b28 d43d 5f87 fe3d
00000040: 27cd 923d 50c4 c9bc 6705 c2bd 70d7 90bd
00000050: 98ea f3bc f61a d5bd c3e7 69bc 5464 183d
00000060: 22b8 373b a1a9 e6bd c806 f93d 9c05 f8bc
00000070: 8f66 883d bd00 6ebc f77f ca3a 4e77 0e3e
00000080: 0360 cabc b007 b1bd 17a2 15be 9ed3 63bc
00000090: cb3f 02be 5ee9 aa3d 0c4e cb3d 7b9d b03d
000000a0: 4074 9f3c 6fcf fc3c 5d5e eb3d 5b31 ff3d
000000b0: 519b 0a3e 75f3 cb3d d560 243d f1cd fcbd
000000c0: 20fc 9f3c 7cbd 083e ae07 d1bc a530 fcbd
000000d0: 595f 033e db15 18be 12f8 c4bd 94c4 0dbd
000000e0: 87fd 4abd 290a d7bd d12a 7f3d 6513 23bd
000000f0: 61d2 a73d c581 3fbc 5de9 0b3d 5216 6fbd
00000100: 1d23 4abd 7871 bebd dd2a 13be 405b 3a3d
00000110: 3c70 01be 8b90 50bb 7407 453d 95e9 a7bc
00000120: 6852 cdbd 2bca f03c 9b72 b2bc 4b6c c3bd
00000130: 26e1 a23d 348d 67bd 8c98 283d a7ab 153d
00000140: 93bc 043e 7aef dbbc 5c58 55bd f30c 8bbc
00000150: b8cc cd3d 92a3 88bc 137e b43d dd8e de3d
00000160: 61e8 35bb bd83 d2bd 0f62 b0bb b11c 24be
00000170: 9d8f 943c 6105 b1bd e126 10be 3e18 13be
00000180: 4ebf debd e96b 5dbd 82a2 f23d db6c 29bd
00000190: e1d9 c83d e2eb 323d d9b8 06be 655c a2bc
000001a0: b6b8 6a3d 700a 653c df6c 15bd 372d d4bd
000001b0: a706 0b3d fdd6 d63d e326 8e3d 8ca0 23bd
000001c0: 1841 95bd ffe6 633d 9a6f a03d 8449 dcbd
000001d0: 4225 bf3d 6756 43bd d538 8f3d 958f 95bd
000001e0: 2b0f c63a bde0 0abe 21ad 013d 85a9 b8bd
000001f0: 6919 d93d 9735 59bd 59d5 a53d 4805 ed3d
00000200: 92f9 d33d 0096 ed3d 77a7 b8bd fccb 033e
00000210: 409d b03d 5927 163e 09c1 ebbd 9ee2 e93d
00000220: 4746 303d be82 babc 0f33 bcbd 5162 8ebc
00000230: a11b 02be 6464 d4bd b9fd 0f3e 34f2 90bc
00000240: aa6d 5fbd fde4 f4bd 24bb 08be 85ed 34bd
00000250: e44b 94bc bac2 fbbd a6f1 9ebd f7ac 03bd
00000260: 2db3 693d 5d94 8e3d 4e78 19be 6cbc e73d
00000270: a511 b43c f28b 09bd 1be0 e43d d1f7 15bd
00000280: 37ab ac3d 7d89 ab3d 5724 74bd 599a 0b3e
00000290: 28d6 04be 09ac b2bd 9ef3 5e3a c2ad 623d
000002a0: eeb4 0a3e afdf adbd 3dff 003e 1a51 883d
000002b0: 3df5 04be 65b0 c53d 5b2b b6bd 7add ae3d
000002c0: 3401 b93c 9dce a9bc 852a 133e 114f 4e3c
000002d0: 7938 b63d d128 893d 095c 8e3d 25c4 843d
000002e0: dd2f 9ebb 64d9 95bd c26f 253c f236 6cbd
000002f0: 4606 a03d 0048 833d cb05 d9bc 74b3 a9bd
00000300: f367 783c 9417 923d e15d 01bd b4e8 a3bd
00000310: 7216 a43d dfb2 42bc 8f24 bb3d 6346 68bd
00000320: 314c 053d 2fc8 a0bc 7ea6 72bc 4564 14be
00000330: 775f 92bd bbf4 ae3c a8fb bf3d ea8b da3b
00000340: 08cc 80bb 6845 9c3d c6f5 913c 2526 3d3c
00000350: db4e fdbd 904b da3c ed89 0cbe 7096 4d3d
00000360: 37ea c83c 2cd4 29be c8e8 793d 6f0b 02be
00000370: 0d12 cebb a649 8ebd f718 fd3c ecb2 123e
00000380: b0a0 64bd f830 4f3d a3a6 9d3d a7fb 9c3d
00000390: 49ec dbbd d61d 1fbd b336 54bd 6315 6e3d
000003a0: 27dd bcbd edda 29be b17e dfbb 26e4 9fbd
000003b0: bc56 3fbc 112c 05be 8f4a d3bd 3e29 27bd
000003c0: abad cebd a4bb 15be 0e08 e53d 5136 3dbd
000003d0: a555 a13c 4aeb 6cbd 4f77 363d f5b3 9abd
000003e0: 1de5 1cbd 2c8e 09be b406 843d d6c0 0ebe
000003f0: 0e98 633d 4fee 69bd 9005 38bc 8ffc 8dbc

encoder.0.bias f4 [16]
0.03478772 -0.060535986 -0.07340597 0.1045959 -0.06717719 0.10177114 -0.17264181 -0.05959903
-0.15966013 0.026182763 0.1267072 0.11499069 0.023206975 -0.13285083 -0.016134668 -0.12520647
00000000: 917d 0e3d 95f4 77bd df55 96bd 6036 d63d
00000010: 3294 89bd 636d d03d 04c9 30be 1d1e 74bd
00000020: f27d 23be 3c7d d63c 88bf 013e 3d80 eb3d
00000030: 8e1c be3c 0c0a 08be da2c 84bc 2036 00be

encoder.1.weight f4 [16]
0.9786172 0.97196454 0.9625801 0.9789461 0.990396 0.9944827 0.9768071 0.99977267
1.0015047 1.0215788 0.99844617 1.003877 0.9899361 1.0002503 0.98630637 0.97822976
00000000: a886 7a3f abd2 783f a66b 763f 369c 7a3f
00000010: 988a 7d3f 6b96 7e3f 0810 7a3f 1af1 7f3f
00000020: 4e31 803f 18c3 823f 2b9a 7f3f 0b7f 803f
00000030: 746c 7d3f 3408 803f 937e 7c3f 446d 7a3f

encoder.1.bias f4 [16]
-0.020058066 -0.04417521 -0.024660224 -0.018151592 -0.02136465 -0.03415689 -0.10247412 0.037476793
-0.06517279 0.03338585 -0.013485265 -0.017618753 -0.015583639 -0.031402104 -0.017373618 -0.018328965
00000000: d050 a4bc 11f1 34bd 3d04 cabc a6b2 94bc
00000010: eb04 afbc 18e8 0bbd f4dd d1bd 4481 193d
00000020: 5079 85bd 9abf 083d 4df1 5cbc 3455 90bc
00000030: 8552 7fbc 7e9f 00bd 1e53 8ebc a026 96bc

encoder.1.running_mean f4 [16]
0.40097377 -0.34644467 0.05810776 0.26936582 -0.41458613 -0.352053 -0.7002545 -0.31552145
-0.9515779 -0.00066386565 0.71422416 0.030915722 0.008211449 -0.80811775 -0.35325366 0.474355
00000000: 6f4c cd3e 3261 b1be 6702 6e3d 51ea 893e
00000010: a244 d4be 4a40 b4be e143 33bf 078c a1be
00000020: 9c9a 73bf 4507 2eba 65d7 363f f842 fd3c
00000030: 5089 063c cee0 4ebf aadd b4be a9de f23e

encoder.1.running_var f4 [16]
0.010328473 0.004191973 0.0062382324 0.020781698 0.012221896 0.0058814962 0.007992547 0.014993079
0.07644413 0.0668982 0.02017435 0.0065002167 0.036751863 0.04769681 0.010590316 0.039374024
00000000: c138 293c d15c 893b 166a cc3b 613e aa3c
00000010: 593e 483c 91b9 c03b 2cf3 023c 88a5 753c
00000020: bd8e 9c3d ec01 893d ae44 a53c c5ff d43b
00000030: 1f89 163d bb5d 433d 0183 2d3c a846 213d

encoder.4.weight f4 [32, 16, 4, 4]
0.021345995 0.0015538812 0.03525126 0.0394419 -0.043899186 -0.03740412 -0.037398677 0.060127027
0.0028468445 0.038907234 -0.012345776 -0.030369159 0.04989366 3.31958e-05 0.027257513 -0.015304761
-0.07603917 -0.046017915 -0.036350913 0.021903373 0.009442249 0.011903537 0.00074069196 -0.04030643
0.013983095 -0.02537697 0.07923191 0.02868549 -0.06626597 0.010394444 0.091887765 0.054182775
0.038009964 -0.010842401 0.010557392 -0.01953599 -0.01203391 -0.025376651 0.030989202 0.023549521
0.047798328 0.05766611 -0.033275142 0.048133086 0.076756164 0.05610732 -0.021572737 0.0011449687
0.0730351 0.0807798 -0.030777657 -0.005863368 0.02274258 0.025584374 0.04158564 0.041633427
0.044175897 -0.02735603 -0.026571847 0.009198751 0.029149912 0.03151378 0.01700686 0.04519769
-0.016083853 -0.08436562 -0.058672007 -0.073788576 -0.029611204 0.018061746 -0.06271714 0.011561956
-0.048602287 -0.07746049 0.03340892 -0.08495901 0.011727044 0.034203496 -0.03989142 -0.06990486
-0.072252005 -0.036920648 0.014248912 -0.087443985 0.0346343 -0.007558766 0.0644973 -0.031275734
-0.056349367 -0.011917617 0.030783894 -0.054885224 0.0345017 0.0126901055 0.0737085 -0.064420305
-0.055410843 -0.015104733 -0.05827214 -0.026249157 0.031290013 -0.020112721 -0.006925315 0.047766417
-0.03722962 0.056590844 0.034835264 -0.061276026 0.03448537 -0.0066993204 0.050220657 -0.0148831885
-0.050115608 0.014122521 -0.04645061 0.037560396 -0.0265054 0.021442669 0.007918753 -0.039037984
-0.057739604 -0.05590713 -0.050880823 -0.055675816 -0.05442356 0.051811013 0.013782477 0.04456749
-0.07662017 -0.07877911 -0.021020958 -0.05279598 0.0072965496 -0.0019977747 0.036279358 0.012919233
-0.07393547 -0.028728962 -0.03957408 -0.03606419 -0.028107254 -0.06803857 0.044124376 -0.02867286
-0.18656178 -0.15388584 -0.15613191 -0.07183696 -0.051893625 -0.0055078524 -0.12177333 -0.077233255
-0.11006325 -0.101742156 -0.079766944 -0.09532566 -0.09014234 -0.06084662 -0.058337126 0.0057222648
0.025298605 0.035318643 0.029338866 0.03532145 0.032935742 0.039520852 0.02285909 -0.035813536
0.026318686 -0.01607498 -0.042309143 -0.03728316 -0.026207136 -0.0234688 0.007149951 -0.008674913
-0.0974735 -0.06307352 -0.046614233 -0.09075858 -0.017633261 -0.019227827 -0.031960707 -0.054405294
-0.06509341 -0.05984801 -0.027575614 -0.00597134 -0.03231167 -0.04814371 -0.042602535 0.027742567
0.023648538 0.10736855 0.03415879 0.08176299 0.077620275 0.0026503396 0.044519495 -0.019390073
0.029226476 0.022432545 0.048258897 -0.030053794 -0.0049069035 0.06548823 -0.033899646 0.012042546
-0.047687035 -0.0066196946 -0.08345824 -0.07756295 0.0007948332 -0.055471376 -0.03409715 -0.05796437
-0.04502058 0.02253523 -0.07545141 -0.06398684 0.024894236 -0.028490528 -0.014749875 -0.062204827
-0.046820737 0.0242904 0.033458777 -0.032436118 -0.0030265881 -0.03983857 -0.0133725805 0.013128422
-0.004928337 0.021396063 0.058713757 0.046055105 0.017456949 0.038111903 0.011112108 0.022286214
0.06991982 -0.005745365 0.012163944 0.018051 0.011536294 -0.012036754 0.023156287 0.01631986
-0.017879013 -0.00035404522 0.07104891 0.060426913 0.05470921 0.05563992 0.053260062 0.0048893224
00000000: ccdd ae3c 9aab cb3a a063 103d d48d 213d
00000010: a2cf 33bd 1035 19bd 5b2f 19bd c247 763d
00000020: 2092 3a3b 315d 1f3d f045 4abc bec8 f8bc
00000030: 4b5d 4c3d b83b 0b38 264b df3c d2c0 7abc
00000040: 6dba 9bbd 487d 3cbd b2e4 14bd b46e b33c
00000050: aab3 1a3c 0e07 433c ff2a 423a 5b18 25bd
00000060: 5a19 653c 5de3 cfbc 5744 a23d d5fd ea3c
00000070: 74b6 87bd 754d 2a3c a72f bc3d c2ee 5d3d
00000080: 56b0 1b3d 53a4 31bc e9f8 2c3c f109 a0bc
00000090: e029 45bc b2e2 cfbc 11dd fd3c edea c03c
000000a0: 2ec8 433d 4d33 6c3d 844b 08bd 3327 453d
000000b0: 5632 9d3d cad0 653d 4fb9 b0bc c612 963a
000000c0: 6d93 953d e16f a53d 6d21 fcbc 7f21 c0bb
000000d0: a64e ba3c 5296 d13c b455 2a3d d087 2a3d
000000e0: c9f1 343d c119 e0bc 34ad d9bc 5cb6 163c
000000f0: cccb ee3c 9814 013d f851 8b3c 3721 393d
00000100: 49c2 83bc e2c7 acbd 0f52 70bd 771e 97bd
00000110: 3293 f2bc 3af6 933c d871 80bd 5c6e 3d3c
00000120: 3113 47bd 9ba3 9ebd cbd7 083d fdfe adbd
00000130: ca22 403c f718 0c3d 3065 23bd 472a 8fbd
00000140: dcf8 93bd 1b3a 17bd 4574 693c d515 b3bd
00000150: b2dc 0d3d 86af f7bb 2917 843d fc1a 00bd
00000160: 98ce 66bd 1c42 43bc 812e fc3c 54cf 60bd
00000170: a851 0d3d 29ea 4f3c 7bf4 963d cbee 83bd
00000180: 7bf6 62bd d879 77bc c4ae 6ebd 7908 d7bc
00000190: f529 003d 6fc3 a4bc c1ed e2bb b8a6 433d
000001a0: 167e 18bd cdcb 673d 6caf 0e3d 92fc 7abd
000001b0: 8840 0d3d f985 dbbb 2db4 4d3d 9ed8 73bc
000001c0: 0646 4dbd 2562 673c ff42 3ebd eed8 193d
000001d0: da21 d9bc 89a8 af3c a8bd 013c 4be6 1fbd
000001e0: 5d80 6cbd e0fe 64bd 6968 50bd 530c 64bd
000001f0: 3deb 5ebd c937 543d e6cf 613c 678c 363d
00000200: 09eb 9cbd f156 a1bd 2534 acbc 9940 58bd
00000210: e517 ef3b 19ed 02bb aa99 143d 31ab 533c
00000220: 7b6b 97bd 0059 ebbc 6e18 22bd 0bb8 13bd
00000230: 2f41 e6bc ce57 8bbd c3bb 343d 58e3 eabc
00000240: 0d0a 3fbe 4094 1dbe 0be1 1fbe 421f 93bd
00000250: 698e 54bd 377b b4bb 4c64 f9bd 782c 9ebd
00000260: d768 e1bd 315e d0bd da5c a3bd 1a3a c3bd
00000270: 8c9c b8bd 4e3a 79bd e9f2 6ebd d681 bb3b
00000280: 053f cf3c 48aa 103d 1058 f03c 3aad 103d
00000290: a1e7 063d 9ee0 213d fc42 bb3c 37b1 12bd
000002a0: 499a d73c adaf 83bc 5a4c 2dbd 3ab6 18bd
000002b0: 59b0 d6bc a441 c0bc 234a ea3b 3921 0ebc
000002c0: 30a0 c7bd b12c 81bd 91ee 3ebd a2df b9bd
000002d0: a173 90bc ad83 9dbc 3be9 02bd 16d8 5ebd
000002e0: b24f 85bd 3023 75bd 41e6 e1bc 3bab c3bb
000002f0: 3e59 04bd 5732 45bd ff7f 2ebd 6144 e33c
00000300: 94ba c13c 0be4 db3d 16ea 0b3d 5b73 a73d
00000310: 61f7 9e3d 52b1 2d3b 135a 363d eed7 9ebc
00000320: 5d6c ef3c 75c4 b73c 1fab 453d 6033 f6bc
00000330: 17ca a0bb b11e 863d 5bda 0abd 194e 453c
00000340: 7b53 43bd 06ea d8bb 27ec aabd 53d9 9ebd
00000350: 5a5c 503a f435 63bd 74a9 0bbd 0c6c 6dbd
00000360: 8067 38bd cd9b b83c 4586 9abd 880b 83bd
00000370: ffee cb3c f864 e9bc 76a9 71bc 7dca 7ebd
00000380: 1ac7 3fbd a9fc c63c 120c 093d bcdb 04bd
00000390: b959 46bb c52d 23bd ab18 5bbc 9818 573c
000003a0: e37d a1bb cc46 af3c d67d 703d 47a4 3c3d
000003b0: e001 8f3c 3a1b 1c3d 8f0f 363c 9491 b63c
000003c0: 1f32 8f3d 9d43 bcbb 474b 473c b1df 933c
000003d0: b902 3d3c ce35 45bc 41b2 bd3c 3ab1 853c
000003e0: 0277 92bc 259f b9b9 1782 913d 3682 773d
000003f0: c416 603d afe6 633d 3927 5a3d 9c36 a03b

encoder.4.bias f4 [32]
-0.14586064 -0.17351198 -0.14167824 -0.12089862 -0.22707535 -0.18282793 -0.19080532 -0.061419528
-0.21675715 -0.12365996 -0.13901222 -0.12346433 -0.051147617 -0.17638999 -0.11602158 -0.089697555
-0.20737526 -0.07699928 -0.14519912 -0.20566756 -0.107063 -0.042432077 -0.12125254 -0.19570825
-0.10066289 -0.020686656 -0.08928765 -0.1429942 -0.22055177 -0.17170866 -0.10990973 -0.13471982
00000000: 7e5c 15be 20ad 31be 1a14 11be b299 f7bd
00000010: 7186 68be 3f37 3bbe 7862 43be 0b93 7bbd
00000020: 96f5 5dbe 6f41 fdbd 3859 0ebe deda fcbd
00000030: 2a80 51bd 949f 34be b99c edbd 5ab3 b7bd
00000040: 2e5a 54be ccb1 9dbd 14af 14be 849a 52be
00000050: d943 dbbd 42cd 2dbd 4053 f8bd be67 48be
00000060: 5828 cebd 1077 a9bc 72dc b6bd 126d 12be
00000070: 53d8 61be 65d4 2fbe 5a18 e1bd fef3 09be

encoder.5.weight f4 [32]
1.0295188 0.98098105 1.0337358 1.0108805 0.9803992 1.0155537 1.0033748 0.9976041
0.97745216 0.98135424 0.995744 0.9803154 0.9672243 0.99676776 0.9879048 1.0020334
1.0008738 1.0012275 0.98470974 0.9906583 1.0071977 0.9953279 0.9815268 0.97158784
0.99835014 1.0000473 0.9757277 0.9936318 1.0028293 0.978942 1.005184 0.9640091
00000000: 46c7 833f 9321 7b3f 7451 843f 8864 813f
00000010: 71fb 7a3f aafd 813f 966e 803f fb62 7f3f
00000020: 4e3a 7a3f 083a 7b3f 14e9 7e3f f3f5 7a3f
00000030: 039c 773f 2c2c 7f3f 54e7 7c3f a142 803f
00000040: a21c 803f 3928 803f f015 7c3f c89b 7d3f
00000050: dbeb 803f cfcd 7e3f 5745 7b3f fbb9 783f
00000060: e093 7f3f 8d01 803f 4ac9 793f a75e 7e3f
00000070: b65c 803f f19b 7a3f dfa9 803f 4dc9 763f

encoder.5.bias f4 [32]
0.040533587 -0.053085394 0.042972688 -0.019547913 -0.033337817 0.04595521 0.04970158 -0.0046349713
-0.032167774 -0.017137893 0.029366538 0.0037512616 -0.023349248 -0.052491426 -0.03608434 0.024040183
0.040747058 0.0041478705 -0.032655455 -0.06652127 -0.0048443708 -0.0022364117 -0.06453322 -0.047845725
0.006860808 0.012849696 -0.01727162 0.07803926 -0.0051037953 -0.015788095 0.01285634 -0.054360222
00000000: 8c06 263d 1270 59bd 2104 303d f222 a0bc
00000010: 3c8d 08bd 883b 3c3d e293 4b3d f5e0 97bb
00000020: 5bc2 03bd c464 8cbc 1892 f03c bad7 753b
00000030: ec46 bfbc 4001 57bd 2ccd 13bd ebef c43c
00000040: 63e6 263d dcea 873b bac1 05bd 4e3c 88bd
00000050: 87bd 9ebb c390 12bb fe29 84bd e1f9 43bd
00000060: a1d0 e03b 8887 523c 367d 8dbc 0cd3 9f3d
00000070: bd3d a7bb 0956 81bc 66a3 523c d3a8 5ebd

encoder.5.running_mean f4 [32]
-0.5755182 0.12918462 -0.09325982 0.047238037 -0.1351731 -0.626498 0.1546819 0.15320116
0.045115273 -0.22848168 0.20806612 0.22623576 0.009730072 0.004343909 0.13119073 -0.6877201
-0.6198564 -0.0015109014 -0.11644275 0.16169433 -0.3441408 -0.22584094 -0.029564915 0.23923074
0.09801254 -0.4436209 -0.3909449 -1.7690554 -1.7019758 -0.20183791 -0.14525042 0.37083295
00000000: 2955 13bf f948 043e 01ff bebd ac7c 413d
00000010: d16a 0abe 2c62 20bf ef64 1e3e c4e0 1c3e
00000020: cbca 383d 1af7 69be 490f 553e 59aa 673e
00000030: e16a 1f3c 5a57 8e3b dd56 063e 6d0e 30bf
00000040: e9ae 1ebf 7009 c6ba 8979 eebd 3393 253e
00000050: 3933 b0be d942 67be 1f32 f2bc e7f8 743e
00000060: ccba c83d 4722 e3be ee29 c8be 6870 e2bf
00000070: 58da d9bf 99ae 4ebe 87bc 14be d1dd bd3e

encoder.5.running_var f4 [32]
2.8578386 0.41714624 1.1158068 0.3342073 0.7199455 2.029338 2.5519726 0.9271806
0.35948095 1.2160038 2.0100522 1.583747 0.591682 0.4383863 1.362145 1.9717504
0.977921 0.5798475 0.5060232 0.30249017 2.1223197 1.5677458 0.26543504 0.32097933
1.7874455 1.2051142 0.4756775 0.8252592 0.44231045 0.44017524 1.490742 0.32038084
00000000: d4e6 3640 3194 d53e c2d2 8e3f 381d ab3e
00000010: 594e 383f ace0 0140 8553 2340 b55b 6d3f
00000020: e30d b83e 03a6 9b3f b2a4 0040 39b8 ca3f
00000030: 7978 173f 2b74 e03e c45a ae3f 5162 fc3f
00000040: 0859 7a3f e370 143f bd8a 013f fedf 9a3e
00000050: 16d4 0740 e5ab c83f 1ae7 873e 6757 a43e
00000060: 04cb e43f 2f41 9a3f 008c f33e 3044 533f
00000070: 8476 e23e a65e e13e a2d0 be3f f508 a43e

encoder.8.weight f4 [64, 32, 4, 4]
-0.047938455 -0.03953891 -0.062233828 -0.032206662 -0.040945332 -0.047754396 0.014589685 -0.018847521
-0.050775237 -0.038792074 -0.056198224 -0.058230497 -0.0073053404 -0.0135581475 -0.04096699 -0.04752416
-0.020974243 -0.0062683686 -0.014592501 0.03990492 0.04322208 -0.0049801874 0.011582433 -0.016399283
-0.030807177 -0.031200323 0.044927794 0.0096732145 0.0340491 0.016355509 -0.020245941 0.0018937112
-0.031045778 0.036938064 -0.03826184 -0.015496541 -0.009021399 -0.034920976 -0.01316509 0.023293681
0.029272981 -0.032087587 -0.040993787 0.016054343 0.03523735 -0.023753319 -0.023060782 -0.02577411
-0.011887542 -0.009730887 -0.07240348 -0.026501829 -0.028077532 0.04496724 -0.01465864 -0.052921977
0.0069751046 -0.013471526 -0.053916965 -0.060916778 -0.0030724506 -0.04109028 -0.014871555 -0.034143597
-0.013955164 0.00052209484 -0.005759044 -0.03378578 0.019202169 -0.013093878 -0.0047694403 -0.031227853
-0.024601182 0.027142389 0.01686943 -0.040245473 0.015101685 -0.015326726 -0.024743477 -0.032754675
-0.040656276 -0.021573644 -0.045310304 -0.05686449 0.015218792 -0.0369787 -0.06211736 -0.06374033
-0.0050779562 0.00067775586 0.022311464 -0.046936736 0.016595192 -0.0339082 -0.002770195 -0.031008191
0.022273881 -0.061067253 0.014486259 0.024185872 -0.041347504 0.02184452 -0.050970513 -0.0009945012
-0.017198695 0.021591585 -0.045454238 -0.0094318995 -0.0025749023 0.026592141 -0.033429552 0.0010194873
-0.03668134 0.048493523 0.022309912 -0.010548557 0.04126959 0.026194664 0.051760107 0.034848493
-0.008101153 -0.00757112 -0.00045759146 0.04821153 -0.03395156 0.037843894 0.046502087 0.019544234
0.005148031 -0.0038163727 0.012779421 -0.01897542 0.031216117 -0.0139031205 0.029515294 0.024039809
0.048761204 0.0007501729 0.030034585 -0.034919865 0.00554428 0.0044758595 -0.01035079 -0.028970497
0.019948075 0.026047645 -0.025780518 0.046332605 -0.021252641 0.01971043 -0.021113783 0.008124391
-0.0080382535 -0.030141192 0.024163995 -0.017864546 0.022141928 -0.006024751 -0.03611675 0.014373318
-0.016839204 0.0028553463 -0.0359491 -0.030175598 -0.065530576 -0.0073965397 -0.049587518 -0.07084308
0.00481059 -0.022346446 0.026899103 -0.020434996 -0.054445706 -0.018101986 -0.05552381 0.013929688
0.0029610237 -0.040120445 -0.033197496 0.009375043 -0.037263 0.006034133 0.0037866926 -0.048235856
-0.046089515 0.0072599594 -0.04917056 0.0033826882 0.022664439 -0.03384823 0.029136624 -0.03279047
0.016402915 0.021507498 0.032934714 -0.028183516 -0.030183008 0.0467491 0.040222425 -0.026335115
0.027170768 0.021710737 -0.02309952 0.01710816 0.00620412 -0.0002597225 0.03336126 -0.006856944
-0.031407166 -0.0011956843 0.03090157 0.040339902 -0.01050767 -0.005212057 0.042136375 -0.032775022
-0.025121264 0.03230719 -0.038375814 -0.0066806776 0.014518995 0.013215092 0.01080789 0.012593332
0.041168462 -0.024968455 0.01753486 -0.03418581 -0.029120842 -0.010496302 0.04442349 -0.008615036
-0.002207092 0.015746962 -0.02684167 -0.011645917 0.038196623 0.034414515 0.011443153 -0.0029919725
-0.0015034628 0.049367562 0.03200381 -0.021889606 -0.03777555 -0.00014793816 0.02025943 0.043050595
0.026460057 0.032293946 -0.01645059 0.0109194275 -0.048938904 0.010367434 0.039176885 -0.01817553
00000000: 1d5b 44bd 8df3 21bd e6e8 7ebd 22eb 03bd
00000010: 4bb6 27bd 1d9a 43bd 9309 6f3c 1e66 9abc
00000020: b2f9 4fbd 70e4 1ebd 1c30 66bd 1a83 6ebd
00000030: a361 efbb fe22 5ebc 01cd 27bd b2a8 42bd
00000040: 2dd2 abbc e366 cdbb 6315 6fbc 5773 233d
00000050: a309 313d d730 a3bb 3fc4 3d3c ca57 86bc
00000060: 555f fcbc d297 ffbc 3506 383d 677c 1e3c
00000070: 1277 0b3d fdfb 853c d1da a5bc 6736 f83a
00000080: b753 febc 5e4c 173d 72b8 1cbd 34e5 7dbc
00000090: 7dce 13bc 4c09 0fbd 64b2 57bc 64d2 be3c
000000a0: e4cd ef3c 466e 03bd 1ae9 27bd 6684 833c
000000b0: 0a55 103d 5296 c2bc f7e9 bcbc 3a24 d3bc
000000c0: f7c3 42bc 4c6e 1fbc 4748 94bd 5d1a d9bc
000000d0: da02 e6bc 922f 383d cb2a 70bc b7c4 58bd
000000e0: 6b8f e43b adb7 5cbc 09d8 5cbd df83 79bd
000000f0: 2b5b 49bb 484e 28bd d3a7 73bc 28da 0bbd
00000100: 33a4 64bc 31dd 083a 5db6 bcbb f562 0abd
00000110: de4d 9d3c b487 56bc f748 9cbb 8ed1 ffbc
00000120: 6b88 c9bc b759 de3c c231 8a3c 70d8 24bd
00000130: 0f6d 773c f31c 7bbc d5b2 cabc c429 06bd
00000140: 3287 26bd 36bb b0bc 4c97 39bd bdea 68bd
00000150: 3d58 793c fa76 17bd c66e 7ebd 4a8a 82bd
00000160: fc64 a6bb 6dab 313a 88c6 b63c bc40 40bd
00000170: a4f2 873c 53e3 0abd 298c 35bb e404 febc
00000180: b777 b63c a821 7abd c657 6d3c 7321 c63c
00000190: 005c 29bd 47f3 b23c 75c6 50bd ec59 82ba
000001a0: 47e4 8cbc d6e0 b03c 392e 3abd 4188 1abc
000001b0: b1bf 28bb c3d7 d93c 6ded 08bd 51a0 853a
000001c0: 2c3f 16bd 25a1 463d 47c3 b63c dbd3 2cbc
000001d0: 4d0a 293d 3196 d63c 6802 543d 4bbd 0e3d
000001e0: b3ba 04bc 2817 f8bb e3e8 efb9 7479 453d
000001f0: ca10 0bbd 3302 1b3d f978 3e3d 3b1b a03c
00000200: d0b0 a83b 1c1c 7abb c760 513c 5772 9bbc
00000210: f1b8 ff3c eac9 63bc 0fca f13c 22ef c43c
00000220: d4b9 473d 40a7 443a 170b f63c 2208 0fbd
00000230: cbac b53b 3baa 923b 5c96 29bc 8953 edbc
00000240: 256a a33c df61 d53c aa31 d3bc 42c7 3d3d
00000250: 051a aebc c577 a13c d0f6 acbc 2a1c 053c
00000260: e1b2 03bc a9ea f6bc 92f3 c53c ab58 92bc
00000270: fd62 b53c 466b c5bb 28ef 13bd 117e 6b3c
00000280: 5ff2 89bc c320 3b3b 5d3f 13bd d132 f7bc
00000290: e534 86bd ac5e f2bb 481c 4bbd 2d16 91bd
000002a0: 27a2 9d3b e50f b7bc 825b dc3c 4b67 a7bc
000002b0: 7602 5fbd 9e4a 94bc ef6c 63bd 5939 643c
000002c0: bc0d 423b 5655 24bd 19fa 07bd c899 193c
000002d0: 16a1 18bd fab9 c53b 292a 783b f692 45bd
000002e0: 5cc8 3cbd f4e4 ed3b 1267 49bd 17b0 5d3b
000002f0: c6aa b93c 71a4 0abd eeaf ee3c 4d4f 06bd
00000300: 685f 863c 7e30 b03c 8de6 063d 1ee1 e6bc
00000310: 5b42 f7bc fc7b 3f3d 45c0 243d bdbc d7bc
00000320: 3b95 de3c b7da b13c 343b bdbc 6926 8c3c
00000330: ee4b cb3b 5d2b 88b9 d1a5 083d 37b0 e0bb
00000340: cda4 00bd 82b8 9cba 4a25 fd3c 743b 253d
00000350: 5d28 2cbc e7c9 aabb 3197 2c3d 1a3f 06bd
00000360: 1ccb cdbc 8b54 043d f52f 1dbd 96e9 dabb
00000370: 14e1 6d3c 1d84 583c 9413 313c 4354 4e3c
00000380: 43a0 283d a58a ccbc 44a5 8f3c 6b06 0cbd
00000390: d58e eebc aef8 2bbc 68f5 353d 1426 0dbc
000003a0: dca4 10bb c6ff 803c 10e3 dbbc 84ce 3ebc
000003b0: 1074 1c3d 3cf6 0c3d 107c 3b3c f814 44bb
000003c0: d70f c5ba a435 4a3d 6d16 033d d551 b3bc
000003d0: 89ba 1abd d91f 1bb9 1bf7 a53c d255 303d
000003e0: c3c2 d83c a846 043d 63c3 86bc 66e7 323c
000003f0: 2974 48bd 2bdc 293c f177 203d d9e4 94bc

encoder.8.bias f4 [64]
-0.010496554 0.04929789 -0.060123235 -0.063270494 -0.022162855 -0.008799648 -0.052975044 -0.0437616
-0.0020466323 0.0091195125 0.039214578 0.031466495 -0.027051896 0.03722452 0.005378673 -0.013842097
0.023609659 0.006435948 -0.05171537 -0.02868459 0.02924934 -0.049976073 -0.070138924 0.017154071
0.04126024 -0.022887565 -0.0077036386 0.017066015 0.045869194 0.04133704 0.01126591 0.014821607
-0.021338072 0.03465556 0.023914324 -0.024550732 0.003939999 0.03570784 0.042766783 0.029984677
-0.028414423 0.0256389 0.010338075 -0.0024276506 -0.036225002 -0.037547994 0.018739875 -0.033882935
-0.0037456325 -0.014041738 -0.008987513 -0.004825442 -0.012787858 0.03679316 -0.029116893 0.041888706
-0.02723192 -0.0005452766 0.014886239 -0.024430819 0.026828166 -0.029889625 -0.011474043 0.019927535
00000000: bdf9 2bbc 96ec 493d c843 76bd f693 81bd
00000010: e08e b5bc 662c 10bc 5cfc 58bd 5d3f 33bd
00000020: cb20 06bb 026a 153c 779f 203d 03e3 003d
00000030: f09b ddbc bd78 183d 943f b03b f6c9 62bc
00000040: 0b69 c13c a5e4 d23b 7fd3 53bd f2fb eabc
00000050: 509c ef3c b6b3 4cbd ffa4 8fbd b286 8c3c
00000060: 7f00 293d b47e bbbc ce6e fcbb 07ce 8b3c
00000070: 56e1 3b3d 0751 293d a794 383c 53d6 723c
00000080: 2ecd aebc fdf2 0d3d f9e7 c33c 9e1e c9bc
00000090: 1b1b 813b 6242 123d 392c 2f3d 6da2 f53c
000000a0: 5dc5 e8bc ac08 d23c 0861 293c 3819 1fbb
000000b0: ab60 14bd edcb 19bd 5e84 993c d5c8 0abd
000000c0: 4979 75bb 510f 66bc 5d40 13bc be1e 9ebb
000000d0: 2a84 51bc 6db4 163d 8d86 eebc 7e93 2b3d
000000e0: 7a15 dfbc e5f0 0eba 69e5 733c 2423 c8bc
000000f0: bec6 db3c 16db f4bc a0fd 3bbc 123f a33c

encoder.9.weight f4 [64]
0.97397 0.9793154 1.0043584 0.9675923 0.9622135 1.0276066 1.0229515 0.943057
1.0400083 1.009451 0.9555723 1.0085075 0.96453464 0.9873916 1.0965841 0.9760718
0.96930796 0.9989361 0.98898363 0.9967586 1.0194051 0.9649695 0.9941344 0.9844315
1.0045149 1.0205753 0.9901996 0.9879214 0.9548591 0.9633879 1.01637 0.9310201
0.9883842 0.9938666 0.9830892 0.97851896 0.9938217 0.979371 1.0423659 0.9807253
0.95151335 1.0297287 0.9938747 0.9843934 0.9885351 1.0167617 0.9618828 0.98343897
0.9924907 0.94619334 0.94726676 1.0168899 0.97445005 1.0033027 0.9877138 1.0951084
0.9894963 0.9907856 0.9757644 0.9834738 0.9665357 0.970828 1.0223141 0.9893549
00000000: 1956 793f 6ab4 7a3f d18e 803f 21b4 773f
00000010: a053 763f 9d88 833f 13f0 823f 2f6c 713f
00000020: fe1e 853f b135 813f 63a0 743f c616 813f
00000030: beeb 763f b2c5 7c3f de5c 8c3f d7df 793f
00000040: 9124 783f 47ba 7f3f 082e 7d3f 922b 7f3f
00000050: de7b 823f 3e08 773f 987f 7e3f b403 7c3f
00000060: f293 803f 36a2 823f b97d 7d3f 6be8 7c3f
00000070: a571 743f 97a0 763f 6a18 823f 5557 6e3f
00000080: bf06 7d3f 0b6e 7e3f bcab 7b3f 3880 7a3f
00000090: 196b 7e3f 0fb8 7a3f 3f6c 853f d010 7b3f
000000a0: 6196 733f 26ce 833f 936e 7e3f 3501 7c3f
000000b0: a310 7d3f 3f25 823f f43d 763f a8c2 7b3f
000000c0: df13 7e3f ba39 723f 1380 723f 7329 823f
000000d0: 8f75 793f 396c 803f d0da 7c3f 832c 8c3f
000000e0: a14f 7d3f 20a4 7d3f b2cb 793f f0c4 7b3f
000000f0: e26e 773f 2f88 783f 30db 823f 5d46 7d3f

encoder.9.bias f4 [64]
-0.016384156 0.012833795 0.0055375267 -0.04409806 -0.03666851 -0.066545814 0.017527761 -0.0068204612
0.067464605 0.009351271 -0.035507176 0.05357453 -0.028733706 -0.024428422 -0.005408726 -0.033354864
-0.016736826 -0.0450498 -0.0017306602 0.001115785 0.06997094 0.0015919596 -0.042322017 0.019798493
0.05250004 0.006415738 0.017852617 0.02088671 -0.039759763 -0.0128690405 -0.012759248 -0.026859172
0.0041599744 0.033234272 0.007653763 -0.0104946 -0.0364141 -0.039810948 -0.021066725 0.005846997
-0.0050177868 0.041899722 0.030411962 -0.049992505 -0.029695557 0.031864747 -0.007141102 -0.03065354
-0.007950792 -0.053810388 -0.034837663 -0.00022989395 -0.08934806 0.018801896 -0.023770485 -0.0013605775
-0.005717618 -0.03913743 -0.031426422 -0.0023861406 -0.023071341 0.0018792899 0.024540577 0.016560124
00000000: 1138 86bc d644 523c 2474 b53b 2ba0 34bd
00000010: b831 16bd 2c49 88bd 6196 8f3c 2d7e dfbb
00000020: e22a 8a3d 1336 193c f96f 11bd f770 5b3d
00000030: f362 ebbc 1d1e c8bc af3b b1bb 1c9f 08bd
00000040: ab1b 89bc 2486 38bd 52d7 e2ba 883f 923a
00000050: ed4c 8f3d 4da9 d03a da59 2dbd 7330 a23c
00000060: 480a 573d 1c3b d23b a73f 923c 9b1a ab3c
00000070: 22db 22bd abd8 52bc 2a0c 51bc c407 dcbc
00000080: 6550 883b a920 083d 6bcc fa3b 8bf1 2bbc
00000090: f426 15bd ce10 23bd 2094 acbc 2a98 bf3b
000000a0: 3f6c a4bb 0b9f 2b3d 8222 f93c f1c4 4cbd
000000b0: 1944 f3bc 9c84 023d e8ff e9bb 221d fbbc
000000c0: 0a44 02bc 4868 5cbd f0b1 0ebd b00f 71b9
000000d0: 1efc b6bd 6f06 9a3c 52ba c2bc 6855 b2ba
000000e0: db5a bbbb 924e 20bd feb8 00bd cc60 1cbb
000000f0: 1c00 bdbc 8152 f63a 5209 c93c 19a9 873c

encoder.9.running_mean f4 [64]
-0.39426577 -1.3692979 -0.96689844 0.18766534 0.18993859 0.04353287 -1.4635757 -0.87242764
-0.53000295 -1.0889741 0.37519607 -0.8472517 -0.32062826 0.31571895 -0.49120805 0.10398296
-0.66929865 -0.4101165 -0.037587564 -2.1832395 -0.42098936 -0.7116692 0.0069311843 -0.13776505
-2.5475168 -1.3492726 -0.5053616 -1.0248518 0.04307647 0.14362371 -2.17411 0.45447034
-1.5039537 -0.91844153 -0.056625675 0.30420548 -0.010695636 -0.009384896 -0.28307128 -0.027498558
-0.46012592 -2.2306125 0.08136553 0.22492476 -0.24786276 -0.59869117 -0.5768689 -0.3147826
-0.07988757 0.63705343 0.18775436 -1.2062701 0.47659287 -0.23139256 -1.4097732 -1.1149476
-1.0379819 -0.17168845 0.2791062 -0.4142366 0.3537929 -1.3097214 -0.9207938 -1.2112409
00000000: 34dd c9be 2745 afbf a886 77bf 582b 403e
00000010: 437f 423e 864f 323d 7356 bbbf 6b57 5fbf
00000020: 46ae 07bf 8163 8bbf b319 c03e 7de5 58bf
00000030: 6329 a4be eaa5 a13e 9f7f fbbe 05f5 d43d
00000040: 2857 2bbf cafa d1be 6bf5 19bd 32ba 0bc0
00000050: eb8b d7be f42f 36bf fd1e e33b 4812 0dbe
00000060: 840a 23c0 f7b4 acbf 615f 01bf 582e 83bf
00000070: f470 303d 1812 133e 9e24 0bc0 56b0 e83e
00000080: 8e81 c0bf fc1e 6bbf 53f0 67bd d2c0 9b3e
00000090: c03c 2fbc 1bc3 19bc b8ee 90be a844 e1bc
000000a0: a095 ebbe 5bc2 0ec0 f9a2 a63d ad52 663e
000000b0: bccf 7dbe d343 19bf aead 13bf 2f2b a1be
000000c0: 189c a3bd ef15 233f ae42 403e 0f67 9abf
000000d0: fb03 f43e 2cf2 6cbe 7373 b4bf 9ab6 8ebf
000000e0: 97dc 84bf 19cf 2fbe 02e7 8e3e d216 d4be
000000f0: 5824 b53e f3a4 a7bf 24b9 6bbf f109 9bbf

encoder.9.running_var f4 [64]
2.7454572 2.1737533 7.117242 3.3126006 2.2286053 1.4057902 3.730132 3.4696913
4.759045 3.049918 2.4765658 4.9393983 1.3894477 1.8534606 1.6831635 2.9951303
2.5852509 0.96945626 2.5774617 0.96654695 0.9140285 3.1808834 1.6333998 2.8273609
4.4986115 5.0239506 3.4677434 5.06354 1.4009652 4.0515666 0.6735153 2.3813357
1.6886046 2.37696 3.2596574 3.1285887 2.1203632 3.1340997 3.4267673 4.083358
3.4156141 0.88347733 3.2165377 2.921653 1.460264 4.976259 3.330815 0.75735974
3.6183753 4.0717463 2.534279 6.0577745 0.5264489 3.863936 2.6887949 1.0416392
5.549509 4.7878 0.8940019 1.636177 2.1822479 2.7580767 4.249166 2.829055
00000000: 92b5 2f40 c61e 0b40 72c0 e340 a601 5440
00000010: 78a1 0e40 eff0 b33f 7cba 6e40 6c0f 5e40
00000020: 194a 9840 db31 4340 0e80 1e40 8d0f 9e40
00000030: 6cd9 b13f 323e ed3f e771 d73f 37b0 3f40
00000040: c074 2540 492e 783f 22f5 2440 9f6f 773f
00000050: c6fd 693f 9893 4b40 3f13 d13f 7bf3 3440
00000060: a0f4 8f40 34c4 a040 82ef 5d40 8508 a240
00000070: d452 b33f 6fa6 8140 806b 2c3f ce67 1840
00000080: 3224 d83f 1d20 1840 3a9e 5040 cc3a 4840
00000090: 08b4 0740 1795 4840 2850 5b40 deaa 8240
000000a0: 6c99 5a40 922b 623f c1db 4d40 5dfc 3a40
000000b0: eee9 ba3f 843d 9f40 132c 5540 54e2 413f
000000c0: 7693 6740 bf4b 8240 a131 2240 4ad9 c140
000000d0: 5bc5 063f ba4a 7740 3715 2c40 6f54 853f
000000e0: 9495 b140 a835 9940 4fdd 643f 3f6e d13f
000000f0: f3a9 0b40 5484 3040 2bf9 8740 3d0f 3540

decoder.0.weight f4 [64, 32, 4, 4]
-0.040731862 0.034778975 -0.010771954 0.036788013 -0.01710358 0.02822285 0.040398873 -0.045020413
-0.012518113 -0.0033735891 0.03831454 0.024563055 -0.005464111 0.019650316 0.036222063 -0.014682448
-0.018585168 -0.006335094 0.021734275 0.020818723 0.012697034 0.03170287 0.011904941 0.038630884
0.008680401 0.012543134 0.045900922 0.03979641 -0.024877949 0.0110623315 0.047494285 0.039664425
-0.010773341 0.004048343 -0.031912066 -0.015782557 0.0017896068 0.012120551 0.017344652 0.018950365
0.03314739 0.049259704 0.008628491 0.03275803 -0.028271178 0.030283261 -0.031565372 -0.018463692
-0.0520364 -0.0147600565 0.014026059 -0.04389561 -0.023914905 0.052496392 0.0038798142 -0.024622971
-0.013182313 -0.019792827 -0.017138269 0.0388178 0.03136714 0.036146283 -0.020091992 -0.010453944
-0.024139257 0.05215047 0.016415674 0.024243498 -0.028614562 0.045589354 0.028602086 -0.034745112
0.038156815 -0.01519898 -0.011115366 0.053233445 -0.029100921 0.0022531364 -0.01818713 -4.7254864e-05
-0.037230086 0.012632536 0.022191161 -0.0009575145 0.009336054 0.012334771 0.050443016 -0.028147249
0.009466088 0.024304174 -0.03134107 0.015758771 0.049633443 0.04381472 0.0018871828 -0.030293712
0.006784705 -0.010438601 -0.013605505 -0.015557723 0.019166032 0.006541136 0.028575864 0.03480736
0.025714645 -0.01191464 0.034237813 0.012176162 -0.016126871 0.00052974134 -0.02851476 -0.027350781
0.010446122 0.0035487728 0.0009177158 -6.5780994e-05 0.033162206 -0.013358421 0.019875765 -0.00387074
-0.043607414 0.0017834601 0.020485263 -0.057589937 -0.027902478 -0.061451074 -0.02685542 0.0077896086
-0.020955438 0.020009547 -0.019189706 0.007652608 -0.04312102 -0.027284332 -0.024894163 0.019107016
0.04669561 0.027671643 -0.022742389 -0.013775321 -0.029202769 -0.037583455 -0.014314847 -0.0193545
-0.03852607 -0.023935672 0.0005045038 -0.056059193 0.05111942 -0.019555083 0.007632637 -0.018180672
0.0011050686 -0.024802279 -0.05246023 0.0011545585 -0.014825958 -0.0014410461 -0.011469586 -0.033654235
0.031151682 0.0033074163 -0.008412502 0.008423408 -0.0067124185 -0.019132938 0.008671419 -0.0160403
-0.021595674 -0.007610727 -0.022706134 0.008173615 -0.020243479 -0.018277887 0.033650342 0.0013118243
-0.0090925535 0.019267935 -0.0010435256 0.004533812 0.0067328177 0.037123185 -0.010348023 0.039418057
-0.02000767 -0.030570578 0.0038116546 -0.043126624 0.017981125 0.014175723 -0.005197479 0.019488834
0.034333564 0.027297944 0.003469397 -0.0069977585 -0.01643352 -0.020174237 0.026222624 -0.06441289
0.020115394 -0.002183257 0.035841584 0.02822304 0.0035331286 -0.0068664746 -0.024552064 0.017455736
0.023869772 -0.050060753 0.037865378 0.0029453048 -0.0009787303 -0.013163041 -0.03003575 -0.01608783
-0.02818073 -0.015947532 0.016341656 0.00642927 0.00782991 -0.03120047 0.00016310773 0.032079607
-0.030196398 0.0030972632 -0.035361327 -0.042858325 -0.0121417865 -0.035085745 -0.011935395 -0.04795835
-0.012187847 0.028772993 0.018441008 0.026084045 -0.034261104 -0.011162933 -0.011823494 0.02430346
0.0085625425 -0.012805027 -0.010499162 -0.035937067 0.0339942 -0.04970096 -0.026967097 -0.022600885
-0.0025512432 0.025467297 -0.0008494033 -0.038468406 0.0054518906 -0.02537474 -0.023836413 0.0045472975
00000000: 74d6 26bd 6674 0e3d da7c 30bc 07af 163d
00000010: cf1c 8cbc 9b33 e73c 4a79 253d 5367 38bd
00000020: c518 4dbc 6f17 5dbb b5ef 1c3d 7638 c93c
00000030: 490c b3bb b3f9 a03c 965d 143d a68e 70bc
00000040: ec3f 98bc 9f96 cfbb 140c b23c 078c aa3c
00000050: 3807 503c deda 013d f10c 433c 6b3b 1e3d
00000060: 3e38 0e3c b881 4d3c 9b02 3c3d 8f01 233d
00000070: d7cc cbbc c83e 353c 5e89 423d 2a77 223d
00000080: ab82 30bc f6a7 843b 3ab6 02bd 6c4a 81bc
00000090: 3d91 ea3a 4795 463c 5f16 8e3c cc3d 9b3c
000000a0: 8fc5 073d 8bc4 493d 845e 0d3c 492d 063d
000000b0: f598 e7bc 9a14 f83c b14a 01bd 2b41 97bc
000000c0: 1f24 55bd 2ad4 71bc 8ecd 653c e2cb 33bd
000000d0: 31e9 c3bc 7506 573d 7b44 7e3b 1db6 c9bc
000000e0: a1fa 57bc 9124 a2bc 8e65 8cbc 6aff 1e3d
000000f0: d57a 003d 200e 143d f697 a4bc 0547 2bbc
00000100: b1bf c5bc bb9b 553d 2a7a 863c 4d9a c63c
00000110: 1669 eabc e7bb 3a3d ec4e ea3c e450 0ebd
00000120: 524a 1c3d 2505 79bc 391d 36bc 500b 5a3d
00000130: 0e65 eebc 5ba9 133b 2dfd 94bc 8633 46b8
00000140: 937e 18bd b2f8 4e3c 3dca b53c b601 7bba
00000150: 40f6 183c c817 4a3c 569d 4e3d 0f95 e6bc
00000160: a717 1b3c 8c19 c73c 7e5f 00bd 8a18 813c
00000170: 704c 4b3d 1077 333d 595b f73a 852a f8bc
00000180: 3b52 de3b aa06 2bbc a0e9 5ebc d2e5 7ebc
00000190: 1502 9d3c 0757 d63b ee17 ea3c 2a92 0e3d
000001a0: 85a7 d23c 9f35 43bc f33c 0c3d 867e 473c
000001b0: 801c 84bc 57de 0a3a c997 e9bc bf0e e0bc
000001c0: 3626 2b3c 8792 683b dd92 703a e7f3 89b8
000001d0: 18d5 073d 47dd 5abc 80d2 a23c 3eac 7dbb
000001e0: b09d 32bd fec2 e93a b6d0 a73c 6de3 6bbd
000001f0: bd93 e4bc 1fb4 7bbd e6ff dbbc f93f ff3b
00000200: bdaa abbc 10eb a33c bb33 9dbc bbc2 fa3b
00000210: ab9f 30bd 6483 dfbc d8ee cbbc 5186 9c3c
00000220: e543 3f3d a4af e23c 3f4e babc e2b1 61bc
00000230: a53a efbc 1cf1 19bd d288 6abc 548d 9ebc
00000240: 83cd 1dbd be14 c4bc ad40 043a 539e 65bd
00000250: 9962 513d fb31 a0bc 331b fa3b a2ef 94bc
00000260: f3d7 903a 262e cbbc 8ae0 56bd 8e54 973a
00000270: 93e8 72bc 7ce1 bcba eeea 3bbc 06d9 09bd
00000280: d031 ff3c 3dc1 583b 97d4 09bc 5502 0a3c
00000290: d9f3 dbbb aebc 9cbc 9112 0e3c f266 83bc
000002a0: 69e9 b0bc 6863 f9bb 3702 babc a0ea 053c
000002b0: a7d5 a5bc 82bb 95bc f1d4 093d 85f1 ab3a
000002c0: eff8 14bc cad7 9d3c e9c6 88ba 5f90 943b
000002d0: f89e dc3b 7b0e 183d c18a 29bc d474 213d
000002e0: 20e7 a3bc 266f fabc f4cc 793b 8ba5 30bd
000002f0: 274d 933c 4b41 683c 9d4f aabb 0ca7 9f3c
00000300: 5aa1 0c3d f09f df3c d35e 633b 744d e5bb
00000310: 979f 86bc 7144 a5bc d4d0 d63c e8ea 83bd
00000320: 0ac9 a43c f914 0fbb a0ce 123d 0134 e73c
00000330: 108c 673b 2a00 e1bb 6921 c9bc 55ff 8e3c
00000340: 8a8a c33c 810c 4dbd ba18 1b3d 0406 413b
00000350: bd48 80ba cca9 57bc 880d f6bc a0ca 83bc
00000360: 46db e6bc 66a4 82bc f0de 853c a0ac d23b
00000370: 0649 003c 2198 ffbc e607 2b39 e865 033d
00000380: 705e f7bc 74fb 4a3b 0ad7 10bd 368c 2fbd
00000390: 58ee 46bc 12b6 0fbd ad8c 43bc fa6f 44bd
000003a0: 89af 47bc 57b5 eb3c 9911 973c 35ae d53c
000003b0: 5f55 0cbd bce4 36bc 54b7 41bc 0d18 c73c
000003c0: e849 0c3c 2dcc 51bc ad04 2cbc bf32 13bd
000003d0: 813d 0b3d 3c93 4bbd 1aea dcbc 7e25 b9bc
000003e0: c232 27bb cba0 d03c 7eaa 5eba 0c91 1dbd
000003f0: c6a5 b23b b0de cfbc 9544 c3bc 7f01 953b

decoder.0.bias f4 [32]
-0.15068425 -0.1610334 -0.17550911 -0.093079455 -0.14284489 -0.19258668 -0.13116533 -0.15925807
-0.1824131 -0.08906275 -0.11925977 -0.10980921 -0.16489848 -0.1129112 -0.17775868 -0.11792368
-0.13545239 -0.13667051 -0.13140847 -0.16581519 -0.11145136 -0.14007406 -0.13435254 -0.13771741
-0.13704646 -0.103505015 -0.12257685 -0.13713218 -0.08488435 -0.06868376 -0.17313683 -0.12354756
00000000: f94c 1abe f1e5 24be a9b8 33be 71a0 bebd
00000010: ee45 12be 7135 45be 3450 06be 8c14 23be
00000020: 80ca 3abe 8866 b6bd 773e f4bd a7e3 e0bd
00000030: 26db 28be fd3d e7bd 5f06 36be f881 f1bd
00000040: 08b4 0abe 5bf3 0bbe f18f 06be 75cb 29be
00000050: 9c40 e4bd 936f 0fbe b693 09be cb05 0dbe
00000060: e855 0cbe 70fa d3bd 9209 fbbd 616c 0cbe
00000070: d9d7 adbd 12aa 8cbd c84a 31be 8106 fdbd

decoder.1.weight f4 [32]
1.0029855 1.046925 0.960917 0.9805261 0.9759523 1.0288972 0.97733974 0.96375465
1.0004522 0.99570584 0.9913068 0.94009405 0.96008563 1.0252277 0.92616063 0.97143376
0.9741905 0.98340887 1.0087459 0.9744267 0.95884156 1.0028862 1.0080363 1.0082979
0.9438746 1.0474098 0.9424737 1.0370004 1.0020351 0.9585117 1.0503635 0.9980636
00000000: d461 803f a301 863f a8fe 753f c203 7b3f
00000010: 03d8 793f e7b2 833f f032 7a3f a0b8 763f
00000020: d10e 803f 94e6 7e3f 48c6 7d3f 01aa 703f
00000030: 2cc8 753f a93a 833f dd18 6d3f e2af 783f
00000040: 8c64 793f afc0 7b3f 961e 813f 0774 793f
00000050: a476 753f 935e 803f 5507 813f e80f 813f
00000060: c4a1 713f 8611 863f f545 713f 6ebc 843f
00000070: b042 803f 0661 753f 5072 863f 1981 7f3f

decoder.1.bias f4 [32]
-0.009750118 0.017591447 -0.033821408 0.0018913241 -0.014873945 -0.032857634 -0.0027665666 0.004731209
0.019959675 -0.11948867 0.015228167 -0.07272998 -0.023216339 0.051573496 -0.0129435565 -0.04113293
0.051914968 -0.013319192 0.054057673 -0.050999094 -0.061285786 0.01153019 0.0017484472 0.042085584
-0.040569983 0.005351927 -0.032727785 0.010095735 0.010903472 -0.04210599 0.019459788 0.036667027
00000000: f5be 1fbc f01b 903c 5188 0abd 4ee6 f73a
00000010: d9b1 73bc ba95 06bd 494f 35bb 4208 9b3b
00000020: 7982 a33c 7ab6 f4bd 907f 793c 75f3 94bd
00000030: 3130 bebc bb3e 533d 3611 54bc 017b 28bd
00000040: caa4 543d be38 5abc 946b 5d3d 6de4 50bd
00000050: ce06 7bbd 1fe9 3c3c 272c e53a ef61 2c3d
00000060: b62c 26bd 385f af3b 920d 06bd 9568 253c
00000070: 7aa4 323c 5577 2cbd 226a 9f3c 2a30 163d

decoder.1.running_mean f4 [32]
-0.22689898 -0.22445509 -0.36220852 -0.22929047 -0.07301463 -0.13983938 0.1863002 -0.29747668
-0.8838199 0.18746674 0.076055035 0.27339882 -0.35367933 -0.7820438 -0.82589597 -0.37647775
-0.49997422 0.13903561 -0.41041556 -0.1611786 0.07811866 -0.16893579 -0.1625112 -0.7071625
-0.32485166 -0.39329782 -0.4916412 -0.3072437 0.16097447 -0.119688384 -0.44773823 -0.120204695
00000000: 3558 68be 8ed7 65be 6573 b9be 1fcb 6abe
00000010: b288 95bd 0e32 0fbe 7bc5 3e3e dd4e 98be
00000020: 0542 62bf 48f7 3f3e bec2 9b3d eefa 8b3e
00000030: 7515 b5be 0634 48bf eb6d 53bf b1c1 c0be
00000040: 9ffc ffbe 5a5f 0e3e fd21 d2be 010c 25be
00000050: adfc 9f3d 81fd 2cbe 5669 26be 9a08 35bf
00000060: f552 a6be 555e c9be 65b8 fbbe 0c4f 9dbe
00000070: 7ed6 243e 2f1f f5bd f23d e5be e12d f6bd

decoder.1.running_var f4 [32]
0.5513589 0.5405207 1.1190869 1.3308139 1.2598816 0.7809533 0.89274496 0.7108389
1.3104147 0.47804764 1.1852022 1.010204 0.9207639 1.2228644 1.1532526 1.1225667
0.52117866 1.2154956 1.1471212 0.2534957 0.37456036 0.56209403 0.7080413 1.3001103
1.6172901 0.88609564 1.56852 0.75496805 0.8260801 1.5731708 0.6678211 0.72776717
00000000: db25 0d3f 915f 0a3f 3d3e 8f3f 1c58 aa3f
00000010: cd43 a13f 8eec 473f ef8a 643f 8af9 353f
00000020: abbb a73f a9c2 f43e b5b4 973f 5d4e 813f
00000030: 2fb7 6b3f d286 9c3f c89d 933f 44b0 8f3f
00000040: f76b 053f 5c95 9b3f ded4 923f 30ca 813e
00000050: 60c6 bf3e 65e5 0f3f 3242 353f 046a a63f
00000060: 5d03 cf3f 2ad7 623f 43c5 c83f 9645 413f
00000070: fc79 533f a95d c93f 53f6 2a3f f34e 3a3f

decoder.3.weight f4 [32, 16, 4, 4]
0.040201183 0.036734074 0.03398582 0.039019093 -0.040654577 -0.053675808 -0.049769375 -0.019853447
-0.049204327 -0.059726812 0.0030877602 -0.05068447 -0.014831341 -0.008363322 -0.029692287 0.023394171
0.028258722 -0.010203441 0.012193688 -0.024087183 0.04740884 0.02186559 -0.00490542 -0.048879243
0.046281364 0.027565664 0.073296875 -0.020341296 0.01177757 -0.011055133 0.036089722 -0.047840588
-0.016081607 0.017833436 0.044088293 0.023835583 -0.06938496 0.08537778 -0.033652026 -0.011434841
0.0027443222 0.08573483 0.085678674 0.058613315 -0.056365103 0.09622136 0.03911554 0.06658685
-0.048017707 0.046830915 -0.07450581 0.045318145 -0.052713644 0.02658811 0.048287112 0.054509655
-0.011422314 0.092829116 -0.0012777786 -0.0010894223 0.024665104 0.0100383125 0.010177108 -0.049963553
-0.0036271655 0.0012042735 0.03625084 0.012049582 -0.014812352 0.06725817 0.02645745 0.03039435
0.044010464 0.052841574 0.053564448 0.0052517266 0.02241879 0.07850211 0.047071204 0.026958957
-0.013424324 0.0041936054 -0.034913793 2.8737317e-05 -0.031130692 0.004364557 0.01101566 -0.023437565
0.040060114 -0.0066735637 0.0020621172 -0.002710936 0.045970626 -0.0045666094 -0.029880982 0.026459204
0.013178855 -0.023497658 -0.009638472 -0.06823831 0.036168158 -0.0685332 -0.057053156 -0.0760689
0.016760744 -0.055223845 -0.037416816 0.00015134648 -0.06617913 -0.055012766 0.026550628 0.024304364
-0.038122814 0.028403142 -0.026237732 -0.03110333 0.012487638 0.019426754 -0.028054057 -0.020111443
0.048490077 0.040382758 -0.0033245229 0.057733003 0.03500361 0.0060635256 0.06457581 -0.005748226
0.040497605 -0.012950689 -0.02743316 -0.0050004935 -0.020826543 0.035537742 -0.0189995 -0.041334994
0.073824555 -0.0047920006 -0.0064589675 -0.012095479 -0.011949059 0.0930746 -0.015548439 0.076421924
0.01327045 0.01805037 -0.00028771328 -0.034609996 0.027575126 -0.05450952 -0.05147111 0.010007506
0.0427222 -0.0020771166 -0.04574259 0.011732914 -0.03944954 -0.070798635 -0.05339508 0.018711992
0.035359796 -0.04241515 0.025319394 0.0112191 0.04273839 0.05762571 0.04611927 0.042532604
0.011076594 0.070286326 0.046362787 0.07795807 -0.025027825 0.010194265 0.041903276 0.026242342
0.026512716 0.025869943 0.030914338 -0.04441923 -0.0042059678 0.030052576 0.07063573 0.022312935
-0.01789959 0.015121135 -0.028962646 0.06306299 -0.024840739 0.043799706 -0.038413435 -0.014366764
-0.020391671 -0.033941 0.034632795 0.010369491 -0.03766675 0.028715493 0.054371636 0.052016404
0.0046073007 -0.00063163484 0.03200018 0.023998959 -0.011745925 0.050312705 0.021022664 0.006453257
0.011043239 -0.024228245 -0.03512493 -0.005630105 -0.013137025 0.010296142 0.017892243 -0.043288928
-0.040957745 0.026596395 0.037763704 -0.029866664 0.023537645 -0.052871533 -0.06406323 -0.036556296
-0.009918104 -0.035658494 0.0044955406 0.0064738183 0.046970267 0.0034567511 0.038960695 0.03523828
0.054744855 0.06491189 0.025891252 0.07776738 0.044265803 0.035712518 0.040576763 0.034754183
0.027022539 -0.009751613 -0.060425587 0.021657158 0.0365407 -0.007299507 0.05045116 0.015368066
-0.005476652 0.0070672035 -0.026080495 -0.0032696135 0.05354204 0.028192526 0.06890516 0.017120626
00000000: ffa9 243d 7876 163d b734 0b3d 7cd2 1f3d
00000010: 6a85 26bd 2adb 5bbd f9da 4bbd b2a3 a2bc
00000020: 7a8a 49bd 1aa4 74bd 055c 4a3b 859a 4fbd
00000030: 27ff 72bc 5106 09bc 3d3d f3bc 22a5 bf3c
00000040: d67e e73c 552c 27bc 09c8 473c 7c52 c5bc
00000050: c62f 423d 771f b33c a5bd a0bb 9a35 48bd
00000060: 8791 3d3d 63d1 e13c ac1c 963d caa2 a6bc
00000070: b5f6 403c 9720 35bc d1d2 133d 7ef4 43bd
00000080: 93bd 83bc 6d17 923c ed95 343d d742 c33c
00000090: b419 8ebd 8cda ae3d b5d6 09bd 3359 3bbc
000000a0: 16da 333b be95 af3d 4d78 af3d 8414 703d
000000b0: 18df 66bd b40f c53d 9e37 203d b05e 883d
000000c0: 37ae 44bd c6d1 3f3d 8196 98bd 859f 393d
000000d0: 43ea 57bd 4fcf d93c b5c8 453d 8445 5f3d
000000e0: a824 3bbc 311d be3d 237b a7ba f2ca 8eba
000000f0: 790e ca3c bc77 243c e3bd 263c 95a6 4cbd
00000100: bdb5 6dbb b7d8 9d3a c37b 143d 9c6b 453c
00000110: 82af 72bc a7be 893d 4bbd d83c 92fd f83c
00000120: 5144 343d 6870 583d 6566 5b3d ad16 ac3b
00000130: 9ca7 b73c b7c5 a03d bccd 403d 08d9 dc3c
00000140: b2f1 5bbc 836a 893b c401 0fbd eb10 f137
00000150: cb05 ffbc 8f04 8f3b 077b 343c 2300 c0bc
00000160: 1316 243d e9ad dabb 9624 073b f5a9 31bb
00000170: b24b 3c3d 7fa3 95bb f6c8 f4bc f9c0 d83c
00000180: 20ec 573c 297e c0bc afea 1dbc 87c0 8bbd
00000190: 1025 143d 225b 8cbd 92b0 69bd 03ca 9bbd
000001a0: d44d 893c 6632 62bd 6042 19bd c3b2 1e39
000001b0: ec88 87bd 1155 61bd b480 d93c f219 c73c
000001c0: ab26 1cbd b5ad e83c 83f0 d6bc 69cc febc
000001d0: f398 4c3c db24 9f3c 9fd1 e5bc c1c0 a4bc
000001e0: 889d 463d 6468 253d 3de0 59bb 7179 6c3d
000001f0: f25f 0f3d 8ab0 c63b 5340 843d 9d5b bcbb
00000200: d1e0 253d 202f 54bc 82bb e0bc 2edb a3bb
00000210: 6d9c aabc 0690 113d d7a4 9bbc e24e 29bd
00000220: 5431 973d 3706 9dbb bfa5 d3bb 1e2c 46bc
00000230: fcc5 43bc e59d be3d e1be 7ebc 1983 9c3d
00000240: 4d6c 593c 5fde 933c 39d8 96b9 36c3 0dbd
00000250: 3be5 e13c 6045 5fbd 5fd3 52bd 86f6 233c
00000260: 79fd 2e3d 3c20 08bb 955c 3bbd 683b 403c
00000270: d795 21bd e0fe 90bd cdb4 5abd e449 993c
00000280: 6fd5 103d 82bb 2dbd 9e6a cf3c 51d0 373c
00000290: 730e 2f3d f008 6c3d 8fe7 3c3d ab36 2e3d
000002a0: 9a7a 353c 47f2 8f3d e8e6 3d3d 7ba8 9f3d
000002b0: 2707 cdbc d905 273c c5a2 2b3d 2efa d63c
000002c0: 3231 d93c 34ed d33c 1140 fd3c f0f0 35bd
000002d0: 37d2 89bb d230 f63c 77a9 903d 9ec9 b63c
000002e0: 29a2 92bc a3be 773c 1243 edbc 2b27 813d
000002f0: ce7e cbbc 5267 333d 6857 1dbd 9362 6bbc
00000300: 6f0c a7bc b805 0bbd 1edb 0d3d cce4 293c
00000310: 7348 1abd c13c eb3c cbb4 5e3d 270f 553d
00000320: d7f8 963b 4c94 25ba 9f12 033d 7799 c43c
00000330: fb71 40bc b214 4e3d b937 ac3c d875 d33b
00000340: b4ee 343c 507a c6bc 29df 0fbd be7c b8bb
00000350: ad3c 57bc 26b1 283c c192 923c bb4f 31bd
00000360: 4fc3 27bd afe0 d93c 1dae 1a3d efaa f4bc
00000370: 05d2 c03c d28f 58bd 9533 83bd 0ebc 15bd
00000380: 8b7f 22bc a40e 12bd 544f 933b 5322 d43b
00000390: e563 403d a98a 623b 4095 1f3d 0456 103d
000003a0: 243c 603d 86f0 843d e419 d43c 8144 9f3d
000003b0: 0f50 353d 4a47 123d d233 263d 675a 0e3d
000003c0: 5f5e dd3c 3bc5 1fbc d280 77bd 5a6a b13c
000003d0: b3ab 153d b430 efbb e0a5 4e3d 57ca 7b3c
000003e0: 7d75 b3bb 0094 e73b c3a6 d5bc 0347 56bb
000003f0: e64e 5b3d 03f4 e63c 261e 8d3d 8e40 8c3c

decoder.3.bias f4 [16]
-0.04575012 0.057967775 -0.0016759817 -0.004900193 0.019415079 -0.007522536 -0.045409996 -0.01799433
-0.033847716 -0.06638532 -0.008314648 0.027926514 0.02209205 0.014661917 0.03179122 -0.01185262
00000000: 7a64 3bbd 9e6f 6d3d 9dac dbba cc91 a0bb
00000010: 5f0c 9f3c 9b7f f6bb d5ff 39bd d868 93bc
00000020: e7a3 0abd 07f5 87bd 293a 08bc 25c6 e43c
00000030: 63fa b43c 8a38 703c 8337 023d 7e31 42bc

decoder.4.weight f4 [16]
0.9713542 0.95274824 0.97037625 0.9674741 0.9696586 0.97018415 0.93138504 1.0685451
0.9224959 0.9210049 0.9961685 0.91571224 0.9212432 1.0792527 1.0361145 0.9629484
00000000: abaa 783f 4fe7 733f 946a 783f 62ac 773f
00000010: 8c3b 783f fd5d 783f 406f 6e3f 16c6 883f
00000020: b128 6c3f fac6 6b3f e604 7f3f 1e6c 6a3f
00000030: 98d6 6b3f f424 8a3f 669f 843f c983 763f

decoder.4.bias f4 [16]
0.0374909 0.02032374 -0.048745845 -0.07259383 0.021213867 0.027087608 -0.08967181 0.04756433
-0.07881585 -0.06943797 -0.0077629704 -0.04818242 -0.024440868 0.023788631 0.041372772 -0.060631838
00000000: 0f90 193d f97d a63c b9a9 47bd 13ac 94bd
00000010: b4c8 ad3c d5e6 dd3c dba5 b7bd d1d2 423d
00000020: 346a a1bd 7f35 8ebd 8460 febb ee5a 45bd
00000030: 3738 c8bc 60e0 c23c 7f76 293d 1759 78bd
