weights/improved_cae_ne3_b8_icub_left_noise.pth (torch, 351607 bytes, 36 tensors)

encoder.0.weight f4 [16, 3, 4, 4]
0	0x3da8629d	0.08221934
1	0x3ceb1af0	0.028699368
2	0x3d5423ec	0.05179207
3	0x3d4f496f	0.05060714
4	0x3c8f2e3c	0.017478101
5	0x3df09192	0.11746515
6	0xbd08fe87	-0.03344586
7	0xbd8f78e1	-0.07005478
8	0x3dc25d53	0.094904564
9	0x3ce1136b	0.02747508
10	0x3d54fbf0	0.05199808
11	0x3c266e7c	0.010158177
12	0xbce8c908	-0.028416172
13	0xbce1f626	-0.027583193
14	0x3d942e1d	0.07235358
15	0x3e0a10e3	0.13483004
16	0xbadd2f80	-0.0016875118
17	0xbdb4f3d8	-0.08835572
18	0x3de31c0e	0.110893354
19	0xbe0d19ed	-0.13779421
20	0x3dd99e9a	0.10625954
21	0x3d399cad	0.045315433
22	0xbd045838	-0.032310694
23	0xbd96a216	-0.07355134
24	0xbc07ac9b	-0.008280898
25	0x3de1a74f	0.1101824
26	0x3c8d277a	0.017230738
27	0xbcb2aed1	-0.021811875
28	0xbdee09f3	-0.116229914
29	0xbd9e3908	-0.077257216
30	0xbdb5d3fa	-0.08878322
31	0xbc285467	-0.010274029
32	0x3d073f95	0.03301962
33	0xbde6ec89	-0.11275584
34	0x3d85c7cb	0.06532248
35	0x3c53ddcb	0.0129312975
36	0xbdb17268	-0.086643994
37	0x3d95fb2b	0.07323297
38	0x3d6de9c0	0.05808425
39	0xbd888c70	-0.06667411
40	0xbd4e2bcf	-0.050334748
41	0xbe0b7513	-0.13618879
42	0xbdcc1f2e	-0.099668846
43	0xbe299447	-0.1656047
44	0x3d7182c1	0.058962587
45	0xbe1e92a3	-0.15485625
46	0xbd442709	-0.04788879
47	0xbd5dd37b	-0.05415676
48	0xbe0f8e9a	-0.14019242
49	0xbe318ec9	-0.17339624
50	0xbe367356	-0.17817435
51	0xbd989a0e	-0.074512586
52	0xbcd42ff3	-0.02590177
53	0x3d6699d7	0.056299057
54	0xbe5b90aa	-0.21441904
55	0xbc524a74	-0.012835134
56	0xbe19d8d2	-0.15024117
57	0xbd504c77	-0.050854173
58	0x3ca1ec09	0.01976587
59	0x3c25057d	0.010072109
60	0x3d9ac3ac	0.07556853
61	0xbe2820e2	-0.16418794
62	0x3cddec6c	0.027090274
63	0xbe2cced5	-0.16875775
64	0xbb44b743	-0.003001646
65	0xbd8a2aab	-0.067464195
66	0xbd1a707f	-0.03770494
67	0xbdce0373	-0.10059252
68	0xbda8d126	-0.08243017
69	0x3cbb0dfd	0.022833819
70	0x3df79a81	0.12090016
71	0xbdf608c4	-0.12013391
72	0xbdc3bfa9	-0.09558041
73	0xbcc99d9b	-0.024611285
74	0xbdc50b0b	-0.09621247
75	0x3d48af8a	0.048995532
76	0xbcdbbc94	-0.02682332
77	0xbdce08af	-0.1006025
78	0xbd78bcc0	-0.06072688
79	0x3cbc9eeb	0.023024997
80	0x3d6a1216	0.057146154
81	0xbd91408b	-0.07092389
82	0xbd0e0cdc	-0.034680232
83	0xbddbc908	-0.10731703
84	0x3dc3578c	0.095381826
85	0x3daf16b3	0.085492514
86	0x3d9ae0c5	0.07562403
87	0xbd411c21	-0.047145966
88	0x3d708e71	0.058729593
89	0xbdb9c80d	-0.0907136
90	0x3c33eb7d	0.010981438
91	0x3dab42a1	0.08362318
92	0x3e08ce18	0.13359869
93	0x3cb0ba18	0.021573111
94	0x3dd1b18e	0.10238944
95	0xbd860936	-0.065447256
96	0xbdcbc020	-0.09948754
97	0x3d27a32b	0.040927093
98	0x3a77c332	0.00094513886
99	0xb927fa48	-0.00016019598
100	0xbc3f6d9e	-0.01168385
101	0x3a1c3f6a	0.0005960377
102	0xbe12e99b	-0.14346926
103	0xbe1e374a	-0.15450779
104	0x3b0cfbb6	0.0021512336
105	0x3dda7c78	0.10668272
106	0x3d07ac03	0.033123028
107	0xbce2c6f5	-0.02768276
108	0xbdd0bf06	-0.10192685
109	0x3d220a01	0.03956032
110	0xbab321be	-0.0013666672
111	0xbe033703	-0.12813954
112	0xbde60bf3	-0.11232748
113	0x3ded9d73	0.11602297
114	0x3d81edbd	0.06344173
115	0xbe0dfb7a	-0.13865462
116	0xbdd5904d	-0.10427914
117	0xbe12c7b2	-0.1433399
118	0xbd7335d1	-0.059377495
119	0x3d4c50e0	0.049881816
120	0xbd63dbf9	-0.055629704
121	0xbe1e3fac	-0.15453976
122	0xbe0d2c90	-0.1378653
123	0x3c40665b	0.011743153
124	0xbdc5aa0e	-0.09651576
125	0x3cde9bf0	0.027173966
126	0x3d8e983d	0.06962631
127	0xbd2507c6	-0.040290616
128	0xbdff1d27	-0.12456732
129	0x3d047a03	0.032342922
130	0xbc67d0a0	-0.014148861
131	0x3d1c0cf9	0.03809831
132	0x3d86be51	0.06579269
133	0xbdfc0868	-0.12306291
134	0xbcca5baa	-0.024701912
135	0x3d8973f2	0.06711568
136	0xbcee4aad	-0.029088343
137	0xbdab7863	-0.08372571
138	0x3d96fc27	0.07372313
139	0x3bd1b20a	0.0063993977
140	0x3d3c3158	0.045945495
141	0x3c660267	0.014038659
142	0xbd2dc305	-0.042422313
143	0x3d59635e	0.05307328
144	0x3ddd2ccf	0.10799562
145	0x3cac070b	0.020999452
146	0x3ddbfd3a	0.107416585
147	0x3d654e25	0.055982728
148	0xbd24f580	-0.04027319
149	0x3e09d60a	0.13460556
150	0x3d745473	0.05965085
151	0x3df02cfc	0.1172733
152	0x3d2e0d39	0.04249308
153	0xbdf8c5d7	-0.1214711
154	0x3c8bea96	0.017079633
155	0xbad05556	-0.0015894573
156	0x3d5059f4	0.050867036
157	0xbd0c9d7b	-0.034329873
158	0xbccb32b7	-0.024804456
159	0xbdba869d	-0.09107707
160	0x3dee3940	0.11632013
161	0xbddd3da6	-0.10802774
162	0xbd195807	-0.037437465
163	0xbd176f9d	-0.036971677
164	0xbe0f25ba	-0.13979235
165	0x3dcf25bb	0.101146184
166	0xbe1fa778	-0.15591228
167	0x3d8f73a0	0.070044756
168	0xbdb5218a	-0.08844288
169	0xbe0b3df3	-0.1359785
170	0xbe0daed7	-0.13836227
171	0x3ddbe4b9	0.10736985
172	0xbbc05443	-0.00586942
173	0x3daf58f3	0.085618876
174	0x3ba8a30e	0.0051463908
175	0xbe160564	-0.14650494
176	0x3d6f1a6a	0.0583748
177	0x3da7f8c2	0.08201744
178	0xbdeb89e1	-0.11500908
179	0xbe234964	-0.15945965
180	0xbd00e988	-0.031472713
181	0xbb9b348e	-0.0047364896
182	0xbdcf344d	-0.101173975
183	0xbd5326cb	-0.051550668
184	0xbe067d3a	-0.13133708
185	0xbce2330d	-0.027612234
186	0x3d8bf1ac	0.068332046
187	0x3d9f5847	0.077805094
188	0x3d284a11	0.04108626
189	0xbdbee471	-0.093209155
190	0xbe16e3fa	-0.14735404
191	0xbdcb4fe1	-0.09927345
192	0xbdba1298	-0.09085578
193	0xbda7d499	-0.08194847
194	0x3ce8cdd4	0.028418459
195	0x3e374942	0.1789904
196	0xbd20bf5d	-0.039245
197	0x3d2174b8	0.039417952
198	0x3e0f507b	0.13995545
199	0x3e2a122d	0.16608496
200	0xbd9566e2	-0.07295014
201	0x3e392bec	0.18083161
202	0x3e23961c	0.15975231
203	0xbd892c4c	-0.06697902
204	0x3dde260c	0.108471006
205	0x3e440d30	0.19145656
206	0xbdaac57d	-0.08338449
207	0x3e18fcb3	0.14940147
208	0x3c8088cd	0.015690232
209	0x3e4b395e	0.19846103
210	0xbca85f14	-0.02055315
211	0x3d94ad36	0.072596
212	0x3e1b580b	0.15170304
213	0xbcabe479	-0.020982968
214	0x3dec2ce0	0.11531997
215	0xbd89358c	-0.066996664
216	0x3dbccffe	0.09219359
217	0xbce3d22d	-0.02781018
218	0x3e0b0ef2	0.1357992
219	0xb97f6065	-0.00024354605
220	0x3e0b9567	0.13631211
221	0x3deeb948	0.11656433
222	0x3e12a3d0	0.14320302
223	0x3e21bfbd	0.15795799
224	0x3d4a5952	0.04940159
225	0x3dd134ad	0.10215125
226	0xbcc6252b	-0.024187645
227	0xbd716e70	-0.058943212
228	0xbdc52a52	-0.096272126
229	0x3db5ce71	0.08877266
230	0x3bacc02b	0.0052719316
231	0xbc79bcd7	-0.015242777
232	0xbdcdec28	-0.10054809
233	0x3dec180d	0.11528025
234	0x3d8f9bb8	0.07012123
235	0x3dffec04	0.12496188
236	0xbdb68122	-0.08911349
237	0xbd955c8e	-0.07293044
238	0x3c1b2e68	0.009471513
239	0xbdb64e2b	-0.08901628
240	0x3d54bfda	0.051940776
241	0x3e1027a1	0.14077617
242	0xbd6882f9	-0.05676553
243	0xbd61f8d2	-0.055168934
244	0x3dba0816	0.090835735
245	0xbd2e7de8	-0.042600542
246	0x3da78095	0.08178822
247	0x3e3b2d77	0.18279062
248	0xbdd4c672	-0.10389413
249	0xbc79ae8a	-0.015239367
250	0xbd2cccbd	-0.04218744
251	0xbda33e08	-0.07970816
252	0x3e13b9c7	0.14426337
253	0x3e24dbc8	0.16099465
254	0x3d9ff527	0.07810431
255	0x3d41ba36	0.047296725

encoder.0.bias f4 [16]
0	0x3dcdb853	0.10044923
1	0xbc17ba15	-0.009260674
2	0xbde43d36	-0.111444876
3	0xbdf562a8	-0.11981708
4	0x3db47328	0.08811027
5	0x3df64e30	0.12026632
6	0xbd0d5916	-0.034508787
7	0x3d3d2f6b	0.0461878
8	0xbe127a10	-0.14304376
9	0xbd52f4b3	-0.051502895
10	0x3de978d8	0.11400002
11	0x3d52ed6c	0.051495954
12	0xbd1b784e	-0.03795653
13	0x3db366c2	0.08759834
14	0xbcb6c356	-0.02230994
15	0xbd6f9664	-0.058493033

encoder.1.weight f4 [16]
0	0x3f7ed2b8	0.9954028
1	0x3f7e8fcc	0.99438167
2	0x3f7d2aa9	0.9889322
3	0x3f7bdbc4	0.9838221
4	0x3f7ec4be	0.99518955
5	0x3f79ae34	0.9753144
6	0x3f7dd61f	0.9915485
7	0x3f8080f0	1.0039349
8	0x3f829262	1.0200922
9	0x3f7f70f6	0.9978174
10	0x3f82c5f6	1.0216663
11	0x3f829179	1.0200645
12	0x3f80d930	1.006628
13	0x3f7f2866	0.9967102
14	0x3f8031b2	1.0015166
15	0x3f7d2bf1	0.98895174

encoder.1.bias f4 [16]
0	0x3c850d2e	0.016241636
1	0xbd219899	-0.03945217
2	0x3af5fd4a	0.0018767503
3	0xbb24b872	-0.0025134352
4	0xbd242657	-0.040075626
5	0xbc836cd6	-0.016043108
6	0x3c22238d	0.009896171
7	0x3a4dcd00	0.0007850677
8	0x3d33d6de	0.043906085
9	0xbb0985e8	-0.0020984355
10	0x3cb1604a	0.02165236
11	0x3d224c14	0.039623335
12	0x3bc0cca2	0.005883769
13	0xbb39c73a	-0.0028347508
14	0x3b2a14fc	0.002595245
15	0xbc701640	-0.014653742

encoder.1.running_mean f4 [16]
0	0xbde7f89d	-0.11326716
1	0xbf86f7eb	-1.0544409
2	0xbf8494b8	-1.0357885
3	0xbe554506	-0.20827112
4	0x3fc01c18	1.5008574
5	0x3f00f684	0.50376153
6	0x3f56615d	0.83742315
7	0xbf809485	-1.0045325
8	0xbf676490	-0.9038782
9	0x3f8088f0	1.004179
10	0xbf9148fd	-1.1350399
11	0xbf1dca56	-0.61636865
12	0x3f3c2f02	0.7350923
13	0x3fa0ebf5	1.2572008
14	0xbf793549	-0.9734693
15	0xbf48c02e	-0.7841824

encoder.1.running_var f4 [16]
0	0x3d2ee3c2	0.042697676
1	0x3d7d4ded	0.061841894
2	0x3d7bb40d	0.061451007
3	0x3d3e3adf	0.046442863
4	0x3e006460	0.1253829
5	0x3d0b1562	0.03395594
6	0x3e1ca3b7	0.15296827
7	0x3dd81f83	0.105528854
8	0x3e07b8a2	0.13254026
9	0x3db0e444	0.08637288
10	0x3e15b69b	0.1462044
11	0x3dd2f08d	0.10299788
12	0x3d562b85	0.052287597
13	0x3de692f1	0.112584956
14	0x3d9c392e	0.07628094
15	0x3d0a5b6a	0.033778585

encoder.4.weight f4 [32, 16, 4, 4]
0	0xbd7b6a9c	-0.061380967
1	0xbd2aa501	-0.041661266
2	0xbd23e55a	-0.04001365
3	0xbd9ad0aa	-0.07559331
4	0xbd8d9d67	-0.06914788
5	0xbcecaa33	-0.028889751
6	0xbc2fc19d	-0.010727313
7	0xbdab1791	-0.08354104
8	0x3cda44c7	0.026644124
9	0xbce10d6b	-0.027472218
10	0xbcc9b22d	-0.024621094
11	0xbd3a5ac8	-0.045496732
12	0xbd0f2ea5	-0.034956593
13	0xbd205179	-0.0391402
14	0xbcb4a1d6	-0.022049826
15	0xbda53dd2	-0.08068432
16	0x3d4da428	0.05020538
17	0xbcdf8dd4	-0.027289309
18	0x3d0be87e	0.03415727
19	0xb9c3fca6	-0.00037381536
20	0x3de607d2	0.1123196
21	0x3dbc0d9a	0.09182282
22	0x3d001e3c	0.031278834
23	0x3d2b674f	0.04184657
24	0x3cc1eb91	0.023671897
25	0x3d71be35	0.059019286
26	0x3da21e45	0.0791593
27	0x3d56b39c	0.052417383
28	0x3da5ca1e	0.080951914
29	0x3cf203d1	0.029542835
30	0x3d329faa	0.0436093
31	0xbca91722	-0.020640913
32	0xbc8f104c	-0.017463826
33	0xbc0b43f7	-0.008500091
34	0xbd1023fe	-0.035190575
35	0xbd14aa9a	-0.03629551
36	0x3da170e1	0.07882858
37	0x3d9f2c6a	0.07772143
38	0x3d479edc	0.048735484
39	0x3cebfae9	0.028806167
40	0x3ce9e777	0.028552754
41	0x3d9292f9	0.07156939
42	0x3cf1cbf9	0.029516207
43	0x3ca775af	0.020441858
44	0xbb965a65	-0.0045884126
45	0x3d26315e	0.040574424
46	0x3d3d7fee	0.04626458
47	0xbcf5f87b	-0.030025711
48	0xbc24acb2	-0.010050939
49	0xbd638a4c	-0.055551812
50	0xbbe93ab5	-0.007117594
51	0xbd8d9025	-0.06912259
52	0xbd84b900	-0.064805984
53	0xbbde55ac	-0.006785115
54	0xbceb4adf	-0.028722225
55	0xbd0bd9ec	-0.034143373
56	0xbd1a0fd7	-0.037612762
57	0xbd3ed6b4	-0.046591476
58	0xbcae5ed3	-0.02128545
59	0xbd163ecd	-0.036680985
60	0x3c36d0d9	0.011158192
61	0xbd5c2541	-0.053746466
62	0xbcced14b	-0.025246283
63	0xbdb1645e	-0.08661722
64	0xbd596477	-0.053074326
65	0x3d28dc76	0.041225873
66	0x3c0d3e2d	0.008620781
67	0xbcdaa52c	-0.026690088
68	0xbc8bf397	-0.017083926
69	0xbd6722e2	-0.05642975
70	0x3b35c702	0.0027737026
71	0xbc154d81	-0.009112717
72	0xbd5f6e69	-0.054548655
73	0x3ce4bad6	0.027921122
74	0x3ccb66c6	0.02482928
75	0xbc6a1c7c	-0.014289018
76	0xbb8a8caa	-0.0042281942
77	0x3cc7f80f	0.024410276
78	0xbcdb240c	-0.026750587
79	0x3c491a44	0.012274329
80	0x3cce3f20	0.025176585
81	0x3c4b27c7	0.01239962
82	0xbd500808	-0.05078891
83	0xbdb84fcc	-0.08999595
84	0x3c9acb08	0.018895641
85	0xbd029ef3	-0.031889867
86	0xbda8dade	-0.082448706
87	0x3ca03c36	0.01955996
88	0x3cbf71d2	0.023369703
89	0xbdab94b2	-0.08377971
90	0xbd7a49dc	-0.061105594
91	0xbd469681	-0.048483375
92	0xbb9838ec	-0.0046454575
93	0xbcb776b2	-0.022395466
94	0xbc8ba379	-0.017045723
95	0xbd11bbfe	-0.035579674
96	0xbd5a565f	-0.053305026
97	0xbc7360bb	-0.014854605
98	0x3d6e5b3e	0.058192484
99	0x3d60dc79	0.05489776
100	0xbd963a2e	-0.07335316
101	0xbca161a5	-0.01969988
102	0x3c88df74	0.016708113
103	0x3c94129d	0.018075282
104	0xbd4095dd	-0.04701792
105	0xbd7d2f2f	-0.061812576
106	0xbd1079e6	-0.0352725
107	0x3c96d3a5	0.018411467
108	0xbd13fed6	-0.036131702
109	0x3c99aed4	0.018760122
110	0x3d08b3e9	0.0333747
111	0xbd414911	-0.047188822
112	0x3d0cb8a4	0.034355775
113	0xbd23951a	-0.039937116
114	0xbd538daa	-0.051648773
115	0xbc67a8f6	-0.0141394045
116	0x3c651353	0.013981658
117	0xbd23d391	-0.039996687
118	0x3c9d14ad	0.019174898
119	0xbd4a7368	-0.049426466
120	0x3bda8260	0.006668374
121	0x3ca9b266	0.02071495
122	0xbcaa1c29	-0.020765381
123	0xbb2ea800	-0.0026650429
124	0xbd046f2e	-0.03233259
125	0xbca6d963	-0.02036733
126	0x3d310696	0.04321917
127	0x3cc81800	0.024425507
128	0xbb427ae8	-0.0029675309
129	0xbd8b984c	-0.06816158
130	0xbdb3ba22	-0.087757364
131	0xbd645b92	-0.05575139
132	0xbcab9485	-0.020944843
133	0xbcaa88ef	-0.020817248
134	0x3c08e9c7	0.008356518
135	0xbd020785	-0.031745452
136	0x3c4aa426	0.012368238
137	0xbcce50aa	-0.025184948
138	0xbc806036	-0.015670877
139	0xbd569e43	-0.052397024
140	0xbc88e0bb	-0.016708722
141	0xbd8420b4	-0.0645155
142	0xbd67fdc0	-0.05663848
143	0xbcfbb086	-0.030723821
144	0xbd6d6f50	-0.057967484
145	0xbc90c62a	-0.017672617
146	0x3d7638d3	0.060112786
147	0x3cf85ef6	0.030318718
148	0x3d56ee04	0.052473083
149	0xbb83a62a	-0.004017611
150	0xbd7ba1bd	-0.061433543
151	0xbd043b81	-0.03228331
152	0xbc9111f5	-0.017708758
153	0x3c8b0bcf	0.016973404
154	0xbbb67816	-0.0055685146
155	0x3c82b27e	0.015954252
156	0x3d6bb65a	0.05754695
157	0xbd55e906	-0.05222418
158	0x3d58f0cd	0.05296402
159	0x3d0256ca	0.03182105
160	0x3d3db832	0.04631824
161	0xbbbf9545	-0.0058466517
162	0xbd3ab377	-0.045581307
163	0xbca4b405	-0.020105371
164	0xbcc45c26	-0.023969721
165	0xbcfc6de4	-0.030814119
166	0x3bb933e1	0.0056519364
167	0xbd57e8bb	-0.052712183
168	0x3d146dc3	0.03623749
169	0xbc97dcc3	-0.018537885
170	0xbca82055	-0.02052323
171	0x3b463756	0.0030245385
172	0x3d0dafc9	0.03459147
173	0x3d00dbed	0.031459738
174	0xbd29683e	-0.04135918
175	0xbb74067d	-0.0037235313
176	0x3cb67a57	0.022275133
177	0xbcac3cf7	-0.021025164
178	0xbd51ccca	-0.051220693
179	0xbda158d8	-0.07878274
180	0xbd302261	-0.043001536
181	0xbce78259	-0.028260397
182	0xbd668c52	-0.056286164
183	0xbd3cf38c	-0.046130702
184	0x3cc95d22	0.024580542
185	0x3cfeb2a7	0.031091047
186	0xbd3c9929	-0.046044502
187	0xbdaf3743	-0.08555462
188	0xbd15e712	-0.03659732
189	0xbcc50e1b	-0.024054578
190	0xbd92c50f	-0.07166492
191	0x3c792ea2	0.015208872
192	0xbd7d486c	-0.061836645
193	0xbd730377	-0.059329476
194	0x3b65b014	0.0035047578
195	0xbd26e1be	-0.04074263
196	0xbdb168df	-0.08662581
197	0xbbb86817	-0.005627643
198	0xbc139d86	-0.0090097245
199	0x3c6bde57	0.014396272
200	0xbca64c14	-0.020299949
201	0xbd8bbb8f	-0.06822883
202	0xbdaa9e73	-0.08331003
203	0x3c262fc7	0.010143227
204	0x3ca6b8cb	0.020351788
205	0xbbe1edfe	-0.006894826
206	0xbd01ac04	-0.031658188
207	0xbd8927b0	-0.06697023
208	0xbcfd1a87	-0.030896438
209	0xbbe9a12f	-0.0071298103
210	0xbbaa9a7e	-0.005206405
211	0x3bc42373	0.005985671
212	0xbd8e6ac7	-0.0695396
213	0x3c98bb67	0.018644048
214	0xbd489b14	-0.04897602
215	0x3d4475a6	0.04796376
216	0xbcd01e26	-0.025405
217	0xbb6f8bd9	-0.0036551862
218	0xbd51da14	-0.051233366
219	0x3ceede43	0.029158717
220	0x3d353947	0.044244077
221	0xbcac6f43	-0.021049147
222	0xbc2dec2f	-0.010615393
223	0x3d53e806	0.051734947
224	0xbc753bcc	-0.01496787
225	0xbcadec85	-0.021230945
226	0xbd54a809	-0.051918063
227	0xbc87ee61	-0.01659316
228	0x3c4d69d0	0.012537435
229	0x3d073ad3	0.033015084
230	0x3abbe68b	0.0014335675
231	0xbc0fe210	-0.008781925
232	0x3c8869b1	0.01665196
233	0x3d0e8a95	0.03480013
234	0x3d7afac1	0.061274294
235	0xbb8af868	-0.004241038
236	0x3cbe6a44	0.02324403
237	0x3d31e62b	0.043432396
238	0x3c3796fa	0.011205429
239	0xbcc9d04c	-0.024635457
240	0xbc9b6876	-0.01897071
241	0xbc858605	-0.016299257
242	0x3cb74c5d	0.02237528
243	0xbc503dfc	-0.012710091
244	0x3d514ff8	0.051101655
245	0x3b623eec	0.0034522368
246	0x3d332416	0.043735586
247	0x3c93264d	0.0179626
248	0x3d443120	0.04789841
249	0x3c8157e3	0.015788978
250	0x3da10708	0.07862669
251	0x3d6954b7	0.056965556
252	0x3d22c672	0.039740033
253	0x3c4b4300	0.012406111
254	0x3d33dc9b	0.043911558
255	0x3bd51b2f	0.0065034847

encoder.4.bias f4 [32]
0	0xbe0e0476	-0.13868889
1	0xbdd5aa26	-0.10432844
2	0xbd94abdb	-0.07259341
3	0xbda85fb3	-0.08221378
4	0xbe28fbeb	-0.16502349
5	0xbd9ba663	-0.07600095
6	0xbdc4eb6f	-0.09615218
7	0xbd9ee7c2	-0.07759048
8	0xbe1b7bb2	-0.15183905
9	0xbd9adaa6	-0.07561235
10	0xbe282624	-0.164208
11	0xbe02927a	-0.12751189
12	0xbe15a831	-0.14614941
13	0xbe2d6de5	-0.16936453
14	0xbd3f50d9	-0.04670796
15	0xbdf8ff80	-0.12158108
16	0xbe333055	-0.17498906
17	0xbd9b7b52	-0.07591881
18	0xbdea6d34	-0.1144661
19	0xbdacfbd3	-0.08446469
20	0xbd6ee41f	-0.058323022
21	0xbe263b80	-0.16233635
22	0xbe07e149	-0.13269533
23	0xbdbed098	-0.0931713
24	0xbdc741af	-0.09729325
25	0xbddb3588	-0.1070357
26	0xbd94e70c	-0.07270631
27	0xbd839985	-0.06425766
28	0xbdebfafd	-0.115224816
29	0xbe0b3cc2	-0.13597396
30	0xbdc41a3b	-0.095753156
31	0xbe3390d4	-0.17535716

encoder.5.weight f4 [32]
0	0x3f81c115	1.0137049
1	0x3f834c63	1.0257686
2	0x3f7e4f17	0.9933943
3	0x3f826081	1.0185701
4	0x3f804599	1.002124
5	0x3f80f3af	1.0074366
6	0x3f76bb18	0.9637923
7	0x3f746ea9	0.95481354
8	0x3f82671c	1.0187716
9	0x3f7e63de	0.99371135
10	0x3f79b37c	0.97539496
11	0x3f810837	1.0080632
12	0x3f81f0a6	1.0151565
13	0x3f78698e	0.97036064
14	0x3f7f9b2e	0.9984616
15	0x3f7452da	0.9543892
16	0x3f7feb64	0.9996855
17	0x3f800d24	1.000401
18	0x3f7f74c0	0.9978752
19	0x3f7ef629	0.9959436
20	0x3f7f6892	0.99768937
21	0x3f8156cd	1.0104614
22	0x3f7dd19e	0.99147975
23	0x3f816f3c	1.0112071
24	0x3f8196e2	1.0124171
25	0x3f78af24	0.97142243
26	0x3f7aeb9e	0.98015773
27	0x3f81b8d8	1.0134535
28	0x3f823ec8	1.0175409
29	0x3f812c44	1.0091634
30	0x3f813d0b	1.0096754
31	0x3f80ada8	1.0052996

encoder.5.bias f4 [32]
0	0x3c26097f	0.0101341
1	0xbd37bb13	-0.044856142
2	0xbd2195d8	-0.039449543
3	0x3d5e6fa3	0.054305684
4	0x3bcdc41a	0.0062794806
5	0xbb99cdad	-0.004693708
6	0xbd53f186	-0.051744007
7	0xbc3b427b	-0.011429424
8	0x3c95482a	0.018222887
9	0xbac14348	-0.0014744783
10	0xbcf4e8fd	-0.029896254
11	0xbd545ce6	-0.051846407
12	0x3d377a88	0.04479459
13	0xbd478d72	-0.048718877
14	0xbc1b9216	-0.009495279
15	0x3b752ae2	0.0037409593
16	0xbcd6927d	-0.026192898
17	0xbc84e50b	-0.016222497
18	0x3cacfd98	0.021117017
19	0xbc44593a	-0.011984164
20	0xba9331d4	-0.001123006
21	0xbc471ca4	-0.012152825
22	0xbbfb81a9	-0.007675369
23	0xbc72989a	-0.014806891
24	0x3c5b111a	0.013370777
25	0xbb3670c2	-0.0027838205
26	0xbc5f924a	-0.013645718
27	0xbaf30efd	-0.0018543896
28	0xbd47c472	-0.04877133
29	0xbbb7a0f6	-0.005603905
30	0x3d149c59	0.036281917
31	0x3c7854c6	0.01515693

encoder.5.running_mean f4 [32]
0	0xbf5cb638	-0.86215544
1	0x3f563df9	0.8368831
2	0x3e57f170	0.21088195
3	0xbf970884	-1.1799474
4	0xbdc3651c	-0.095407695
5	0xbf612d69	-0.87959915
6	0x3e0633e3	0.1310573
7	0x3e809bb9	0.25118807
8	0x3f4d8cce	0.80292976
9	0xbf106309	-0.56401116
10	0x3dc57005	0.09640507
11	0xbb64af58	-0.0034894552
12	0xbf834ba9	-1.0257465
13	0x3dda7414	0.106666714
14	0x3ddaa5aa	0.10676129
15	0xbf0e94fb	-0.55696076
16	0x3e8c3164	0.27381432
17	0x3e7fbbe5	0.2497402
18	0x3e02a619	0.12758674
19	0x3eb7814a	0.35840827
20	0x3e73d93b	0.23813336
21	0xbf4e75e3	-0.8064863
22	0x3e19bb34	0.15012819
23	0xbf2263e4	-0.6343367
24	0xbf6fdcb4	-0.9369614
25	0xbd3c8447	-0.046024587
26	0xbc3493a4	-0.011021528
27	0xbf8996b4	-1.0749116
28	0x3f15f205	0.5857242
29	0xbf690b25	-0.9103263
30	0xbf5be162	-0.8589078
31	0xbfb5d741	-1.4206315

encoder.5.running_var f4 [32]
0	0x3f567486	0.8377155
1	0x3f7e5b91	0.9935847
2	0x3f461764	0.7737944
3	0x3ffb5ce6	1.9637725
4	0x3fcc1706	1.5944526
5	0x402c04bc	2.687789
6	0x3f7c5696	0.9856962
7	0x3f621b77	0.8832316
8	0x4056778c	3.3510466
9	0x3f4bf6db	0.79673547
10	0x3f127e17	0.5722365
11	0x3e82bb0f	0.2553334
12	0x3face5a2	1.3507578
13	0x3fa49363	1.2857479
14	0x3faeb71f	1.3649634
15	0x3edddd2e	0.4333281
16	0x3f3f1ad5	0.7465032
17	0x3fa89a04	1.3172002
18	0x3fb43f4c	1.4081817
19	0x3fe88fdd	1.8168904
20	0x3fc60054	1.546885
21	0x4041dd9d	3.0291512
22	0x4001e165	2.029382
23	0x404c153b	3.1887958
24	0x3ff52fa2	1.9155161
25	0x3f9021d9	1.126033
26	0x3f69c43e	0.91315067
27	0x40750dd6	3.8289695
28	0x3f5536de	0.83286846
29	0x4030f2af	2.7648122
30	0x3fb8bf70	1.4433422
31	0x401d2939	2.455641

encoder.8.weight f4 [64, 32, 4, 4]
0	0xbd077433	-0.0330698
1	0x3bb38bba	0.005479303
2	0xbd149613	-0.036275934
3	0xbc46dac2	-0.012137117
4	0x3cb7f53f	0.02245581
5	0xbc16433a	-0.0091713015
6	0xbc137f61	-0.0090025375
7	0x3bba5575	0.005686457
8	0x3ba203ac	0.0049442854
9	0xbc67f685	-0.014157896
10	0x3c82d5ff	0.015971182
11	0x3b071d79	0.0020616932
12	0xbce51dc1	-0.02796829
13	0x3c044932	0.008074092
14	0xbd662ba5	-0.056193966
15	0xbca5c61a	-0.020236064
16	0x3cb58d7b	0.02216219
17	0xbbfbaea5	-0.0076807314
18	0x3d3d79e7	0.046258833
19	0xbc2044c0	-0.009782016
20	0x3b875d6d	0.0041310103
21	0x3c9fd223	0.01950938
22	0x3d39c29c	0.04535161
23	0xbbd6b7b7	-0.0065526622
24	0xbb58eb45	-0.0033099216
25	0x3cecf400	0.028924942
26	0xbbfbc2d5	-0.007683138
27	0x3c866afc	0.016408436
28	0x3d63de40	0.055631876
29	0x3ce2c6c0	0.027682662
30	0x3d18c752	0.03729946
31	0x3cf6e6d8	0.030139372
32	0xbb44a347	-0.0030004547
33	0x3c80a7f3	0.015705084
34	0x3d15df62	0.036589988
35	0x3d555da9	0.052091274
36	0xbc8d1fe5	-0.017227123
37	0xbb969c20	-0.0045962483
38	0x3ced0cf5	0.028936842
39	0x3c01bd4a	0.007918665
40	0x3ce656a9	0.028117495
41	0x3ae17c3a	0.001720316
42	0xbc27ed85	-0.0102495
43	0xbca9077a	-0.020633448
44	0x3d04fd05	0.03246786
45	0x3c4c4473	0.012467491
46	0x3d26e2fe	0.04074382
47	0xbc5a060b	-0.013307105
48	0xbd2fa9ec	-0.04288666
49	0xbc9b4c56	-0.018957298
50	0x3d37c254	0.04486306
51	0xbcf40e23	-0.029791897
52	0x3c8f943a	0.017526735
53	0x3c133d32	0.008986758
54	0x3d6e8c5d	0.05823933
55	0x3d5d8e90	0.054091036
56	0xbc242c77	-0.010020367
57	0x3d70bd4a	0.05877427
58	0x3c68d963	0.014211985
59	0x3d2ae829	0.04172531
60	0xbd26f66c	-0.04076235
61	0xbcabd7d5	-0.02097694
62	0xbc63edcb	-0.013911675
63	0x3b18ea34	0.0023332955
64	0x3bfe2ba6	0.007756668
65	0xbcc51836	-0.024059396
66	0x3c4669a3	0.012110147
67	0xbd2e09a1	-0.04248965
68	0xbd0c05c0	-0.03418517
69	0xbcc402f2	-0.023927186
70	0xbce01955	-0.02735583
71	0xbd2bf0d0	-0.041977704
72	0x3c3fb82a	0.011701623
73	0xbd6192b3	-0.055071544
74	0xbc9c19cb	-0.019055268
75	0xbd2f49e2	-0.04279507
76	0xbd113b0a	-0.035456695
77	0xbd5c2020	-0.053741574
78	0xbd2586a5	-0.04041161
79	0xbc3825b1	-0.011239455
80	0xbcc98ade	-0.02460235
81	0x3d3bdf9d	0.04586755
82	0x3b4e88ae	0.0031514573
83	0x3d1e816a	0.038697638
84	0x3d3cb561	0.046071414
85	0x3d736670	0.059423864
86	0x3d4c2b93	0.049846243
87	0xbc811c1c	-0.015760474
88	0xbc9223ed	-0.017839396
89	0x3d0ef6d7	0.034903374
90	0x3d2575f0	0.040395677
91	0x3d64c92b	0.05585591
92	0x3ccac1e3	0.024750656
93	0x3d091d13	0.033474993
94	0x3c92ed76	0.017935496
95	0xbb2c5eb6	-0.002630157
96	0x3d1ae878	0.037819356
97	0x3aef144b	0.0018240301
98	0x3ca3656e	0.019945826
99	0x3ca57078	0.02019523
100	0xbd131e7a	-0.035917737
101	0xbd7923c2	-0.060825117
102	0x3cc3fc9d	0.023924166
103	0xbcda3f76	-0.026641589
104	0x3ca5e0a0	0.020248711
105	0x3c559d9c	0.013038065
106	0xbd496fc0	-0.04917884
107	0xbc1934d0	-0.00935097
108	0xbbf2d0b8	-0.007410135
109	0xbcb8db59	-0.02256553
110	0xbc61a0a1	-0.013771207
111	0xbd13d6bd	-0.036093462
112	0xbc033213	-0.008007544
113	0xbc965316	-0.018350165
114	0xbd98a2b7	-0.074529104
115	0xbd881660	-0.06644893
116	0xbcd36da3	-0.025809115
117	0x3bcda8a5	0.0062762075
118	0x397d8796	0.0002417847
119	0xba3971b2	-0.0007074132
120	0xbce1bcec	-0.027555905
121	0xbd9042fd	-0.07044027
122	0xbd373e9d	-0.044737447
123	0xbd2d2cdb	-0.042279106
124	0x3cad9477	0.021188958
125	0xbc8606c5	-0.01636065
126	0xbd74d171	-0.05977005
127	0x3c06f87d	0.008237955
128	0xbd7f20ef	-0.062287267
129	0xbdb08b97	-0.08620375
130	0xbdaa32d6	-0.083104774
131	0xbd8fd7a2	-0.070235506
132	0xbd8abeac	-0.06774649
133	0xbd937f14	-0.072019726
134	0xbdb13f64	-0.08654669
135	0xbd988538	-0.074472845
136	0xbc8e665c	-0.017382793
137	0xbc884f1a	-0.016639281
138	0xbd489a67	-0.048975375
139	0xbd836227	-0.064152054
140	0x3c36a448	0.011147566
141	0x3c30f5e9	0.010800817
142	0xbc51fbbb	-0.012816365
143	0x3cb97dfc	0.022643082
144	0xbd03ee5f	-0.03220975
145	0xbad95639	-0.0016581482
146	0xbd21d006	-0.039505027
147	0xbcae6cac	-0.021292053
148	0xbca11ab2	-0.01966605
149	0x3d323934	0.043511584
150	0xbcad8b91	-0.021184715
151	0xbca1abf3	-0.019735312
152	0x3cbfe24e	0.02342334
153	0xbba69f82	-0.005084933
154	0xbce1e2c9	-0.02757396
155	0xbbf3212c	-0.007419726
156	0xbb6949ec	-0.003559704
157	0x3bc53516	0.006018291
158	0x3be4cb65	0.0069822543
159	0xbc743581	-0.014905334
160	0xbb44b046	-0.0030012294
161	0xbc13352e	-0.008984847
162	0xbcee48e7	-0.029087497
163	0xbd46eeab	-0.048567455
164	0xbcb2714e	-0.021782544
165	0xbd36f922	-0.044671185
166	0xbcfab16b	-0.030602178
167	0xbcd135fe	-0.02553844
168	0xbd1329cb	-0.03592853
169	0x3cdc7b55	0.026914278
170	0xbc35a7e7	-0.011087394
171	0xbd39d245	-0.045366544
172	0xbbae40d1	-0.0053177853
173	0x3c4c4f36	0.012470057
174	0x3c8b1982	0.016979937
175	0xbcc967ef	-0.024585692
176	0x3d9d3335	0.076757826
177	0x3d502b30	0.050822437
178	0x3c3bd847	0.011465139
179	0x3d0bc4fb	0.034123402
180	0xbd3fc0ad	-0.04681461
181	0xbd8ea45e	-0.06964944
182	0xbd0f667b	-0.035009842
183	0xbd774fd7	-0.060378876
184	0xbc27dd07	-0.010245568
185	0xbd2315fc	-0.039815888
186	0xbd289c2d	-0.041164566
187	0xbd0fa14e	-0.03506594
188	0xbd1ef766	-0.038810156
189	0xbd9d4df7	-0.07680886
190	0xbc578174	-0.013153423
191	0xbd2993f1	-0.041400854
192	0xbb7ac537	-0.0038264522
193	0xbc7defdc	-0.015499081
194	0xbd0d2272	-0.034456678
195	0xbcbb720c	-0.02288153
196	0x3c718a1b	0.0147424
197	0x3d5a4be3	0.053295027
198	0x3c89fdb6	0.016844612
199	0xbca34b5b	-0.019933393
200	0x3ba55ffd	0.005046843
201	0x3bda97ee	0.0066709435
202	0x3d29912f	0.041398223
203	0xbb1974b2	-0.0023415503
204	0x3cad8947	0.021183623
205	0x3cc5dad3	0.024152195
206	0xbcc54e41	-0.024085166
207	0xbce8f93b	-0.028439155
208	0xbc15bca0	-0.00913921
209	0x3c71e33c	0.01476365
210	0xbcc7b8ca	-0.024380106
211	0x3c50fa1d	0.012754944
212	0x3cb7d324	0.022439547
213	0xbd78dfaa	-0.060760178
214	0x3c62a044	0.013832156
215	0x3c55e634	0.013055373
216	0xbbae91b4	-0.0053274278
217	0x3bea570c	0.00715149
218	0xbd2b1039	-0.041763518
219	0x3c10d760	0.008840412
220	0xbd105d9c	-0.035245523
221	0xbd4c2d28	-0.04984775
222	0xbd304c2d	-0.043041397
223	0x3c1138fe	0.008863686
224	0xbc62a540	-0.013833344
225	0xbbfedd22	-0.007777826
226	0xbc779537	-0.015111259
227	0xbbec55f3	-0.0072123944
228	0xbd1bf539	-0.03807566
229	0xbcd60c04	-0.026128776
230	0xbd518962	-0.05115641
231	0x3c8dc232	0.017304514
232	0xbc84e2f1	-0.016221495
233	0xbc2426c2	-0.010019006
234	0xbd2a6456	-0.041599594
235	0xbcafa64f	-0.021441607
236	0xbd48a519	-0.048985574
237	0x3c96ac94	0.018392839
238	0xbcbd2c7f	-0.023092506
239	0x3b3313d1	0.0027325044
240	0xbba43fba	-0.0050124796
241	0x3c9e847c	0.019350283
242	0x3b57f29e	0.0032951008
243	0xbd0107cb	-0.031501573
244	0xbd6350f3	-0.05549712
245	0xbbbd27e6	-0.0057725785
246	0x3c74eead	0.014949483
247	0x3ca597a6	0.020213913
248	0xbd1a5048	-0.03767422
249	0x3c55cf98	0.0130499825
250	0xbc8d3710	-0.01723817
251	0xbd342d9e	-0.043988816
252	0xbd379a28	-0.04482475
253	0xbc02a757	-0.007974467
254	0xbcac8cae	-0.021063175
255	0xbd8a3863	-0.06749036

encoder.8.bias f4 [64]
0	0x3c590898	0.013246678
1	0x3c16ac2f	0.009196325
2	0xbccc8965	-0.024967859
3	0x3d5125fa	0.051061608
4	0xbc1fa5ac	-0.009744089
5	0x3bcadeef	0.0061911265
6	0xbcd142c7	-0.025544537
7	0x3c8d12d1	0.017220886
8	0xbbd3a0ad	-0.006458363
9	0xbd3c2700	-0.04593563
10	0xbbd80e0f	-0.006593473
11	0x3cf5b438	0.029993162
12	0xbd3b94c7	-0.045796182
13	0x3ce07acf	0.02740231
14	0xbc1053ab	-0.0088090105
15	0x3d57d8c9	0.052696977
16	0x3d21fa02	0.039545067
17	0xbd5bbf01	-0.053648952
18	0x3c229002	0.009922029
19	0xbd4e4d94	-0.050366953
20	0x3c8332ae	0.016015377
21	0xbcff993a	-0.031200994
22	0xbd0002a4	-0.03125252
23	0xbd40f82e	-0.047111683
24	0xbd27f047	-0.04100063
25	0xbcdf4936	-0.02725659
26	0xbd46bd82	-0.048520572
27	0x3b8b0eac	0.0042436924
28	0xbcd4abdd	-0.025960857
29	0xbd1585dd	-0.036504615
30	0xbc17f861	-0.009275527
31	0x3d0034ee	0.031300478
32	0x3ca5b385	0.020227203
33	0xbd7a3509	-0.061085735
34	0xbbcfb7ee	-0.006339065
35	0x3d20fc3d	0.039303053
36	0x3c7a765e	0.01528701
37	0xbc30f8fa	-0.010801548
38	0x3c8286ca	0.015933413
39	0x3be1f456	0.006895582
40	0xbb80f409	-0.0039353413
41	0x3c8bbf2a	0.017058928
42	0x3c475bda	0.012167895
43	0xbcf3eccc	-0.029776
44	0x3cc6f47d	0.024286503
45	0xbca01252	-0.019539986
46	0xbcb64b84	-0.022252806
47	0xbc3f4909	-0.011675128
48	0x3c286a80	0.010279298
49	0x3c403148	0.0117305
50	0xbd1d2463	-0.03836478
51	0x3d253f32	0.04034347
52	0xbd556d03	-0.052105915
53	0xbc443920	-0.01197651
54	0x3c939b67	0.018018438
55	0x3b00c1e9	0.001964683
56	0x3cd6d38f	0.026223926
57	0xbd31a6db	-0.043372016
58	0xbd323fa8	-0.04351774
59	0x3c97c4b2	0.018526409
60	0x3dab543e	0.08365677
61	0x3c248c84	0.010043267
62	0x3d133e4a	0.035948075
63	0x3bb7d216	0.005609761

encoder.9.weight f4 [64]
0	0x3f805a7b	1.0027612
1	0x3f801409	1.0006114
2	0x3f7d80eb	0.9902484
3	0x3f87923f	1.0591506
4	0x3f8174f7	1.011382
5	0x3f79c450	0.97565174
6	0x3f80ffd1	1.0078069
7	0x3f7a99b6	0.97890794
8	0x3f7cf877	0.9881663
9	0x3f846723	1.0343975
10	0x3f822118	1.016635
11	0x3f7d247d	0.988838
12	0x3f7f59f2	0.9974662
13	0x3f7a03be	0.9766196
14	0x3f805482	1.002579
15	0x3f87a038	1.059577
16	0x3f8c513d	1.0962292
17	0x3f745daa	0.9545542
18	0x3f7b91b7	0.9826922
19	0x3f7841bf	0.9697532
20	0x3f8a31ed	1.0796486
21	0x3f85d67a	1.0456078
22	0x3f796b36	0.97429216
23	0x3f7e6bd7	0.993833
24	0x3f84beaa	1.0370686
25	0x3f7a990a	0.9788977
26	0x3f782bd8	0.969419
27	0x3f7b45dd	0.9815348
28	0x3f78b2e9	0.97147995
29	0x3f7df89d	0.9920748
30	0x3f7e53b2	0.9934646
31	0x3f7f9013	0.99829215
32	0x3f7b3a12	0.98135483
33	0x3f7cd4b1	0.9876204
34	0x3f806fac	1.003408
35	0x3f7f5d77	0.9975199
36	0x3f802d7a	1.0013878
37	0x3f80f2d4	1.0074105
38	0x3f79f8a1	0.97645
39	0x3f7d967c	0.99057746
40	0x3f7cbb85	0.9872363
41	0x3f7c5004	0.98559594
42	0x3f7afe2d	0.9804409
43	0x3f751a9d	0.95743734
44	0x3f7815f5	0.96908504
45	0x3f7e1c33	0.9926178
46	0x3f7bc8f6	0.9835352
47	0x3f802f29	1.0014392
48	0x3f783c2b	0.9696681
49	0x3f7ada76	0.97989595
50	0x3f7dd2da	0.9914986
51	0x3f80be69	1.0058109
52	0x3f86280f	1.0480975
53	0x3f7c9d87	0.9867787
54	0x3f8058bb	1.0027078
55	0x3f7b8750	0.98253345
56	0x3f7ff387	0.9998097
57	0x3f7dcf5e	0.9914454
58	0x3f80ee9b	1.0072817
59	0x3f7ff1d7	0.99978393
60	0x3f846dc9	1.0346004
61	0x3f7cb451	0.9871264
62	0x3f79e780	0.97618866
63	0x3f7b5f74	0.98192525

encoder.9.bias f4 [64]
0	0xbc852140	-0.016251206
1	0xbc748737	-0.014924816
2	0xbc568c74	-0.01309501
3	0x3d2fbc19	0.042903993
4	0xbb17c1cf	-0.002315629
5	0xbce7f3f3	-0.028314566
6	0xbc4629e2	-0.012094947
7	0xbc35c4da	-0.011094296
8	0xbd1effad	-0.03881805
9	0x3d0cb862	0.03435553
10	0x3b82176b	0.003970077
11	0x3a41965a	0.000738477
12	0xbb5b3ff3	-0.0033454865
13	0xbd05b0b2	-0.032639213
14	0x3c6ac0b3	0.01432817
15	0x3de14079	0.10998625
16	0xbc885133	-0.016640281
17	0xbd64e3ef	-0.055881437
18	0x3c1bd41e	0.009511022
19	0xbd3a7197	-0.045518484
20	0xbd8820d7	-0.06646889
21	0x3cd6222f	0.026139347
22	0xbc90ae5d	-0.017661268
23	0x3bcf8cbd	0.006333916
24	0xbd872d5d	-0.06600449
25	0xbca4b4c3	-0.020105725
26	0xbd0f70ee	-0.035019808
27	0xbc9a7495	-0.018854419
28	0xbd08ea71	-0.033426706
29	0xbc8c0793	-0.017093455
30	0x3c17a32a	0.00925521
31	0xbc81ebc3	-0.01585949
32	0xbcefd193	-0.029274737
33	0xbcff51f3	-0.031167006
34	0x3c681dec	0.01416729
35	0xbd0897ed	-0.033348013
36	0xbcf25117	-0.029579682
37	0xbbb2d4a6	-0.0054574786
38	0xbd2a6214	-0.04159744
39	0xbcab5e52	-0.020918999
40	0x3c5e4947	0.013567275
41	0xbc2bf225	-0.0104947435
42	0xbc07c140	-0.0082858205
43	0xbd0c96d0	-0.034323514
44	0xbc84a354	-0.016191162
45	0x3bc12a1f	0.005894914
46	0xbc1c961e	-0.009557275
47	0xbc73e844	-0.014886919
48	0xbcf4e9bd	-0.029896611
49	0xbc0e6e0f	-0.008693232
50	0xbca2cc4c	-0.019872807
51	0x3bf2f526	0.007414478
52	0x3d204f1a	0.039137937
53	0x3bcf5b86	0.006328049
54	0xbd306d3b	-0.04307292
55	0x3c361443	0.011113229
56	0x3c13b523	0.009015354
57	0xbcbbfcb8	-0.022947654
58	0xbd1dd386	-0.038531803
59	0xbb28c373	-0.0025751262
60	0x3cba375c	0.022731476
61	0xbd8a06f4	-0.067396075
62	0x3c811407	0.01575662
63	0xbceadfd7	-0.028671188

encoder.9.running_mean f4 [64]
0	0x3e1da049	0.15393175
1	0x3ed8f420	0.42373753
2	0x3fbad701	1.4596864
3	0xc0156bd8	-2.3347073
4	0xbd2d3ed8	-0.04229626
5	0x3dee713b	0.11642691
6	0x3d128f68	0.035781294
7	0xbf983e96	-1.18941
8	0xbe0d22a4	-0.13782746
9	0xbfde00ae	-1.7343957
10	0xbf3f9dd0	-0.7485018
11	0x3dc0fa97	0.09422796
12	0x3ebd2177	0.36939594
13	0xbf35baca	-0.7098814
14	0xbf3424f8	-0.7036891
15	0xbf6035fc	-0.87582374
16	0xbf8571a1	-1.0425302
17	0x3f0755d7	0.52865356
18	0xbe84ed49	-0.25962284
19	0xbeae151c	-0.3400048
20	0xbe503fbb	-0.20336811
21	0xbfca9bec	-1.5828834
22	0x3e369aa1	0.17832424
23	0xbdef6811	-0.11689771
24	0xbf34b9ec	-0.70596194
25	0xbf0522b3	-0.5200607
26	0xbf0159a1	-0.5052739
27	0xbf0b0bf9	-0.54315144
28	0xbfa0fa58	-1.2576399
29	0xbeb95a78	-0.36201835
30	0x3dadbdc8	0.084834635
31	0xbe0ad1d1	-0.13556601
32	0xbdc0ca89	-0.094136305
33	0xc0074183	-2.1133735
34	0xbf850e53	-1.0394996
35	0x385eb7b2	5.3100004e-05
36	0xbfa99a4c	-1.3250213
37	0x3ec37451	0.3817468
38	0xbce058be	-0.027386066
39	0xbec5c75e	-0.38628668
40	0xbf86d191	-1.0532705
41	0xbeea766f	-0.45793483
42	0x3db38858	0.0876624
43	0xbdd20991	-0.10255731
44	0xbf5d0b01	-0.86344916
45	0xbec8f8de	-0.3925237
46	0x3d919900	0.071092606
47	0xbe0f346f	-0.13984846
48	0x3e4c17a3	0.19930892
49	0x3e408a18	0.18802679
50	0xbf22be8d	-0.6357201
51	0x3e30d8ed	0.1727025
52	0x3e10926f	0.1411836
53	0x3ee435c1	0.4457226
54	0xbe0a0de2	-0.13481858
55	0xc0176b58	-2.3659267
56	0x3e26a7ba	0.1627492
57	0xbee7b714	-0.45256865
58	0xbeb8216b	-0.35962996
59	0xbf90e279	-1.1319114
60	0xbfda4faa	-1.7055562
61	0x3f540759	0.8282371
62	0xbf1e2a70	-0.61783504
63	0xbdfa3179	-0.122164674

encoder.9.running_var f4 [64]
0	0x406ea576	3.728849
1	0x409940ca	4.789159
2	0x40d2de7d	6.589659
3	0x40a59489	5.1743817
4	0x4086925b	4.2053657
5	0x40a9b76f	5.303642
6	0x4050fd2b	3.2654521
7	0x3ffd08f1	1.9768354
8	0x407e0814	3.969243
9	0x40979e6e	4.7380896
10	0x400262e4	2.0372858
11	0x4092dbbf	4.5893245
12	0x40a0dee2	5.0272074
13	0x4042cba3	3.043679
14	0x405f97c9	3.4936392
15	0x40617643	3.5228431
16	0x3f902606	1.1261604
17	0x4092fd06	4.5933867
18	0x402c261c	2.689826
19	0x40954a28	4.6653023
20	0x3fa679a1	1.3005868
21	0x400ada70	2.1695824
22	0x407912b0	3.8917656
23	0x409530eb	4.6622214
24	0x3f3e0dd1	0.7423983
25	0x4063e0d4	3.5605974
26	0x3fe20d4f	1.7660311
27	0x3fafd931	1.3738157
28	0x3f92bcea	1.1463902
29	0x40b988c9	5.7979474
30	0x405e727a	3.475737
31	0x40e58e3a	7.1736116
32	0x40dde21c	6.9338512
33	0x40881ea6	4.2537413
34	0x4020afc8	2.5107288
35	0x4069ba34	3.65199
36	0x411dfb9e	9.87393
37	0x40d58743	6.6727614
38	0x40876d87	4.23212
39	0x40c3b440	6.115753
40	0x4040a89a	3.0102906
41	0x40498818	3.1489315
42	0x408ac256	4.3362226
43	0x3f2d4da8	0.6769662
44	0x4026d0a9	2.6064856
45	0x4040e0d6	3.013723
46	0x40c91c1b	6.284681
47	0x40a293a8	5.0805244
48	0x4089d5f0	4.3073654
49	0x40807ac9	4.0149884
50	0x40d2ca5a	6.587201
51	0x408851df	4.259994
52	0x4027ca74	2.6217318
53	0x408ac170	4.336113
54	0x3f7f2f74	0.9968178
55	0x3fe629ea	1.7981541
56	0x40be95f2	5.955804
57	0x40ab5460	5.3540497
58	0x3fd5ab3b	1.669288
59	0x410fbb81	8.983277
60	0x3feb6b3e	1.8392103
61	0x3f83a20c	1.0283828
62	0x4096d9e7	4.7140994
63	0x406f4c47	3.7390306

decoder.0.weight f4 [64, 32, 4, 4]
0	0x3c26ae6d	0.010173422
1	0xbc656ff5	-0.014003743
2	0xbc666d7f	-0.014064192
3	0x3c7b734f	0.015347316
4	0x3d84fe32	0.064937964
5	0x3b72df72	0.0037059453
6	0x3cb3b477	0.021936638
7	0x3a1881af	0.0005817664
8	0xbcbd9937	-0.023144348
9	0xbc47e4d4	-0.012200553
10	0xbcd052ae	-0.02543005
11	0xbc91dbaf	-0.017804949
12	0xbc12b83f	-0.0089550605
13	0x3d11f2b6	0.035631858
14	0x3d263daf	0.04058617
15	0xbcf015ce	-0.029307272
16	0x3cc7856c	0.024355613
17	0x3c12808c	0.008941781
18	0xbd1aeff0	-0.03782648
19	0xbd51218d	-0.051057387
20	0xbd4040cc	-0.046936795
21	0x3c820b30	0.015874475
22	0x3cd7b4e4	0.026331373
23	0xbd4c3cee	-0.049862795
24	0x3cef4424	0.029207297
25	0x3ae625da	0.0017558888
26	0x3cfd2144	0.030899651
27	0xbca9afb2	-0.02071366
28	0xbd0cb05d	-0.03434788
29	0x3d0fd2d6	0.03511318
30	0x3c8352d8	0.016030714
31	0xbb601638	-0.003419293
32	0xbceb44c1	-0.028719308
33	0x3caeea12	0.021351848
34	0x3c8b26d1	0.016986283
35	0xbbdfdfbd	-0.0068320916
36	0xbd22c066	-0.039734267
37	0x3cabd0b9	0.02097355
38	0xbd29bac0	-0.041437864
39	0xbcd0e367	-0.025499059
40	0x3c797044	0.01522452
41	0xbc8586c4	-0.016299613
42	0xbcde73a0	-0.027154744
43	0xbc913290	-0.017724305
44	0x3c01fea7	0.007934249
45	0x3d0e4340	0.034732103
46	0xbbfdec3f	-0.00774911
47	0x3c95f33f	0.018304465
48	0xbd8f356e	-0.06992613
49	0x3c8d4398	0.017244145
50	0xbd78e914	-0.060769156
51	0x3cb36fc7	0.021903886
52	0x3c661755	0.014043649
53	0xbd174680	-0.03693247
54	0x3d008b8d	0.031383086
55	0xbc9dc3d2	-0.019258413
56	0x3cc6c2bc	0.024262778
57	0x3d1c647c	0.038181767
58	0x3d030129	0.03198353
59	0x3cb8e889	0.022571819
60	0x3d0d6872	0.034523435
61	0x3aabfbce	0.0013121308
62	0xbc3e44c4	-0.011613075
63	0x3d3595d2	0.044332333
64	0x3ba0b498	0.004904341
65	0xbca038ee	-0.019558396
66	0xbccfbd59	-0.025358843
67	0x3c2ccb78	0.010546558
68	0x3a46536a	0.000756553
69	0xbbd04030	-0.006355308
70	0x3c2d38fa	0.010572666
71	0x3ca85d16	0.0205522
72	0x3c5aca0d	0.013353837
73	0xbd612d7e	-0.054975025
74	0x3ba285d4	0.004959801
75	0xbd2d208d	-0.04226737
76	0x3cb79d5c	0.022413902
77	0xbd3218f7	-0.04348084
78	0x3c7dc40c	0.015488636
79	0xbd645217	-0.05574235
80	0x3d8134fd	0.06308935
81	0xbcf3bf8b	-0.02975442
82	0xbd400ff9	-0.046890233
83	0xbd2a3e59	-0.041563366
84	0x3cc6b7f9	0.024257647
85	0x3c15b29f	0.009136825
86	0xbd56fad3	-0.0524853
87	0xbd103919	-0.035210703
88	0x3cea7846	0.028621804
89	0x3b5239ea	0.0032077977
90	0x3ba79ecd	0.005115366
91	0x3c960962	0.018315021
92	0x3cdc1d94	0.026869573
93	0x3ca2810d	0.019836927
94	0xbcfb5425	-0.030679772
95	0x3c454755	0.012040933
96	0xbc0ae9be	-0.00847858
97	0x3d6549dd	0.055978645
98	0x3d30a3e3	0.043125045
99	0x3d193375	0.03740259
100	0x3c850079	0.016235577
101	0x3d80e88a	0.06294353
102	0x38198dcd	3.6610105e-05
103	0x3d448d18	0.04798612
104	0x3d551a8e	0.052027278
105	0x3c87e1be	0.016587134
106	0x3d5612d2	0.052264042
107	0x3cef2d03	0.029196268
108	0x3c947a8f	0.018124847
109	0x3c298bde	0.010348288
110	0xbcb1aaee	-0.021687951
111	0x3d76fbc2	0.06029869
112	0x3d0de4b2	0.03464193
113	0xbb949355	-0.004534165
114	0x3ca6bed4	0.020354666
115	0xbcc002ae	-0.023438778
116	0xbd44510f	-0.047928866
117	0xbd20b34e	-0.0392335
118	0xbd9cd2c7	-0.0765739
119	0xbc5e3171	-0.013561592
120	0x3bf9a4cc	0.0076185223
121	0x3c3ae9c3	0.011408272
122	0xbc98568a	-0.018595953
123	0x3d36db0e	0.0446425
124	0x3cfb5960	0.030682266
125	0xbccc5642	-0.024943475
126	0xbb146f7d	-0.002264946
127	0x39c48af4	0.0003748756
128	0x3cc2f09e	0.023796376
129	0x3c1fe013	0.009758013
130	0xbcb032c8	-0.02150859
131	0x3ca0e172	0.01963875
132	0xbad4fbf0	-0.00162494
133	0x3c888b15	0.016667882
134	0x3d14e4f8	0.036351174
135	0xbcd45fe9	-0.02592464
136	0xba4d5738	-0.0007833126
137	0x3d1db7c0	0.038505316
138	0xbd4df293	-0.050280165
139	0xbcc57894	-0.024105348
140	0x3c129c18	0.008948348
141	0x3cd4d065	0.025978277
142	0xbb6e5e47	-0.0036372112
143	0xbc7b981d	-0.015356091
144	0x3ca5d770	0.02024433
145	0x3cdfe836	0.027332406
146	0x3d38cc67	0.04511681
147	0x3cab3a81	0.02090192
148	0x3d37af53	0.044844937
149	0xbcade1e6	-0.02122588
150	0x3beb4af3	0.0071805655
151	0x3ceca086	0.028885137
152	0xbc931768	-0.017955497
153	0x3cf2b711	0.029628308
154	0xbc50b26e	-0.012737853
155	0x3d40b05c	0.04704319
156	0x3c05e143	0.008171382
157	0x3d52a5f3	0.051427793
158	0x3cfe7f80	0.031066656
159	0x3d3a5fc1	0.045501474
160	0x3cd35760	0.0257985
161	0xbb4237cb	-0.0029635306
162	0x3bb2d9ef	0.0054581086
163	0xbcd3cca9	-0.025854426
164	0xbc9a7fe1	-0.018859806
165	0x3cb56fae	0.02214798
166	0xbb26c349	-0.002544599
167	0xbcf31113	-0.029671228
168	0xbc3f2f88	-0.011669047
169	0xbcbfd882	-0.023418669
170	0xbd46a4c7	-0.048496988
171	0xbba5cfad	-0.0050601573
172	0x3c8c547c	0.017130129
173	0x3bb21828	0.0054350086
174	0xbc973ed2	-0.018462572
175	0xbb003f1b	-0.0019568864
176	0x3c31091e	0.010805396
177	0x3cddb4aa	0.027063686
178	0x3cafefd2	0.02147666
179	0x3d026641	0.0318358
180	0x3c214258	0.009842478
181	0x3ca1e010	0.019760162
182	0x3cdbe844	0.026844151
183	0xbd03cbfa	-0.03217695
184	0x3d06cf4e	0.032912545
185	0x3d07c6b8	0.033148497
186	0xbbe4864a	-0.0069740163
187	0x3c75a465	0.014992808
188	0x3c60a270	0.013710603
189	0x3c60462c	0.013688605
190	0x3b8f5c1b	0.0043749935
191	0x3d136e4d	0.035993863
192	0x3d07f973	0.033196878
193	0x3c7d59aa	0.015463272
194	0xbd05b08e	-0.03263908
195	0x3d454086	0.048157237
196	0xbb970f47	-0.0046099755
197	0xbc7de478	-0.015496366
198	0xbc91d7b3	-0.017803049
199	0x3d288bbd	0.04114889
200	0xbd155f3f	-0.036467787
201	0xbd33d525	-0.043904442
202	0xbd66b6e2	-0.056326754
203	0x3c90ad5d	0.017660791
204	0x3cf88138	0.030335054
205	0xbcb2518f	-0.021767406
206	0xbc9b9b56	-0.018994968
207	0x3c30f238	0.010799937
208	0xbd19461a	-0.03742037
209	0x3d2718f0	0.040795267
210	0x3d0dd585	0.034627456
211	0xbcb1bc10	-0.02169612
212	0x3c0ba8cc	0.008524131
213	0x3c861796	0.016368669
214	0x3c2b27ab	0.010446469
215	0xbbba0e2b	-0.0056779585
216	0x3cf9bede	0.03048652
217	0xbcd8b20c	-0.026452087
218	0x3c305d87	0.010764486
219	0xbca0eefe	-0.01964521
220	0x3cf5a406	0.029985439
221	0x3c89f3ec	0.016839944
222	0x3cc0bc5f	0.023527322
223	0x3d51da59	0.051233623
224	0xbcac96ce	-0.021068003
225	0x3d4c7bb3	0.049922656
226	0xbcf05aa2	-0.029340092
227	0xbc80c005	-0.015716562
228	0x3b975e1f	0.0046193744
229	0x3b876a64	0.004132556
230	0x3d65cff2	0.056106515
231	0xbc73be86	-0.014876967
232	0x3d2c7655	0.042105038
233	0x3d1839ad	0.03716438
234	0x36cd4f89	6.118735e-06
235	0x3d49e22e	0.049287967
236	0xbcc5c4c9	-0.024141686
237	0x3d2b9b84	0.041896358
238	0xbcc9260c	-0.024554275
239	0x3d18ab5b	0.037272792
240	0x3d427c62	0.047481902
241	0x3cc0ff17	0.023559136
242	0xbc7f84cb	-0.015595625
243	0x3cf6b90f	0.03011754
244	0xbb2ee9a5	-0.0026689556
245	0x3da45262	0.08023526
246	0xbc8e22a1	-0.017350497
247	0x3d91f866	0.07127456
248	0x3cd79156	0.026314419
249	0x3c88131d	0.016610676
250	0x3bada8fc	0.0052996855
251	0xbcc5c020	-0.024139464
252	0xbc12eb1c	-0.008967187
253	0x3ce33866	0.027736854
254	0x3c3749c2	0.011187019
255	0x3d092226	0.033479832

decoder.0.bias f4 [32]
0	0xbe1f4a30	-0.15555644
1	0xbd82d7ec	-0.0638884
2	0xbe122c61	-0.14274742
3	0xbdcef7ca	-0.10105856
4	0xbe2c9bd6	-0.16856322
5	0xbe228444	-0.15870768
6	0xbd0c8d29	-0.03431431
7	0xbe13f544	-0.1444903
8	0xbccc5fa9	-0.024947958
9	0xbe033a6c	-0.12815255
10	0xbe00bcf6	-0.12572083
11	0xbdb13b16	-0.08653848
12	0xbe19817c	-0.149908
13	0xbe0f6997	-0.14005123
14	0xbd92e36a	-0.07172282
15	0xbd72b5b5	-0.05925532
16	0xbe21a8fb	-0.15787117
17	0xbdec3b80	-0.11534786
18	0xbe20fbc1	-0.15721036
19	0xbdc618da	-0.09672709
20	0xbe02e2f5	-0.1278189
21	0xbdf30cdb	-0.11867686
22	0xbdf03f63	-0.1173084
23	0xbda5969b	-0.08085366
24	0xbe1cdba6	-0.15318164
25	0xbe20be54	-0.15697604
26	0xbdcbefab	-0.099578224
27	0xbe351bb3	-0.17686348
28	0xbe161007	-0.14654551
29	0xbe295bfe	-0.16538998
30	0xbd466db9	-0.048444483
31	0xbe046082	-0.1292744

decoder.1.weight f4 [32]
0	0x3f7ce070	0.98779964
1	0x3f791358	0.9729514
2	0x3f84091e	1.0315282
3	0x3f828e5e	1.0199697
4	0x3f7b4380	0.9814987
5	0x3f7f8a4e	0.9982041
6	0x3f831d5f	1.0243338
7	0x3f7e0bd1	0.9923678
8	0x3f766bcb	0.9625823
9	0x3f7d2e84	0.988991
10	0x3f800f23	1.0004619
11	0x3f7aa205	0.9790347
12	0x3f8363d2	1.0264838
13	0x3f760f5f	0.96117204
14	0x3f79bf4f	0.9755754
15	0x3f82e2d8	1.0225477
16	0x3f79c44e	0.9756516
17	0x3f7ce4ec	0.9878681
18	0x3f85d0a2	1.0454295
19	0x3f77be02	0.96774304
20	0x3f80fae2	1.0076563
21	0x3f81c1a3	1.0137218
22	0x3f7de218	0.99173117
23	0x3f825a48	1.0183802
24	0x3f827f59	1.0195113
25	0x3f7be6b8	0.98398924
26	0x3f7d90b3	0.9904892
27	0x3f7d7c95	0.9901822
28	0x3f7c4dfe	0.98556507
29	0x3f816f8f	1.011217
30	0x3f7e9d8c	0.9945915
31	0x3f7f7356	0.99785364

decoder.1.bias f4 [32]
0	0x3ca6f93e	0.02038252
1	0x3bb512ed	0.005525938
2	0x3c78af68	0.015178539
3	0x3c435924	0.011923108
4	0x3c236a15	0.009974022
5	0xbd0d46b7	-0.034491267
6	0x3d0e9957	0.034814205
7	0x3ccd72d6	0.025079172
8	0xbcc67d0e	-0.024229553
9	0xbc557c2c	-0.013030093
10	0x3c130583	0.008973482
11	0xbcae23f5	-0.02125738
12	0x3c7241d0	0.014786199
13	0xbcde304c	-0.02712264
14	0x3bd19e77	0.0063970643
15	0x3cd46e40	0.025931478
16	0x3af5f199	0.0018764018
17	0x3b4b7c36	0.0031049377
18	0x3c47abf3	0.012186992
19	0xbd396cde	-0.04526984
20	0x3ced8d18	0.028997943
21	0x3c9316ec	0.017955266
22	0xbc1bce0e	-0.0095095765
23	0x3b4f73e5	0.0031654772
24	0x3d125b1b	0.035731416
25	0xbb338926	-0.002739498
26	0x3d039a6a	0.032129683
27	0x3c661473	0.014042961
28	0xbc6f27c0	-0.0145968795
29	0x3bbe77fc	0.005812643
30	0x3ac3c189	0.0014934997
31	0xba7701d9	-0.00094225776

decoder.1.running_mean f4 [32]
0	0xbf363d54	-0.7118733
1	0xbea0303c	-0.312868
2	0x3d8c4423	0.068489335
3	0xbef98eb0	-0.48741674
4	0xbe8c25b1	-0.27372506
5	0xbeb6ccbc	-0.35703075
6	0xbeefbc13	-0.46823177
7	0xbf0d27d1	-0.5513888
8	0xbe91e5d7	-0.28495666
9	0xbe110173	-0.14160709
10	0xbdae0606	-0.08497243
11	0x3daaddcb	0.08343085
12	0xbf01736b	-0.5056674
13	0x3e1a87e4	0.150909
14	0xbe6689f3	-0.22513561
15	0xbee7d92a	-0.4528287
16	0xbed940b1	-0.42432168
17	0xbf79f09d	-0.9763277
18	0xbf0e1393	-0.5549862
19	0xbf14f1fd	-0.58181745
20	0xbf482da8	-0.78194666
21	0xbf39fe63	-0.7265379
22	0xbea6fdc0	-0.3261547
23	0xbdd81a21	-0.10551859
24	0xbeeb6d37	-0.45981762
25	0x3d56448c	0.052311465
26	0xbeca51ba	-0.39515477
27	0xbf09207f	-0.5356521
28	0xbea81b2e	-0.32833236
29	0xbf09ab40	-0.5377693
30	0xbeb467a7	-0.3523533
31	0xbea0abf4	-0.3138119

decoder.1.running_var f4 [32]
0	0x3fb56d7b	1.4174036
1	0x3fb4208c	1.4072433
2	0x3f3c203f	0.73486704
3	0x3f2d9754	0.67809033
4	0x3f62b82e	0.88562286
5	0x3eae665d	0.34062472
6	0x3f9e6204	1.2373662
7	0x3f7ae173	0.9800026
8	0x40508a4c	3.258441
9	0x3fe7f386	1.8121192
10	0x3f471afc	0.7777555
11	0x3fc3b800	1.5290527
12	0x3f02e4fc	0.5113065
13	0x3fb269a7	1.3938493
14	0x3f81b847	1.0134362
15	0x3f57cff8	0.8430171
16	0x3fa9275d	1.3215138
17	0x3fc050fb	1.5024713
18	0x3ef8f782	0.48626333
19	0x3f9940e1	1.1972924
20	0x3f7049e7	0.93862766
21	0x3f70a464	0.9400084
22	0x3fa64940	1.2991104
23	0x3f39f25f	0.72635454
24	0x3f1d67d8	0.6148658
25	0x3ef4a476	0.47781724
26	0x3f56823c	0.8379247
27	0x3f48b2ca	0.7839781
28	0x3f3a729e	0.7283114
29	0x3f4dd151	0.80397516
30	0x4002b253	2.042134
31	0x3f318c1e	0.69354427
