weights/simple_cae_ne3_b8_color.pth (torch, 44783 bytes, 8 tensors)

encoder.0.weight f4 [12, 3, 4, 4]
000000 fd 94 91 3d c4 21 22 3e 23 9a 0e 3e d4 ff 0d 3e
       0.071084954 0.15833193 0.13925986 0.13867122
000010 5d 5d 63 3d f2 63 69 bd 38 c0 a5 3c b2 71 a1 3d
       0.05550896 -0.05698008 0.020233259 0.07883014
000020 45 6e 3c 3d 5d 9e 1b 3e 8a 9c c8 3d 5f 0e 64 3d
       0.0460036 0.1519713 0.097954825 0.055677768
000030 ab 86 60 3b 38 96 98 3b ac 36 01 3e e9 b1 39 bd
       0.0034259956 0.0046565793 0.12618512 -0.045335684
000040 a1 b3 88 bd c1 21 a6 bd ef aa c3 3d 84 59 56 bd
       -0.066748865 -0.08111907 0.09554087 -0.052331463
000050 83 50 79 3d 2d 72 aa 3d 65 13 0c 3d 20 f9 07 3e
       0.060867798 0.083225586 0.034198184 0.13278627
000060 43 51 c1 bd 29 ca cc 3c e8 08 39 3d c2 0f 2c 3e
       -0.094393276 0.024998741 0.04517451 0.16802886
000070 1a 73 d9 3d 06 e7 a8 bd f7 6a 39 3e a4 c1 25 bd
       0.10617657 -0.08247189 0.1810721 -0.040467873
000080 d1 b6 c5 3d c6 0f b7 3c 40 68 e0 3d 16 54 7b bd
       0.0965401 0.022346389 0.10957384 -0.061359487
000090 02 8c 9c bc b8 f0 1e 3e b7 f1 df 3d f1 20 72 bd
       -0.01910973 0.15521514 0.10934775 -0.059113447
0000a0 f7 89 71 3d 30 7c 88 bd f7 dd ea bd 0e 72 0b bd
       0.058969464 -0.06664312 -0.11468118 -0.034044318
0000b0 5e df 0d 3d 17 a6 0d 3d 53 98 d9 3d ea dd 5d bd
       0.034636848 0.034582224 0.10624757 -0.054166712
0000c0 1e dc 50 bd e9 9c 6b bd 94 90 df 3c 16 92 db bd
       -0.05099117 -0.057522688 0.02729062 -0.10721223
0000d0 4a 5e 4d b8 f7 f7 98 bd 0a ce db 3d 65 8b ce 3c
       -4.8963622e-05 -0.074691705 0.10732658 0.025212953
0000e0 ee 17 95 bb 17 91 d8 3d b7 97 ba 3d ba a7 11 3d
       -0.004549972 0.10574549 0.091109686 0.035560347
0000f0 32 a6 ca bc 94 56 55 bb 6a db ca 3d 9d 29 8a bd
       -0.024737451 -0.0032552825 0.09905131 -0.06746218
000100 b5 57 69 bd e0 ea a2 bd 01 e5 9b bd f7 7e 2b 3e
       -0.05696841 -0.07954955 -0.076120384 0.16747652
000110 07 79 bd bd fa d6 91 bd 94 d2 de 3d 09 24 9f bd
       -0.092516 -0.07121082 0.10880008 -0.07770545
000120 58 52 07 3d 56 37 d4 3d 7a f9 09 3e bb d3 e5 3d
       0.033037513 0.10362117 0.13474074 0.11222025
000130 cd ff 3b 3e 34 c2 2e 3e 1f a0 b8 3c 8b 8f 34 3e
       0.18359299 0.1706627 0.02253729 0.17632882
000140 45 fc fe 3a 85 e2 87 bd 77 92 66 3c 64 a3 ad 3d
       0.0019453844 -0.06635002 0.014073006 0.0847843
000150 5b dc 13 3d b5 28 1a 3e 37 cf 3e 3e 31 3f 40 3e
       0.03609882 0.15054591 0.18633734 0.18774106
000160 39 16 c0 3d 6d bd 19 3c 52 1d e1 3d 0b 3f a5 bd
       0.09379239 0.0093835415 0.109919205 -0.08068665
000170 d9 eb 0e 3e 7f 5b 07 3e 94 88 28 3c f6 7f f1 3d
       0.13957156 0.13218497 0.010286469 0.11791985
000180 ec 88 be bd 38 25 b1 3d f9 b7 17 bd 63 13 f1 bc
       -0.093034595 0.08649677 -0.037040684 -0.02942819
000190 75 4f bc bd 3c 49 de 3c 29 3a 08 3e 09 3a be 3c
       -0.09194843 0.02713453 0.13303436 0.023221033
0001a0 d1 bf 7c 3c 0e ee 8e bd d3 e8 4d 3d 3a 90 f2 bd
       0.015426592 -0.06978999 0.050270867 -0.11843915
0001b0 17 c1 e3 bd 2f 94 00 3d bf f3 b8 bc f0 e5 90 bd
       -0.11120813 0.03139132 -0.022577165 -0.07075107
0001c0 19 5b 0e 3d 19 cf de 3d 67 15 18 3d 47 1c c7 bd
       0.034754846 0.108793445 0.037129786 -0.0972219
0001d0 31 05 c7 3d a8 ae 08 3d 72 6f 39 bd ac d1 ee 3d
       0.09717787 0.03336969 -0.0452723 0.116610855
0001e0 99 2c c4 3d 0d 67 88 3c c6 7b c6 bd 30 9c aa bd
       0.09578819 0.016650701 -0.09691577 -0.08330572
0001f0 7d 0d f8 3d bb 65 dd bd 86 e3 48 3d d2 77 c1 bd
       0.12111948 -0.10810419 0.04904511 -0.09446682
000200 32 5d c4 bd a8 12 90 bd 7f 08 39 3d 9e 3c cb bd
       -0.09588088 -0.070348084 0.045174118 -0.09923671
000210 1e 07 ef bd 87 57 90 bd 98 6a c7 3d 56 aa 93 3d
       -0.11671279 -0.070479445 0.09737128 0.072102234
000220 ca 72 0e bd c6 3c b8 3d f2 b8 f9 3b 5d 10 b6 bd
       -0.03477744 0.089959666 0.007620924 -0.0888984
000230 66 bb 33 3e 71 b9 22 3e ff db 7e bc 69 cf 06 bd
       0.17551956 0.15891053 -0.015555381 -0.032912645
000240 1a 12 ce 3d ab 85 22 3e c2 f8 ff bc 87 f6 d4 ba
       0.10062046 0.15871303 -0.031246547 -0.0016247787
000250 23 58 86 bd ea 0c b7 3d ee 9f a8 bc 6e 43 09 3e
       -0.065597795 0.0893801 -0.020584073 0.13404629
000260 80 3f 74 3d 61 c5 2e bd 74 9c 07 bd 8e bf 02 3d
       0.05963087 -0.042668704 -0.03310819 0.031920962
000270 60 50 68 3d 7c 31 cc bd f8 86 20 3e 29 01 17 3e
       0.056717277 -0.09970376 0.15676486 0.14746536
000280 fc bc 99 bd 69 19 aa 3d a5 83 b3 3d a5 9f 59 3d
       -0.07506749 0.08305628 0.087653436 0.053130765
000290 05 87 1e be 4f ab 81 3d 78 f9 24 bc fb 45 00 be
       -0.15481193 0.06331503 -0.010069244 -0.12526695
0002a0 36 d4 cc 3d 9d 52 73 3d 89 fd d6 3d 95 cd 61 3d
       0.100014135 0.059404958 0.10497577 0.0551277
0002b0 0b a8 be bd d9 e4 20 3d d6 df 1b be 09 0f f2 bc
       -0.093093954 0.039280746 -0.15222105 -0.029548185
0002c0 f1 f8 42 be bc 8f d7 bc 94 f2 49 be 73 52 08 3c
       -0.19040276 -0.026313655 -0.19721442 0.008320439
0002d0 96 ff 38 3d 40 fc 26 be 93 7d 84 3d eb c4 e9 bc
       0.04516562 -0.16307163 0.06469264 -0.02853628
0002e0 1b b9 e7 bd a8 d4 44 be f7 66 3f 3d 76 60 1d be
       -0.11314603 -0.19221747 0.046729054 -0.15368828
0002f0 6f 3d 2c be f2 fe 4b be b0 8c 18 be 3a 01 3e be
       -0.1682031 -0.19921473 -0.14897418 -0.18555155
000300 4c 86 e5 3d eb bd 7c 3b 70 de ab 3d b4 6a 6f 3c
       0.11207256 0.0038565348 0.08392036 0.014612842
000310 f0 4f f4 3d 1c 94 cc 3d 4d a4 03 3b 1b f6 52 3d
       0.11929309 0.09989187 0.0020086945 0.051504236
000320 a6 90 0d bd a1 4b 53 3d 66 ac 21 bd 2a 86 df bd
       -0.034561776 0.051585797 -0.039471053 -0.10914262
000330 c0 02 a2 3d ec d6 27 3e ff 21 d8 bd 1b fe 6f bd
       0.07910681 0.1639058 -0.10553359 -0.058591943
000340 ba d0 11 3e 5e 6d 2e 3e 03 94 53 3e bc 6e 74 bd
       0.14239779 0.17033908 0.2066193 -0.059675917
000350 cd 56 46 3e 61 a5 7d 3d 63 bd b2 3b 8a cd 3f 3e
       0.1936905 0.061925296 0.0054547056 0.1873075
000360 4e 4e 74 bd 42 4d 20 bc a5 85 a7 3c 6b 34 16 bc
       -0.05964499 -0.009784045 0.020449469 -0.009167771
000370 08 09 45 bd 48 74 52 bd 13 b9 e2 3d 45 12 9e 3d
       -0.048104316 -0.051380426 0.11070456 0.077183284
000380 e9 dd e2 bc f8 08 ea 3d 5b 3d 98 3d 0a f4 15 3e
       -0.027693706 0.11427492 0.074335776 0.14643875
000390 4d 59 7f bd cb 12 24 3e 50 cb c0 3d e1 39 77 bd
       -0.062341023 0.16022794 0.09413779 -0.060357932
0003a0 39 cf e4 3d fd 02 1f 3e 38 9f bf 3d e2 be c3 bd
       0.11172337 0.15528484 0.093565404 -0.095578924
0003b0 9c 99 42 3d 8c 19 25 3e 28 3d 27 3e 6f aa 9c bd
       0.047509775 0.16123027 0.16331923 -0.07649695
0003c0 b9 39 18 3e 56 3b 21 3e ae fd 14 3d 11 06 99 3d
       0.1486577 0.15745291 0.03637474 0.0747186
0003d0 c3 df 47 3d c5 24 3a 3e 10 d6 3d 3e b5 8d 00 3e
       0.04879738 0.18178089 0.1853869 0.12554057
0003e0 83 f4 b7 3d ab ae 44 3d 6a 2f 37 3d 6a f9 2d 3e
       0.08982184 0.04801814 0.044722952 0.16989675
0003f0 f0 3b 67 3d 09 e7 3b bd 65 f5 9e 3d 31 9e 5c bd
       0.056453645 -0.04587463 0.07761649 -0.0538618

encoder.0.bias f4 [12]
000000 5d 48 08 be 36 45 5f bd ba e3 3c 3e b6 30 c5 bd
       -0.13308854 -0.054509364 0.18446246 -0.096284315
000010 4c 30 d0 bd ac 9e 61 3e 56 ec bb bd 7a ee 91 3d
       -0.10165462 0.22033185 -0.09175937 0.07125564
000020 2f 2e 6b 3e 43 7f b6 bd 35 7c 48 3d ba 5e 71 3e
       0.22966836 -0.08910992 0.048946578 0.23571292

encoder.2.weight f4 [24, 12, 4, 4]
000000 90 45 82 bd 29 83 9d 3c 04 51 f5 bb 80 50 87 bd
       -0.06360924 0.019227581 -0.0074864645 -0.06607151
000010 8a e5 8a bc 7d 31 8a 3b be 18 02 bd 1f 0e 42 bc
       -0.016955156 0.0042173252 -0.031761877 -0.011844187
000020 24 de b8 3c 86 23 9e bd 9f 47 77 bd fa c7 56 bd
       0.022566862 -0.07721619 -0.060371038 -0.052436806
000030 14 4b 50 3d 5b c9 12 3d cc de df bb 1a de 19 bd
       0.05085285 0.03583656 -0.0068319794 -0.03756533
000040 0d 15 a6 bd 65 f8 a0 bd 0f c4 05 bd 9c 1b b9 bd
       -0.08109484 -0.078598775 -0.03265768 -0.09038469
000050 29 a1 d9 bd 86 33 e1 bd a8 52 1f bc 79 56 ad bd
       -0.10626442 -0.109961554 -0.009724297 -0.08463759
000060 e8 02 8b 3c dc 6e 8a bd 9c 0d ef bd a0 53 d7 3c
       0.01696916 -0.06759426 -0.11672518 0.026284993
000070 97 dc 39 3d 7c 70 93 3d 92 e9 24 3d 9e 43 af 3b
       0.045376386 0.07199189 0.040261813 0.005348637
000080 6d df 18 3d 9b e5 dd 3d fe 2e 79 3d 09 74 9f bd
       0.03732245 0.108348094 0.06083583 -0.07785804
000090 5e bb 36 3c 8e 03 ae 3d 8c 9a 37 bc 76 c3 f9 3b
       0.01115307 0.08496772 -0.01120628 0.0076221777
0000a0 d9 e0 a0 3d 84 ba f4 3d 5b 28 e1 3d c1 8d bc 3c
       0.07855386 0.119496375 0.10994025 0.023016812
0000b0 5f c1 c7 3c 92 9b dc 3d 73 90 f4 3c 97 7a ef 3d
       0.024384199 0.1077186 0.029854035 0.11693304
0000c0 96 13 d4 3d 09 85 b5 3c ba 29 e1 3d c0 82 f3 3b
       0.10355298 0.022158163 0.10994287 0.007431358
0000d0 87 32 cc 3c a7 77 b9 3d 03 0d 49 3d 40 c9 81 3d
       0.024926437 0.09056025 0.049084675 0.063372135
0000e0 c1 11 1f 3d 07 9a 3a 3c c4 8d 6c bc e1 55 aa bc
       0.03883529 0.011389262 -0.014438096 -0.020792903
0000f0 11 ce a9 3d ca dc b0 bc a3 bd 9e 3c c2 a1 a9 3b
       0.08291257 -0.021589655 0.019377535 0.0051767537
000100 7c 58 45 3c db 4f ce 3c ab 1a 78 bc 18 33 a5 bd
       0.012045022 0.025184562 -0.015143077 -0.08066386
000110 c6 60 a6 3c 41 ad 93 bd 91 77 fd bd d3 d0 ee bd
       0.020309817 -0.0721078 -0.12376321 -0.11660924
000120 e4 16 a8 bc ee 7e 12 bd 0e 39 e7 bd 50 30 90 3c
       -0.020518728 -0.03576558 -0.11290179 0.017601162
000130 90 e3 45 3d 0e 15 44 bc 9f d6 02 bc ea 8d 94 3c
       0.048312724 -0.01196791 -0.00798574 0.018134076
000140 fa 80 f6 bc 74 ee 6b 3d 02 94 bb 3c 75 a9 98 3d
       -0.030090798 0.057600453 0.022897724 0.07454196
000150 de bc bf bc b5 f0 b4 3d a7 fb b5 3d a7 a3 15 bd
       -0.023405489 0.08834974 0.088858895 -0.036533024
000160 03 1d de bc 60 35 e1 3d d5 9c 95 3d 6e cb 1e 3d
       -0.027113443 0.109965086 0.07305304 0.038768224
000170 53 8c b7 3d 5f 0b a1 3d 0e 2c 99 3d 51 50 44 3c
       0.089623116 0.07863497 0.07479106 0.01198204
000180 81 78 19 bd da 2d e6 39 b9 d9 54 bd ac 4f 1d bd
       -0.037468437 0.0004390318 -0.05196545 -0.03840606
000190 ac bd de bc 13 b3 65 3d bc de 59 bd 0a be 35 3d
       -0.027190052 0.05607898 -0.05319093 0.04437069
0001a0 94 85 90 3d 5c 11 7a 3c c8 8d 15 3d 1e f1 83 3d
       0.07056728 0.015262928 0.036512166 0.06442474
0001b0 23 11 51 bd b5 c1 fd 3a 8c 18 0b bd db 82 33 bd
       -0.051041733 0.0019360097 -0.033958957 -0.043825965
0001c0 32 21 53 3d d3 f7 98 bc 13 ae 39 3d 7b 5f 94 3d
       0.05154533 -0.01867286 0.045332026 0.07244774
0001d0 87 10 f5 3c a9 7b 66 3d 40 43 e0 3d a3 cf 70 bc
       0.029915107 0.056270275 0.10950327 -0.014697942
0001e0 26 21 b3 3d ee 3e 46 3d c3 3e be 3d 7b 05 a5 3d
       0.08746557 0.04839986 0.092893146 0.08057686
0001f0 2e 89 b3 3d 4e 42 96 3c 3f 01 88 3d bd 2e 70 3d
       0.08766399 0.018342163 0.06640863 0.058638323
000200 ba d1 ff 3c 3b 14 1a 3d 14 13 30 3c 95 32 90 3d
       0.031227935 0.03761695 0.010746736 0.07040898
000210 78 dc a2 3d 9e b7 cc 3d 86 cb b8 3d 65 cc b8 3d
       0.07952207 0.0999596 0.09023194 0.0902336
000220 78 65 02 3e e2 aa ee 3c 37 d2 0e 3e 52 f1 91 3c
       0.1273402 0.029134218 0.13947378 0.017815266
000230 56 dc 95 3d bf 10 3e 3d 55 1d 0a 3e bc c7 d4 3d
       0.07317416 0.04640269 0.13487752 0.10389659
000240 3b c2 85 3c 4d 95 de 3b ea 03 9a bd 32 53 49 3d
       0.016327968 0.0067927004 -0.07520278 0.049151607
000250 4b ef 96 3c 07 15 ae bd 45 0b ea bd ba 43 0d bd
       0.01842465 -0.085001044 -0.11427931 -0.034488417
000260 f6 80 a5 bd 83 9c 6f bb e1 9e 14 3c 77 41 ad bc
       -0.08081238 -0.0036561794 0.009071083 -0.02114938
000270 76 fb 81 bd cb 19 a1 bd dc da 12 3d bb 0f 3c 3d
       -0.063467905 -0.07866248 0.03585325 0.04591344
000280 b0 03 31 3d 65 a8 b0 bb 99 f2 28 bc 04 9f 47 bd
       0.043216407 -0.005391168 -0.010311746 -0.048735633
000290 68 49 3b bd 98 00 fe 3d aa 81 ea 3d eb 23 9e 3c
       -0.045724303 0.12402457 0.11450513 0.019304236
0002a0 93 7b 89 3c ce c8 d8 3d 14 97 9f 3d 0c 80 a9 3c
       0.016782558 0.105851755 0.07792488 0.02069094
0002b0 ec 5d 7d bd 88 a4 b6 3b 64 61 c1 3c 05 1e 47 bd
       -0.06185715 0.005573813 0.02360601 -0.048612613
0002c0 7f 1b 30 bd 4e da bb 3c 65 8b a1 3d 49 20 13 bc
       -0.042994972 0.022931244 0.078879155 -0.008979865
0002d0 6f eb fb 3d 69 2a f9 3d c6 25 e1 3c a9 a7 b1 3a
       0.12300765 0.12166292 0.027483832 0.0013553995
0002e0 5d f2 9b 3d 44 48 08 3e ba 0e 03 3e bd c8 9a 3d
       0.076145865 0.13308817 0.12798586 0.07557819
0002f0 da 67 b2 3d 76 f9 31 3d 81 6e d8 3d dd f4 7d 3d
       0.08711214 0.043450795 0.10567952 0.062001098
000300 5c c5 11 be e4 08 c0 bd d3 49 e9 bd 63 1c 9a bd
       -0.14235443 -0.09376696 -0.11391034 -0.075249456
000310 8e 9e 8b bd 1d 1a 38 bd 2e 6c 4b bd 16 c1 ea bd
       -0.06817351 -0.04494678 -0.049663715 -0.114626095
000320 e1 79 09 be a0 fe a3 bd ab 4f 5d bd 20 e9 42 3c
       -0.134254 -0.0800755 -0.054031055 0.011896402
000330 b3 0d 94 3b 7a de b4 bd ff b8 b3 3c 86 22 a2 3d
       0.0045182346 -0.088314965 0.021938799 0.07916741
000340 86 84 68 bd 65 63 b4 bc 14 c5 1b be 08 fb c0 bd
       -0.05676701 -0.022020051 -0.15211898 -0.094228804
000350 0e ea 20 be 7e 5e 60 bd c6 c6 55 bd 0a e4 ed bd
       -0.15714285 -0.054777615 -0.05219152 -0.116157606
000360 e0 c3 11 be bb f4 aa bd d4 bd ef bd 7e 98 fa bd
       -0.14234877 -0.0834746 -0.11706129 -0.12236117
000370 a5 c4 2e 3d 2e 87 0f 3d f9 28 35 3c c7 99 8f 3d
       0.042668004 0.035041027 0.011057132 0.070117526
000380 13 34 d3 bd c9 57 bb 3c 56 cd 45 bc be d1 8a bb
       -0.10312667 0.022869008 -0.012072882 -0.004236429
000390 04 6e 56 3c 31 12 93 3d 0e 21 6b 3c 92 e1 83 bd
       0.013087753 0.07181204 0.014351143 -0.064395085
0003a0 44 dd 21 bd d3 6c 72 3c ed e3 09 3c 2a 5f 9f 3c
       -0.039517656 0.0147964535 0.008416158 0.019454557
0003b0 07 0f 98 3d 70 30 06 3d 75 0e d5 bc 50 55 47 3d
       0.07424741 0.032761037 -0.02600787 0.048665345
0003c0 78 bf c9 3d ff ea 62 3d c4 0e c0 3d 20 a4 34 3d
       0.09850973 0.05539989 0.09377816 0.044101834
0003d0 c3 86 e6 3a 41 b4 b4 3d 17 3a d9 3c 7d 37 75 ba
       0.001758777 0.08823443 0.026516957 -0.00093542767
0003e0 db 40 6e 3c 63 fb d4 3d 36 d8 36 bc 01 20 1a 3d
       0.01454183 0.10399511 -0.011159947 0.037628178
0003f0 54 86 37 3d 82 cd cd 3d 89 eb 0e bd 90 2c 72 3d
       0.04480584 0.10048963 -0.034892593 0.05912453

encoder.2.bias f4 [24]
000000 c9 14 e2 3d e6 92 5b 3c c2 f3 88 3c ce 01 87 3d
       0.11039121 0.013401723 0.016717795 0.06592141
000010 b4 56 91 3d 9d 8c dd 3d 6b d4 0f 3e 85 de d7 3d
       0.070966154 0.108178355 0.14045875 0.10540489
000020 9f e5 f6 3d 31 28 66 3d 47 6f 70 3d 0d d6 07 3e
       0.120555155 0.056190673 0.058699872 0.13265248
000030 a7 ad 3f 3e 37 d7 64 bc 54 46 28 be 74 c6 f3 3d
       0.18718587 -0.013967327 -0.16433078 0.11903086
000040 1e 30 1f bd 7e 58 95 3d 8c c3 03 3e 8b 65 f1 3d
       -0.038864248 0.07292269 0.12867564 0.11786946
000050 92 30 09 3e ee 8c 98 bd f4 7b 34 3e 26 c8 ab bd
       0.13397434 -0.07448755 0.1762541 -0.08387785

decoder.0.weight f4 [24, 12, 4, 4]
000000 04 88 f7 3c 71 e0 b6 3d ba 72 ad 3d f8 bb a8 bb
       0.030216224 0.089295276 0.08469148 -0.0051493607
000010 0f 50 ac 3d f3 da 76 3d 90 54 2c 3e 29 64 72 3d
       0.084137075 0.0602674 0.16829133 0.05917755
000020 39 33 4e 3d f1 0b e8 3d ed 5e 41 3d b5 8a 45 3d
       0.05034182 0.11330403 0.04720967 0.048227984
000030 1a b0 79 bd 07 90 47 bc eb d8 b7 3d ba 06 6e 3d
       -0.06095896 -0.012180335 0.08976921 0.058111884
000040 dd c2 8d 3b 56 74 c9 3b 32 88 10 3d 90 0b 30 bb
       0.004326208 0.0061479015 0.035286136 -0.002686236
000050 4f 79 64 bc a3 05 98 3d fe 3a 12 3e 70 79 79 3c
       -0.013944938 0.0742295 0.14280316 0.015226707
000060 6f db bb 3d 5b ff 81 bd 49 cc 99 3d 8a 20 3a bd
       0.09172713 -0.06347533 0.075096674 -0.045441188
000070 99 e9 e6 b9 f5 d4 a6 3d a6 64 13 3d 31 39 86 bd
       -0.00044043062 0.08146087 0.035984658 -0.06553877
000080 cf 44 d5 3c 5f 73 58 3c 30 1d b3 bd 58 33 25 bd
       0.026033787 0.0132111 -0.087458014 -0.04033217
000090 15 a7 40 3c 80 1a 8f 3d b8 f7 1e 3c 08 c1 3e 3d
       0.011758585 0.06987476 0.009702615 0.046570808
0000a0 48 9d 30 3c 8f bf 66 bd 1b 3a 2a bd eb e9 b3 bd
       0.010779686 -0.05633503 -0.04155932 -0.08784851
0000b0 9e 78 80 3c 94 13 4a bd 23 80 7e bd c0 71 6e bb
       0.015682515 -0.049335077 -0.06213392 -0.0036383718
0000c0 7d 1c 9b 3c 19 39 02 3d 35 90 c4 3c e5 f1 d7 3d
       0.018934483 0.031792734 0.023994545 0.105441846
0000d0 61 c4 4f 3c 42 b9 8b 3d 90 33 ec 3d 2d db 0b 3e
       0.012681098 0.068224445 0.11533272 0.13657828
0000e0 e0 52 50 bc ca 44 cb 3d 0b 55 40 ba 98 34 8a 3d
       -0.012715071 0.0992523 -0.0007336891 0.06748313
0000f0 d6 a5 15 bd 30 f1 23 3d 45 88 84 3c 08 ea 28 3d
       -0.036535107 0.040024936 0.01617826 0.041238815
000100 8b 1c 88 3c cf b8 f5 bb 0b 16 52 3d 84 9c 4a bd
       0.016615173 -0.0074988375 0.051290553 -0.04946567
000110 f6 a4 10 3d d1 29 09 3d 92 fd ad bb 5d a1 3c 3d
       0.03531357 0.033487145 -0.005309769 0.046052326
000120 03 c1 aa bd fb 6f 0d 3d 14 89 9d 3c 76 a2 95 3c
       -0.08337595 0.03453062 0.019230403 0.018265944
000130 a9 3d 9c bd fe 9a c8 3c e8 7d 6b 3d d4 30 86 bd
       -0.07628948 0.024487969 0.05749312 -0.06552282
000140 4b 52 fe 3c 39 65 71 3d ee ec 43 bd fa f0 83 bd
       0.0310451 0.058934424 -0.047833376 -0.06442447
000150 dd fe 37 3c ed 48 01 be b4 c6 5d bd 05 82 6f 3d
       0.011230198 -0.12625475 -0.054144576 0.058473606
000160 af 04 a0 bd e9 ab 53 bc ad a8 84 bd 62 8a 10 3d
       -0.07813393 -0.012919405 -0.06477485 0.035288222
000170 0d cd ec bd 96 d7 30 bd 69 a6 24 bd 95 b9 35 3c
       -0.11562548 -0.04317435 -0.040197764 0.0110916095
000180 42 34 e1 bc 08 fb 71 3d 1b bb 03 3e 7f da a0 3d
       -0.027490739 0.059077293 0.12864344 0.07854175
000190 e7 90 f0 3d 38 29 83 3c e6 bc 8f 3d 11 6e df bb
       0.11746388 0.016010866 0.070184514 -0.006818541
0001a0 bd 39 e0 3d 46 de 1a 3e 06 bd 91 3d 53 14 51 3d
       0.10948513 0.15123853 0.071161315 0.051044773
0001b0 dc ec b8 3c eb d8 83 bd 32 48 f7 3d bc a8 81 3d
       0.02257388 -0.06437858 0.12074317 0.06331012
0001c0 ef 7a c0 bb 80 96 a4 bd bf ed 9b bd 18 67 6b 3c
       -0.00587403 -0.08036518 -0.07613706 0.014367841
0001d0 ed 21 2e 3d 7c ae cf bd 30 bf 72 3b 6c 5f 4d bd
       0.042512823 -0.10140702 0.0037040226 -0.05013983
0001e0 6e 2e 01 3d b6 de 54 bd d0 63 8a bc 4f 10 f1 3c
       0.03153842 -0.051970206 -0.016893297 0.029426722
0001f0 cb 26 7d 3d 32 75 8f 3c f2 d9 db 39 35 68 1f bc
       0.061804574 0.017511938 0.00041933317 -0.009729435
000200 60 1d 48 3d 80 50 3b bd 43 20 96 bc 20 81 2c bd
       0.04885614 -0.045731068 -0.01832593 -0.04211533
000210 ef d5 b4 3d 30 89 32 3d df be 00 bd db ec 31 bd
       0.08829867 0.043587863 -0.03143203 -0.043438774
000220 d3 eb c0 bc 50 43 e8 3c 28 4c b4 bd 70 1c 7a 3c
       -0.02354995 0.02835241 -0.08803588 0.015265569
000230 89 a3 76 3c d4 fa 33 3d 6a fc e1 3d a0 3d 16 3d
       0.015053638 0.04394038 0.11034472 0.036679864
000240 a1 08 b1 3c 46 12 5a bd 6f 9d 65 3d c0 34 77 bc
       0.02161056 -0.053240083 0.056058343 -0.01508826
000250 d6 93 b0 ba 96 d7 2d 3d 91 51 4e 3d 1d d1 52 bc
       -0.0013471793 0.042441927 0.050370757 -0.012867239
000260 cf 06 7a 3d 23 b1 86 bc e3 23 6c bd 1d 96 85 3d
       0.06104165 -0.016441887 -0.05765141 0.065227725
000270 fc f0 c7 3b c0 27 17 3d ce 6a bb bc 15 31 7d ba
       0.0061017256 0.036903143 -0.022878077 -0.0009658498
000280 d1 63 9b 3d 2e a6 ee 3b 82 42 07 3e 36 d1 12 bd
       0.07587398 0.0072829938 0.13208964 -0.03584405
000290 74 28 02 3d 13 31 b4 3d b5 9c 3f 3d 6f 6a d8 3c
       0.03177686 0.08798423 0.046780307 0.026417939
0002a0 36 e8 98 3d 42 d4 87 bd 94 46 7a 3d 9a 07 1b ba
       0.07466166 -0.06632282 0.061102465 -0.00059139135
0002b0 89 88 7f bd 35 0b 2b bd 10 d5 b3 bb cb 67 99 3c
       -0.06238607 -0.041758735 -0.0054880455 0.01872625
0002c0 d7 7c 33 bd 43 76 81 3d 75 6b fa bc 22 d4 00 3d
       -0.04382023 0.06321385 -0.030568818 0.031452306
0002d0 3c ff 56 bc 10 8d 0b bd 24 9e 3a bd 6c e5 f2 3c
       -0.013122376 -0.034070075 -0.04556097 0.029650412
0002e0 d9 ca c1 3c 14 fe 07 3e 43 91 fc 3d a1 ab b9 3b
       0.023656296 0.13280517 0.12332394 0.0056662117
0002f0 3c b8 a2 bd de 6d 7d 3d d3 18 3a bd cc 50 46 bb
       -0.07945296 0.061872356 -0.04543383 -0.003026056
000300 f8 66 41 bd e3 72 c6 bc 74 f3 93 3d fa bc 60 3d
       -0.04721734 -0.024224704 0.072241694 0.054867722
000310 d4 af fb 3d 5f 1c 0f 3e 4e cd 32 3d cd 2c f7 3c
       0.12289396 0.13975666 0.043652825 0.03017273
000320 9e 74 f0 3d c0 a4 06 3d fc 5a 4d 3d 6b b3 d5 3d
       0.11740993 0.03287196 0.050135598 0.10434612
000330 8b a5 12 3d 5d fc 94 3d 3b 52 bb 3d a5 85 96 3c
       0.035802405 0.07274697 0.091465436 0.018374274
000340 e4 24 9f 3c 4e 03 44 3c 76 53 bb 3d 54 7b 64 bd
       0.01942677 0.0119636785 0.09146778 -0.055781677
000350 74 27 40 3d b6 78 eb 3d d6 2b ab 3c 05 df 95 3b
       0.046912625 0.11497633 0.020894926 0.004573705
000360 81 97 b5 3d 9a 6f 7c 3d 56 e2 c9 3c 66 82 9d bc
       0.08866788 0.06162987 0.024644058 -0.019227218
000370 24 80 c1 3c 1b fe 0a 3e c5 7f 49 3d 29 58 39 3d
       0.023620673 0.13573496 0.049194116 0.04525009
000380 52 f6 35 3c b2 01 35 3d c2 21 d3 bc 9f 4b 63 bd
       0.011106091 0.04419107 -0.025772933 -0.05549204
000390 7a 1a bb bd 00 2e f8 ba 8d 00 10 bd 64 47 5f bd
       -0.091359094 -0.0018934608 -0.035156775 -0.054511443
0003a0 05 94 b0 bb 71 24 2c bd 7c e8 09 be c7 8f 91 bc
       -0.005388739 -0.04202694 -0.13467592 -0.017768754
0003b0 88 03 a2 bd 66 af f0 bc d1 39 07 be f0 93 ec 3c
       -0.0791083 -0.029380511 -0.13205649 0.028879136
0003c0 05 53 70 3d c0 4f 79 3d 72 50 d9 3d e8 80 75 3d
       0.058672924 0.06086707 0.10611047 0.059937388
0003d0 ba 47 54 3c c6 09 89 3d 69 89 2a 3e bb 79 a3 3d
       0.012956554 0.06691317 0.1665398 0.079822026
0003e0 3c b5 04 bc c8 26 95 3d d5 36 97 3d 4c 2f 48 3d
       -0.00809985 0.072827876 0.07383505 0.04887323
0003f0 57 c4 66 3d 11 6b c7 3d 4c b8 aa 3d c6 8c 49 3c
       0.056339588 0.09737218 0.08335933 0.012301629

decoder.0.bias f4 [12]
000000 1e 8c e7 3d a9 a4 49 bd 6c 5c 94 bd 10 45 02 3e
       0.11306022 -0.049229298 -0.072441906 0.12721658
000010 54 c0 98 3d 1c 51 85 3d c7 3e b7 bd 84 d3 bb bb
       0.07458559 0.06509611 -0.08947521 -0.0057320017
000020 76 ea b9 bd 5f e1 51 bb f2 87 c6 3d d9 f1 6f 3d
       -0.09077923 -0.00320252 0.09693898 0.058580253

decoder.2.weight f4 [12, 3, 4, 4]
000000 f8 8c 49 bc 2a 1c f7 bd 0e 77 01 3d 5c 6f b0 3d
       -0.012301676 -0.12065919 0.03160768 0.0861499
000010 b2 1f 89 3d df cb 71 bd 58 35 02 3d bc 6b 93 3d
       0.066954985 -0.059032317 0.031789154 0.07198283
000020 e3 a4 83 3d fb e1 52 3c db 0d e5 3d 61 f1 66 3d
       0.06427934 0.012871261 0.11184283 0.05638254
000030 b0 1e 87 3b 82 ec e3 bd b9 ee 9f bd 90 ab ae 3d
       0.0041235313 -0.11129095 -0.078092046 0.08528817
000040 0b 94 fd bd 0a d3 35 bd ae cd 9c 3d a0 b7 21 bc
       -0.123817526 -0.044390716 0.07656418 -0.00987044
000050 ec 8b f8 bd 1e 31 22 be f0 dc 11 be fe 29 81 bc
       -0.12136063 -0.15839049 -0.14244437 -0.015767094
000060 e3 4d ff 3c fa f6 50 be 64 9c bd bd 41 dd 1c be
       0.031165069 -0.20406714 -0.09258345 -0.15318777
000070 ae 5d 34 bd 81 54 e8 bd bc 90 4b 3d d7 1d 49 3d
       -0.044034652 -0.11344243 0.049698576 0.049100723
000080 b6 98 b6 3c 18 a6 b0 bd 04 39 fc 3c 52 16 93 3d
       0.022289615 -0.0862543 0.030788906 0.07181992
000090 ce b1 55 be 99 d1 7b be 71 42 7c be 9e 35 be bc
       -0.20868608 -0.24591674 -0.2463472 -0.023218926
0000a0 83 2f 30 be 4f 37 18 be d4 25 d4 bd 2a f3 eb bd
       -0.17205624 -0.14864849 -0.10358778 -0.11520989
0000b0 f7 01 a0 bd b6 8f 59 be 83 d4 12 be a8 c4 17 be
       -0.07812875 -0.21246228 -0.1433888 -0.14821112
0000c0 57 a2 04 3d b4 b7 59 3d 1f 03 20 3d 44 0b 06 3d
       0.03238138 0.05315371 0.039065477 0.032725587
0000d0 b2 d2 62 bd ab 13 3f 3e be 25 54 3e ee 97 23 bc
       -0.055376716 0.18659846 0.20717523 -0.009984953
0000e0 09 c0 ae ba b0 53 0e 3e 8a aa 04 3e d8 28 0d 3e
       -0.0013332377 0.13899112 0.1295568 0.13785112
0000f0 2b da f5 3b 40 e0 db 3d b4 26 53 3d 20 21 fd 3d
       0.0075028143 0.10736132 0.051550582 0.12359834
000100 e0 ff da 3c fa 5b cc bd 60 74 53 bd 92 b1 5d 3d
       0.026733339 -0.09978481 -0.051624656 0.054124422
000110 4c be 04 3d 84 0a 03 bd 12 c8 2b bc 5b c2 02 bd
       0.032408044 -0.03199245 -0.010484712 -0.031923633
000120 c4 38 9f bd e2 41 ff 3d 69 dc 98 bd af e0 2c 3c
       -0.07774499 0.12463738 -0.07463915 0.010551616
000130 a6 bd 40 bc 46 dc 48 3d 12 cc fc bd 23 5c eb bc
       -0.011763966 0.049038194 -0.12343611 -0.028730458
000140 0b fe c1 bd 18 28 76 3c 1e 93 3a be a6 1d a3 bd
       -0.09472283 0.0150242075 -0.18220183 -0.07964639
000150 76 12 45 be be 40 42 be c5 3e 64 bd ef db 76 bc
       -0.19245324 -0.1897001 -0.055723924 -0.015067085
000160 0c da d9 bd bb 86 92 3d 05 8a bf bd 08 b2 d7 3d
       -0.10637292 0.07154604 -0.09352497 0.10532004
000170 8e 8b 27 bb 1e 4d 9c 3c 95 33 cb 3d dc fd b2 3d
       -0.0025565359 0.019079741 0.09921948 0.08739826
000180 3f 65 ce bc 9f d4 0b 3d 82 cf 2b bd 6f 84 d3 3d
       -0.025194762 0.03413832 -0.04194594 0.10327994
000190 f5 90 1f 3b 07 d7 c1 3d c2 a9 dc 3b 2a 53 68 3d
       0.0024347876 0.09464841 0.006734104 0.056719936
0001a0 44 8a a0 3d 34 cd 1e 3e c9 90 47 bd f8 30 dc 3d
       0.07838872 0.15507966 -0.048722062 0.107515275
0001b0 02 da 62 3d 7f 9c 1e bd 28 e5 83 bd 99 27 e6 bc
       0.05538369 -0.038723465 -0.064401925 -0.028095054
0001c0 c1 94 5c bb 2e c0 da 3c 6e 98 31 3e 87 a9 11 3e
       -0.0033658 0.026702967 0.17343304 0.14224826
0001d0 da e5 9d bc 46 c4 a5 3d 0a 78 eb 3d 57 53 bd 3c
       -0.01927464 0.08094077 0.11497505 0.023111029
0001e0 5a c1 c9 3c 0c a8 2c 3e 85 fe 11 3d 1b b4 6c ba
       0.02462833 0.1686098 0.03564312 -0.00090295234
0001f0 de f4 ce 3d 0f 60 e1 bb 8c d8 b7 3c 3d 1f 86 bc
       0.101052985 -0.006877906 0.022442125 -0.016372317
000200 1e fe 08 3d 27 93 1b 3e ba a8 10 3d 49 d5 68 bb
       0.03344547 0.15192853 0.03531716 -0.0035527518
000210 2d bd 28 3e ad 28 1f 3e 18 d0 fe 3d 40 73 8d ba
       0.16478415 0.1554286 0.124420345 -0.0010791793
000220 50 28 4c 3e 13 40 b3 bc a4 be eb 3d 70 d4 a0 3d
       0.19937253 -0.021881139 0.11510971 0.07853019
000230 65 5e 39 3c 80 ce 1d 3d 45 42 3e 3e 37 48 25 3e
       0.011314009 0.038527012 0.18579967 0.16140829
000240 3b 12 16 be e2 4d 13 3d 58 59 d8 bb df b8 54 3c
       -0.14655392 0.035962947 -0.0066024475 0.01298353
000250 ae 4d cb bd 36 15 eb bd b6 a2 34 bd 80 66 ea bc
       -0.099269256 -0.11478655 -0.044100486 -0.028613329
000260 53 76 52 bd 1d 69 f0 bd cd 93 19 be 82 b9 09 be
       -0.051382374 -0.11738799 -0.14997788 -0.13449672
000270 6a 2a bc bd 72 8e 1d 3d b5 f6 6e bd ad e3 1e be
       -0.09187777 0.038465925 -0.058340747 -0.15516539
000280 a6 a4 4a bc e8 c3 c1 bc 51 47 22 be 3d 1b b4 bc
       -0.012368357 -0.023652986 -0.15847518 -0.021985644
000290 1f 54 f1 bd 11 3b c1 bc 58 0e 18 be a7 4b 35 be
       -0.11783623 -0.023587735 -0.14849222 -0.1770464
0002a0 22 24 a1 bd d3 0d 3c 3c 6a 30 b6 bd 7b d0 4a bd
       -0.0786822 0.011477905 -0.08895953 -0.04951523
0002b0 ba ed 4e 3d 1a d9 58 bd 4f 2f 27 3d c9 02 41 bb
       0.050519682 -0.05294142 0.0408166 -0.0029451123
0002c0 db 1b 5c bd 09 7b dd bd f0 2f 6d bd 18 fc fc 3c
       -0.053737503 -0.10814483 -0.057907045 0.030881926
0002d0 c1 d3 4f be b0 5f 7d be 80 d9 f6 bd e7 76 3d be
       -0.20295621 -0.24743533 -0.120532036 -0.18502389
0002e0 b3 02 24 be 18 15 fb bd 58 fb 1d 3d 14 23 2c be
       -0.16016655 -0.12259883 0.03856978 -0.16810256
0002f0 28 6d f6 3d 38 73 9a 3c 29 cd a9 bd 83 9a a5 3c
       0.12032539 0.018853769 -0.08291084 0.020215278
000300 ea 20 09 be 8e ea fa bd 8d 6d 04 be 63 eb 32 be
       -0.13391462 -0.12251769 -0.12932415 -0.17472605
000310 d0 dc ac bd e7 99 17 be 99 d5 be bd 8c 09 37 be
       -0.08440554 -0.14804803 -0.09318084 -0.17874736
000320 55 7e 0f be 4e e1 fd bd 07 c4 39 be 6a e1 3d be
       -0.14013036 -0.12396489 -0.18141185 -0.1854302
000330 42 b2 3b bd 54 1d 2b be 20 24 07 be e5 d7 14 be
       -0.045824297 -0.16710407 -0.13197374 -0.14535482
000340 7a a9 96 bd 32 54 6d be 27 93 18 be 4d 40 4d be
       -0.07356544 -0.23176649 -0.14899884 -0.2004406
000350 a3 ba 87 bd e7 fd 11 be 24 40 2a be 7a 31 38 be
       -0.06627395 -0.14257012 -0.1662603 -0.17987624
000360 1a bc 2d be 81 ee 2c be 0d 69 25 be 4f 6f 41 be
       -0.16966286 -0.16887857 -0.16153355 -0.18890117
000370 62 04 30 be c1 1d 5e be 50 06 7e be 4c 23 2c be
       -0.17189172 -0.21691038 -0.24807096 -0.1681034
000380 ea e6 6a bb 57 63 f9 bc 76 37 03 bc 29 f7 0f 3d
       -0.0035843202 -0.030442877 -0.008008828 0.03514782
000390 bd 9a 51 3d bc 50 99 3d e0 d9 24 3c 43 a6 9b 3d
       0.05117296 0.07486102 0.010061711 0.07600071
0003a0 be 8f d3 bc ed 21 b1 bd 5a 76 e2 3c 12 e4 a7 3c
       -0.025825378 -0.08649049 0.027644325 0.020494495
0003b0 53 62 33 bd 4a 17 22 3d 29 b6 bf bd 86 41 b5 3d
       -0.04379494 0.03957299 -0.09360916 0.08850388
0003c0 3f a9 8d bc e4 f5 29 be ac e1 8e be 32 04 46 be
       -0.017292617 -0.16597706 -0.2790655 -0.19337538
0003d0 87 6f 11 be 09 bf 59 be af 10 a3 be 52 f3 fc bd
       -0.142027 -0.2126428 -0.31848666 -0.12351097
0003e0 93 9b e0 bd 54 dd 83 be ed f7 3a be 1c 10 af bd
       -0.109671734 -0.25754797 -0.18258639 -0.085479945
0003f0 0f f2 76 be 16 1e 07 be 35 0a 55 be 78 0f 55 be
       -0.24115776 -0.1319507 -0.20804675 -0.20806682

decoder.2.bias f4 [3]
000000 c2 63 89 bd f6 0e 8a 3d f3 40 b9 3d
       -0.067084804 0.06741135 0.09045591
