weights/simple_cae_ne3_b8_icub_left.pth (torch, 44951 bytes, 8 tensors)

encoder.0.weight f4 [12, 3, 4, 4]
-0.114052735 -0.08874087 -0.04208686 -0.072037995 -0.13911423 -0.11792052 0.030742016 0.011798883
0.13962238 -0.121006146 -0.11339862 -0.06759385 -0.1259884 0.0407673 -0.015234114 0.011638283
-0.11995469 0.0006457718 0.008795484 -0.14045867 0.046026517 -0.06987904 -0.009944376 0.12937291
-0.028720599 0.033306446 0.13110355 -0.078862004 -0.09909783 0.09822951 -0.0022685502 -0.039197583
-0.048760857 -0.15039651 0.013523341 -0.045961853 -0.14417765 -0.039188392 -0.13296978 -0.006904166
0.08950156 -0.05925433 0.03723335 -0.12261788 -0.09579943 -0.047081836 0.08482752 0.103445224
-0.024989702 0.10581567 0.030216299 0.08454937 0.20779297 0.0043677315 -0.026435984 0.17131816
0.17891397 0.02065295 0.124752946 -0.01004809 0.09802691 -0.07826896 0.1443339 0.17274514
-0.10110603 0.074521795 -0.0059076734 -0.0769801 -0.1083415 0.108551495 -0.016693031 0.10347171
0.13699019 -0.10395136 -0.043546777 -0.08506608 -0.07724947 -0.10289254 -0.10137887 0.095409796
0.0035511458 0.10407416 -0.0166739 -0.10407572 -0.07866754 -0.016655553 -0.16176765 -0.037293784
-0.14276354 -0.06398055 0.018174361 0.10699647 0.05392594 -0.003542018 -0.030224957 0.08507491
-0.0026052492 0.021199565 0.08911817 -0.05498399 0.13770573 -0.0979773 -0.03441838 -0.021442965
0.13701582 -0.034196265 0.10935256 -0.11677952 0.0808695 -0.0028585247 0.024460861 -0.044429917
0.05384335 -0.11677486 -0.09549803 -0.10189988 0.016719908 -0.0018362404 0.089363895 0.02601048
0.031140959 -0.06744396 -0.076067075 -0.079933465 -0.11262575 0.036180485 0.021518229 -0.1413474
-0.0041325255 0.030542364 0.13222599 0.012433356 0.01200878 0.036345568 0.03411221 -0.13376938
-0.011362924 0.05914786 -0.047500692 -0.09648869 0.12915249 0.13378286 0.075406045 -0.12968427
0.12914078 -0.086557806 0.15645546 0.14199871 -0.026310435 0.008503989 -0.06269161 0.025122846
0.10161966 -0.0061772577 0.055561323 0.08348463 0.14517438 0.10341988 -0.045178857 0.005636156
0.0779282 -0.03335753 -0.07236553 -0.030195821 -0.005815156 -0.056497663 0.023233678 -0.03899101
-0.14288947 -0.062030014 0.049634106 0.07978364 -0.015968911 0.035733007 -0.13950746 0.09005136
-0.16252938 -0.14583889 0.002455537 0.11969749 -0.09602685 0.008571316 -0.12238557 -0.11224043
-0.029337633 -0.12349953 0.027378235 0.04276067 0.006445627 -0.004123647 -0.0996666 -0.048179332
0.030312082 0.168799 0.12163038 0.1250698 0.17862095 0.08687405 -0.087576464 0.046248257
0.1023303 -0.029175699 -0.07947843 0.05063014 0.042569365 0.098582745 0.12608454 -0.022661991
-0.0017528113 -0.14426775 -0.051071797 0.09001956 -0.07217218 -0.10935902 -0.043901317 0.12576868
-0.09001945 0.13192089 0.043458153 -0.063543536 0.087871626 -0.13787943 -0.054499608 0.052288063
-0.11109886 -0.13473259 -0.14535902 -0.080166586 -0.045480885 0.08343139 -0.10746164 0.062413882
0.045192372 0.10518718 0.07301854 -0.0011889447 -0.15693016 -0.08157814 -0.06463494 -0.12188884
-0.1497244 -0.1517002 0.0078209005 -0.03841807 0.113690615 -0.048435904 0.08752157 0.15405469
-0.04985915 -0.12788953 0.12207333 0.072172254 -0.07333945 -0.058677655 -0.09673931 0.09711573
00000000: 7b94 e9bd c6bd b5bd 4563 2cbd a888 93bd
00000010: f673 0ebe 5080 f1bd aed6 fb3c 1a50 413c
00000020: 2bf9 0e3e 12d2 f7bd 893d e8bd a56e 8abd
00000030: 1a03 01be 9dfb 263d 8198 79bc 7fae 3e3c
00000040: ceaa f5bd 0349 293a ef1a 103c 66d4 0fbe
00000050: 4d86 3c3d be1c 8fbd bced 22bc 557a 043e
00000060: 7647 ebbc 576c 083d 0240 063e 6782 a1bd
00000070: cef3 cabd 8e2c c93d f5ab 14bb a58d 20bd
00000080: 77b9 47bd 8b01 1abe 0191 5d3c 7f42 3cbd
00000090: 4ea3 13be 0284 20bd 3b29 08be 583c e2bb
000000a0: 984c b73d abb4 72bd ff81 183d 151f fbbd
000000b0: 7e32 c4bd e2d8 40bd 0dba ad3d 17db d33d
000000c0: 34b7 ccbc e3b5 d83d 2c88 f73c 3828 ad3d
000000d0: aec7 543e 301f 8f3b 4790 d8bc 076e 2f3e
000000e0: 3935 373e 6030 a93c 797e ff3d bea0 24bc
000000f0: 55c2 c83d 7a4b a0bd 44cc 133e 1ae4 303e
00000100: ae10 cfbd e29e 983d 2895 c1bb bea7 9dbd
00000110: 26e2 ddbd 3f50 de3d d3bf 88bc fae8 d33d
00000120: 2847 0c3e 73e4 d4bd 1b5e 32bd 2037 aebd
00000130: f834 9ebd 53b9 d2bd ba9f cfbd 3666 c33d
00000140: 57ba 683b d524 d53d b497 88bc a725 d5bd
00000150: 721c a1bd 3a71 88bc 6ba6 25be 5ec1 18bd
00000160: 9b30 12be 3c08 83bd 66e2 943c f720 db3d
00000170: 72e1 5c3d 3321 68bb 549a f7bc c13b ae3d
00000180: d4bc 2abb b6aa ad3c 9683 b63d e436 61bd
00000190: bb02 0d3e 53a8 c8bd 4afa 0cbd 28a9 afbc
000001a0: e04d 0c3e 6211 0cbd 3cf4 df3d 1a2a efbd
000001b0: e99e a53d 1656 3bbb 2562 c83c 25fc 35bd
000001c0: d88a 5c3d a827 efbd 7994 c3bd e2b0 d0bd
000001d0: 30f8 883c 01ae f0ba 6b04 b73d ee13 d53c
000001e0: 531b ff3c 0f20 8abd 0ec9 9bbd 28b4 a3bd
000001f0: 54a8 e6bd fd31 143d ff46 b03c 5fbd 10be
00000200: 236a 87bb fb33 fa3c 4066 073e 46b5 4b3c
00000210: 79c0 443c 17df 143d 3fb9 0b3d d7fa 08be
00000220: 8f2b 3abc 0745 723d 1690 42bd dd9b c5bd
00000230: 8d40 043e 60fe 083e 7c6e 9a3d f4cb 04be
00000240: 7b3d 043e 3845 b1bd dc35 203e 1c68 113e
00000250: fb88 d7bc 5154 0b3c 7564 80bd 6dce cd3c
00000260: f81d d03d 986a cabb 4594 633d fdf9 aa3d
00000270: 98a8 143e cdcd d33d 770d 39bd 81af b83b
00000280: d298 9f3d e8a1 08bd 6134 94bd 3a5d f7bc
00000290: 108d bebb 186a 67bd 8e54 be3c 0ab5 1fbd
000002a0: 9e51 12be 2f13 7ebd 224d 4b3d 9b65 a33d
000002b0: 3cd1 82bc c65c 123d 0bdb 0ebe d96c b83d
000002c0: 1a6e 26be ca56 15be 13ed 203b f523 f53d
000002d0: baa9 c4bd b46e 0c3c 49a5 fabd 50de e5bd
000002e0: 7a55 f0bc 52ed fcbd 5248 e03c d025 2f3d
000002f0: d735 d33b a91f 87bb 011e ccbd b157 45bd
00000300: 0b51 f83c a5d9 2c3e 5919 f93d 4c12 003e
00000310: 69e8 363e 06eb b13d 4a5b b3bd d06e 3d3d
00000320: 8c92 d13d e001 efbc 96c5 a2bd 8d61 4f3d
00000330: 375d 2e3d c0e5 c93d 4e1c 013e a4a5 b9bc
00000340: 96be e5ba edba 13be a930 51bd 2d5c b83d
00000350: 02cf 93bd 9ff7 dfbd ded1 33bd 81c9 003e
00000360: 1e5c b8bd 4516 073e 2d01 323d 1d23 82bd
00000370: 0af6 b33d 4430 0dbe fb3a 5fbd 022c 563d
00000380: cd87 e3bd 57f7 09be ffd8 14be 612e a4bd
00000390: 2a4a 3abd 14de aa3d d914 dcbd b3a5 7f3d
000003a0: a31b 393d 606c d73d bf8a 953d 5dd6 9bba
000003b0: 4db2 20be 7112 a7bd 535f 84bd dba0 f9bd
000003c0: 5a51 19be 4c57 1bbe 3c23 003c 445c 1dbd
000003d0: a0d6 e83d ba64 46bd 823e b33d 83c0 1d3e
000003e0: 1c39 4cbd 79f5 02be 9501 fa3d 0ccf 933d
000003f0: fe32 96bd fb57 70bd 421f c6bd 9de4 c63d

encoder.0.bias f4 [12]
-0.031673674 -0.118028075 0.21319485 0.28151816 -0.08357223 -0.039294776 -0.12167408 0.08753751
0.020297777 -0.14095879 -0.26684487 -0.16245735
00000000: 41bc 01bd b4b8 f1bd c04f 5a3e 2623 903e
00000010: eb27 abbd 8ff3 20bd 4330 f9bd de46 b33d
00000020: 8647 a63c 8057 10be e49f 88be 385b 26be

encoder.2.weight f4 [24, 12, 4, 4]
-0.029009296 -0.046170987 0.03971164 -0.057274964 0.067808025 0.04874713 0.015576871 -0.040787414
-0.022059016 -0.0006658857 -0.028675057 0.071472004 0.056306753 0.039283395 -0.015806543 0.03203131
0.15334603 0.0491461 0.12669456 0.15146874 0.023409996 0.09714961 0.13024342 0.015621875
0.1503934 0.021834364 0.09502594 0.13688304 0.1432921 0.04162469 0.1403846 0.034507178
-0.017670982 -0.010013551 0.01588716 0.071356446 0.03374446 -0.078745134 0.055834807 -0.0039392402
-0.015694233 -0.04306038 -0.03353412 -0.03481534 0.050499626 -0.033454265 -0.07599458 -0.0074543008
0.00919234 0.03597158 -0.018708084 -0.059284043 0.037923012 -0.07169773 0.01710643 -0.0774328
0.041681837 -0.07355836 -0.06250606 -0.071303375 -0.0039648963 -0.027023263 0.0135489 -0.09349889
-0.007134639 0.008139247 -0.0482205 -0.07081162 0.03530363 -0.005743942 -0.015293642 0.03281494
-0.010763557 -0.04970714 0.029687066 -0.029609974 0.053365003 0.053690314 -0.05787191 -0.028009234
0.06479816 -0.013664953 0.0039238892 -0.012538703 0.055182733 -0.021534398 -0.0708505 -0.08303755
-0.029812373 0.004373995 -0.027571326 -0.08956706 0.0015639894 0.02805399 -0.03253574 -0.014396561
-0.019043015 0.027430443 0.01891053 0.035367224 0.088950105 0.052586667 0.063853204 0.07985147
0.069186665 0.098913126 -0.022325708 0.10009803 0.059102945 -0.015430895 0.07060767 0.06724052
0.08410923 0.03749898 0.050712235 0.054034077 0.0005547032 -0.04743085 -0.011914149 0.0058133453
-0.014461934 -0.02410343 0.07378496 -0.02178558 0.00051236205 -0.06482241 0.08194593 -0.005581483
-0.03257087 -0.011062247 0.070176154 -0.037103858 -0.0069684847 -0.052385733 0.09205435 -0.007692971
0.004296302 -0.055782896 0.06483449 0.005383235 -0.009239959 -0.014546748 0.018138975 0.043029677
-0.012388574 0.03753554 0.013392779 -0.048401415 -0.0020638034 -0.015070189 0.06747647 -0.020817086
0.015647493 -0.049226098 0.06468225 0.054261625 0.046031207 -0.038239446 0.071224034 0.012677625
0.0036861282 0.10148352 0.11274929 0.021638447 0.07232974 0.09637289 0.067547746 0.08436097
-0.03820519 -0.018769436 0.003047466 0.086240366 -0.001609778 -0.0012546283 0.05164116 0.020716637
0.025342224 0.03460456 0.04857458 0.00997758 0.015823359 0.074522994 0.0235065 0.020605015
-0.018037964 -0.020794213 -0.008227733 -0.011083066 0.07827894 0.039346404 -0.03889512 0.033266034
0.042603426 0.028835379 0.048196256 0.03925751 -0.006144844 0.037283346 -0.051337853 0.05318083
-0.043292962 0.005727038 -0.006281346 0.06747076 0.03502799 0.021564573 0.0019072071 0.002897054
-0.16216129 -0.11294272 -0.13975681 -0.1685998 -0.17984551 -0.052107044 -0.15987688 -0.02353291
-0.16878988 -0.040133074 -0.13115205 -0.1064707 -0.11669623 -0.043478053 -0.16945624 -0.037728157
0.092207335 0.15773408 0.080254324 0.14888011 0.12986866 0.18471618 0.16663478 0.100109324
0.13608827 0.0794816 0.118599914 0.17042221 0.05431047 0.020264884 0.120004594 0.08253033
0.23883682 0.14838591 0.10321787 0.061725978 0.30309966 0.18727008 0.09479124 0.085330725
0.21381809 0.186686 0.1330966 0.21149616 0.3039256 0.11427448 0.13665406 0.08861001
00000000: e7a4 edbc ca1d 3dbd aca8 223d 2799 6abd
00000010: efde 8a3d 12ab 473d 2236 7f3c b410 27bd
00000020: 1cb5 b4bc d58e 2eba f4e7 eabc ea5f 923d
00000030: e9a1 663d a0e7 203d b97c 81bc 4333 033d
00000040: be06 1d3e 6c4d 493d 38bc 013e 9f1a 1b3e
00000050: 52c6 bf3c 60f6 c63d 885e 053e e5f2 7f3c
00000060: ba00 1a3e fbdd b23c f69c c23d 112b 0c3e
00000070: 2abb 123e a77e 2a3d fbc0 0f3e 6657 0d3d
00000080: bcc2 90bc e10f 24bc ca25 823c 5423 923d
00000090: a237 0a3d 2145 a1bd 0ab3 643d be14 81bb
000000a0: 3191 80bc 1560 30bd 135b 09bd 889a 0ebd
000000b0: b2d8 4e3d 5707 09bd 0ca3 9bbd 3543 f4bb
000000c0: 789b 163c ef56 133d b241 99bc d3d3 72bd
000000d0: 2955 1b3d 42d6 92bd c922 8c3c 1695 9ebd
000000e0: 93ba 2a3d c4a5 96bd 2d03 80bd 8107 92bd
000000f0: f6eb 81bb e45f ddbc 35fc 5d3c 597c bfbd
00000100: b1c9 e9bb 7a5a 053c dc82 45bd af05 91bd
00000110: 8a9a 103d ae37 bcbb 2f92 7abc f568 063d
00000120: a159 30bc b799 4bbd 4a32 f33c 9e90 f2bc
00000130: 4395 5a3d 60ea 5b3d 190b 6dbd 9f73 e5bc
00000140: e6b4 843d f8e2 5fbc f893 803b 226f 4dbc
00000150: 4a07 623d e868 b0bc 111a 91bd 970f aabd
00000160: 1439 f4bc bb53 8f3b 43dd e1bc ef6e b7bd
00000170: c7fe cc3a 7bd1 e53c 3244 05bd 8edf 6bbc
00000180: 1900 9cbc cfb5 e03c 41ea 9a3c 39dd 103d
00000190: 792b b63d 1e65 573d 78c5 823d 2b89 a33d
000001a0: bdb1 8d3d f792 ca3d 67e4 b6bc 3200 cd3d
000001b0: ee15 723d ddd1 7cbc c19a 903d 66b5 893d
000001c0: 7641 ac3d 8898 193d a2b7 4f3d d652 5d3d
000001d0: 8069 113a da46 42bd 9033 43bc e07d be3b
000001e0: bff1 6cbc 8e74 c5bc 921c 973d ac77 b2bc
000001f0: 0950 063a 9dc1 84bd 45d3 a73d dfe4 b6bb
00000200: 0869 05bd 6d3e 35bc 84b8 8f3d 37fa 17bd
00000210: e357 e4bb 6c92 56bd fe86 bc3d 5115 fcbb
00000220: fec7 8c3b 9b7c 64bd f2c7 843d d965 b03b
00000230: 3263 17bc 7c55 6ebc 3098 943c e33f 303d
00000240: 72f9 4abc debe 193d 636d 5b3c 9040 46bd
00000250: e040 07bb f4e8 76bc 1a31 8a3d 9888 aabc
00000260: 2c2f 803c 4ea1 49bd 2178 843d 7041 5e3d
00000270: 388b 3c3d f7a0 1cbd e8dd 913d d0b5 4f3c
00000280: f892 713b 97d6 cf3d 1ae9 e63d 1d43 b13c
00000290: 9d21 943d 265f c53d 7956 8a3d 72c5 ac3d
000002a0: 0c7d 1cbd 5cc2 99bc ffb7 473b ca9e b03d
000002b0: 30ff d2ba 5772 a4ba ae85 533d f0b5 a93c
000002c0: 7f9a cf3c 83bd 0d3d 24f6 463d 0179 233c
000002d0: fd9f 813c 839f 983d b490 c03c d9cb a83c
000002e0: 5ac4 93bc a058 aabc 9dcd 06bc c095 35bc
000002f0: b550 a03d b229 213d 7d50 1fbd f741 083d
00000300: ee80 2e3d 2c38 ec3c 7069 453d 7ccc 203d
00000310: b05a c9bb 6cb6 183d a447 52bd 24d4 593d
00000320: f653 31bd e0a9 bb3b c0d3 cdbb 1c2e 8a3d
00000330: 8279 0f3d 30a8 b03c 40fb f93a 80dc 3d3b
00000340: 9c0d 26be 834e e7bd 691c 0fbe 6da5 2cbe
00000350: 6c29 38be 326e 55bd c4b6 23be 17c8 c0bc
00000360: 41d7 2cbe 9462 24bd b94c 06be 4f0d dabd
00000370: 6ffe eebd 0b16 32bd f085 2dbe d788 1abd
00000380: 33d7 bc3d 0b85 213e 615c a43d 0774 183e
00000390: 4afc 043e 3d26 3d3e 4fa2 2a3e 1e06 cd3d
000003a0: b95a 0b3e 40c7 a23d 83e4 f23d 2983 2e3e
000003b0: a874 5e3d 8b02 a63c f8c4 f53d a905 a93d
000003c0: a491 743e 7af2 173e e463 d33d 61d4 7c3d
000003d0: e12f 9b3e bac3 3f3e e921 c23d e0c1 ae3d
000003e0: 21f3 5a3e 9d2a 3f3e 7a4a 083e 7392 583e
000003f0: 239c 9b3e bd08 ea3d 0bef 0b3e 2a79 b53d

encoder.2.bias f4 [24]
-0.09033006 0.22843635 0.031899948 -0.063291505 0.09128303 -0.15406004 -0.06652536 0.11605503
-0.013645452 -0.022360338 -0.017177409 -0.081573024 0.20413812 -0.09094016 -0.119195156 0.18259044
0.17861007 -0.08047022 -0.114697665 0.18667726 0.19069342 -0.111278474 -0.002670698 -0.13597487
00000000: f7fe b8bd 38eb 693e 85a9 023d fa9e 81bd
00000010: 99f2 ba3d eac1 1dbe 733e 88bd 42ae ed3d
00000020: 2d91 5fbc 072d b7bc a3b7 8cbc c20f a7bd
00000030: 9509 513e d63e babd 971c f4bd fdf8 3a3e
00000040: 8fe5 363e 92cd a4bd 9ce6 eabd 5328 3f3e
00000050: 2345 433e f8e5 e3bd e106 2fbb ff3c 0bbe

decoder.0.weight f4 [24, 12, 4, 4]
-0.022963777 0.0837214 0.04416943 0.038367156 -0.0058657792 0.060288392 0.08865215 0.053108238
0.0967282 0.05196 -0.0065459167 -0.036146272 0.04357919 -0.01779079 0.07201858 -0.0064769834
0.1055396 -9.917322e-05 0.03623721 -0.015547615 0.06709915 -0.021681456 0.033456802 -0.06822706
0.085139774 0.01785394 0.10555551 -0.026553577 0.015611253 0.022787638 0.094968356 0.050962336
0.0303655 -0.09491196 0.022527542 -0.011570179 -0.010995474 -0.0014355585 -0.04324889 0.064795256
-0.027965195 0.056594104 0.08277353 -0.011527972 -0.012633742 0.08174204 0.031021334 -0.020744562
0.035499196 -0.032785688 0.0028880502 -0.05904268 -0.04202294 0.03497706 -0.025604121 0.05701729
0.07153606 0.019838387 -0.021866636 -0.0021976787 0.0065844953 -0.017302305 0.009842921 -0.037892416
0.04181282 0.041062426 0.027355514 0.02858094 0.04895555 0.10878834 0.029454116 -0.029947031
0.030196747 0.007939705 -0.011200897 0.02979063 0.043524835 0.024141327 0.06497243 0.027742514
0.10615617 0.04533514 0.08685532 0.09730471 -0.02371386 -0.09046701 -0.07809746 0.019767914
0.027336331 0.08091758 0.084061444 -0.007009954 -0.057444766 -0.04166223 -0.065755464 -0.03626943
-0.116702154 0.054269556 -0.1208098 -0.007992823 0.056752447 0.01931704 0.054514028 -0.0714214
0.02145092 -0.029822161 -0.0018252251 -0.03741426 0.046448767 -0.02692116 -0.03987591 -0.017337367
0.0079564415 -0.003830479 -0.0027417862 -0.10105887 -0.050725758 -0.077112965 -0.07435049 0.021289604
0.009344543 0.06276078 0.040204424 -0.07971523 0.054285 -0.06905208 -0.016730743 -0.031119185
-0.044701647 0.022376303 0.047761504 -0.073115274 0.023123642 -0.041725587 0.03588915 -0.048603475
0.026727365 0.0140776085 0.02213356 0.027744751 -0.01820265 0.0095073795 -0.07159084 -0.13331203
-0.056419093 -0.01693436 -0.009245217 -0.018262435 0.08142977 0.03001189 0.012884558 -0.012991324
0.0004861525 -0.018744854 0.07584188 0.04919251 -0.00404721 -0.011239807 -0.019211803 0.079068355
-0.10138584 -0.034428462 -0.050139155 0.05870821 -0.029790953 -0.23798007 -0.12500279 -0.19564427
-0.10115826 -0.049838595 -0.12936027 -0.05191098 0.010854268 -0.24630082 -0.08000271 -0.1671777
0.01791263 0.07516607 -0.019883312 -0.027965989 0.028872013 0.072184674 0.07684098 0.07729032
0.01824922 0.06445367 0.037460566 0.08887308 0.060107984 0.023723487 -0.009548621 0.06965702
-0.26208323 -0.21403359 -0.305391 -0.25274915 -0.3210942 -0.10925483 -0.23443934 -0.10356414
-0.073567934 -0.09317197 -0.028701445 -0.109787814 -0.36665452 -0.20877439 -0.3132148 -0.23075332
-0.43335706 0.004941061 -0.37464836 0.06804134 -0.35479018 0.041386105 -0.25644767 0.06063812
-0.24781318 0.027727857 -0.18567586 0.047614187 -0.32595995 0.013332195 -0.24813713 -0.060207978
-0.28836912 -0.07341248 -0.2315078 -0.15744545 -0.013523329 -0.015779598 -0.0326118 -0.1708283
0.007872143 0.37374696 0.1359084 0.23928155 -0.04918038 -0.14815861 0.023018807 -0.29648072
-0.1633306 0.08931301 -0.018879855 -0.023038773 -0.016409172 0.101960875 0.06619246 -0.09700376
-0.021297218 0.30930498 0.12366766 0.16361345 -0.10974092 -0.0022628708 -0.07075504 -0.18237762
00000000: 881e bcbc 2076 ab3d 01eb 343d e126 1d3d
00000010: b935 c0bb f6f0 763d 428f b53d 0688 593d
00000020: 6f19 c63d 02d4 543d 217f d6bb 1d0e 14bd
00000030: 1880 323d febd 91bc 7a7e 933d e03c d4bb
00000040: 2525 d83d 38fb cfb8 786d 143d 6cbb 7ebc
00000050: 476b 893d 4f9d b1bc 000a 093d a1ba 8bbd
00000060: c35d ae3d 6d42 923c 7d2d d83d e386 d9bc
00000070: 57c6 7f3c 24ad ba3c c57e c23d e2bd 503d
00000080: 12c1 f83c 3461 c2bd ae8b b83c d990 3dbc
00000090: 5c26 34bc 5a29 bcba c025 31bd 60b3 843d
000000a0: 4417 e5bc 38cf 673d 2b85 a93d d2df 3cbc
000000b0: c1fd 4ebc 5f68 a73d 7420 fe3c 80f0 a9bc
000000c0: 9b67 113d 494a 06bd 7145 3d3b bdd6 71bd
000000d0: 3f20 2cbd 1b44 0f3d bcbf d1bc f68a 693d
000000e0: 7f81 923d 1d84 a23c a921 b3bc ee06 10bb
000000f0: c0c2 d73b 90bd 8dbc 3444 213c 1435 1bbd
00000100: eb43 2b3d 1331 283d ac18 e03c 9322 ea3c
00000110: 9d85 483d 6ccc de3d c249 f13c 7a53 f5bc
00000120: 2b5f f73c 8915 023c f883 37bc 7b0b f43c
00000130: 1947 323d 08c4 c53c 4410 853d 4544 e33c
00000140: 6868 d93d 57b1 393d 34e1 b13d b147 c73d
00000150: 9243 c2bc c546 b9bd 90f1 9fbd 52f0 a13c
00000160: 71f0 df3c 1eb8 a53d 6828 ac3d c2b3 e5bb
00000170: 344b 6bbd 04a6 2abd cdaa 86bd 418f 14bd
00000180: 8a01 efbd c149 5e3d 216b f7bd 54f4 02bc
00000190: 4175 683d c53e 9e3c 1a4a 5f3d 6245 92bd
000001a0: d7b9 af3c 9b4d f4bc 643c efba b23f 19bd
000001b0: 1041 3e3d c489 dcbc ec54 23bd 1807 8ebc
000001c0: bc5b 023c c608 7bbb 8aaf 33bb f4f7 cebd
000001d0: d0c5 4fbd 67ed 9dbd 1245 98bd 8967 ae3c
000001e0: db19 193c b988 803d 65ad 243d bd41 a3bd
000001f0: f359 5e3d 2d6b 8dbd e90e 89bc a9ed febc
00000200: 1319 37bd 824e b73c 91a1 433d 76bd 95bd
00000210: cb6d bd3c 73e8 2abd 8000 133d 7014 47bd
00000220: 59f3 da3c c5a5 663c 7151 b53c f648 e33c
00000230: b91d 95bc d7c4 1b3c 389e 92bd f382 08be
00000240: b517 67bd edb9 8abc 4079 17bc 1a9b 95bc
00000250: a7c4 a63d 7fdb f53c c119 533c 90d9 54bc
00000260: 49e2 fe39 cf8e 99bc fd52 9b3d 167e 493d
00000270: 759e 84bb 2b27 38bc 1262 9dbc 97ee a13d
00000280: 61a3 cfbd dc04 0dbd b75e 4dbd 0578 703d
00000290: 280c f4bc 0cb1 73be bb00 00be f956 48be
000002a0: 102c cfbd 8e23 4cbd 0577 04be 9ca0 54bd
000002b0: 1ad6 313c 4836 7cbe 76d8 a3bd a230 2bbe
000002c0: 82bd 923c abf0 993d 54e2 a2bc ee18 e5bc
000002d0: 0085 ec3c 8fd5 933d ce5e 9d3d 634a 9e3d
000002e0: 637f 953c 4900 843d 4070 193d 1703 b63d
000002f0: ca33 763d c257 c23c d271 1cbc 57a8 8e3d
00000300: c62f 86be 9f2b 5bbe 365c 9cbe 5668 81be
00000310: 7566 a4be ffc0 dfbd de10 70be 7019 d4bd
00000320: c9aa 96bd f2d0 bebd 4b1f ebbc 6fd8 e0bd
00000330: 24ba bbbe f4c8 55be b15d a0be 994a 6cbe
00000340: fae0 ddbe a0e8 a13b e9d1 bfbe 4259 8b3d
00000350: 0fa7 b5be 7a84 293d 1c4d 83be ad5f 783d
00000360: bdc2 7dbe 8825 e33c d021 3ebe 1807 433d
00000370: 39e4 a6be 476f 5a3c a917 7ebe a49c 76bd
00000380: 1ea5 93be 4859 96bd 6110 6dbe 6139 21be
00000390: f490 5dbc 3744 81bc f393 05bd 9ded 2ebe
000003a0: 29fa 003c c35b bf3e 922b 0b3e 3906 753e
000003b0: 5e71 49bd e4b6 17be f091 bc3c 52cc 97be
000003c0: 2340 27be bde9 b63d eda9 9abc cfbb bcbc
000003d0: 876c 86bc ddd0 d03d ea8f 873d e8a9 c6bd
000003e0: 8177 aebc 395d 9e3e 7845 fd3d 498a 273e
000003f0: d9bf e0bd ac4c 14bb 05e8 90bd 33c1 3abe

decoder.0.bias f4 [12]
-0.005087708 -0.08140882 -0.036068372 0.014607185 -0.0068549975 -0.024018956 0.01783167 -0.04019919
-0.08055315 -0.051265936 0.20676757 0.0015378383
00000000: cab6 a6bb abb9 a6bd 6ebc 13bd f952 6f3c
00000010: e39f e0bb 67c3 c4bc b913 923c e8a7 24bd
00000020: 0df9 a4bd 3bfc 51bd e1ba 533e 4a91 c93a

decoder.2.weight f4 [12, 3, 4, 4]
0.1373686 0.045124147 -0.00031797853 -0.012444718 -0.10020729 -0.03996369 0.16337778 -0.061130274
0.07134897 0.067590475 0.017869202 0.09325746 0.0867114 -0.010043163 -0.09148669 0.15844521
0.1646732 0.042867105 0.0782697 0.15850182 -0.08924704 -0.06681492 0.01752628 -0.017861657
-0.019672442 -0.00011723539 -0.014497132 0.00047091456 0.022332327 0.036447074 0.12358135 0.16775389
0.08800543 -0.0012579364 0.1805716 -0.005595809 0.16363189 -0.057791717 0.059644464 0.16641502
0.030758906 0.028249472 0.15502311 0.23003602 0.12621674 -0.0023934084 0.059095368 0.049077023
-0.03239838 0.018671412 0.0071214186 0.11288865 0.031914264 0.09217344 0.124459654 0.11188929
-0.02923449 0.1501016 0.14059687 0.041693512 0.18631695 -0.004117283 0.010513255 0.10936234
0.04757449 0.08782914 0.12808524 0.161458 0.15535437 0.09949999 0.1443801 0.08033585
0.0852816 0.21110715 -0.021541808 0.0572505 0.15256448 0.14159496 0.024390163 0.16409288
0.055027228 0.1522227 -0.0042109555 0.1085946 0.079188675 0.15919212 -0.018402014 -0.02875005
-0.0201413 0.11927006 0.14105368 0.019408388 -0.09926442 0.10113406 -0.001009007 0.01649046
-0.03802312 0.13972804 -0.05691664 -0.045410424 0.05931665 0.09176018 0.10178761 -0.07287024
-0.024815466 0.04007345 -0.12693791 0.08478836 0.11610125 -0.019603157 -0.051680494 0.1323305
-0.02955808 0.13566612 0.09763494 0.06329183 0.04738918 0.00984513 0.019130507 0.13280341
0.019077504 0.16239044 -0.007264796 0.14360334 0.14484173 -0.0029327841 0.026880719 0.084575295
0.008755253 0.1887405 0.17453772 0.005004428 -0.012415209 0.1584525 0.15932362 0.1780996
0.11178263 0.13974474 0.108459465 0.22800721 0.1352095 0.1452127 0.22680692 -0.022786053
0.09047234 -0.06472001 0.033341557 0.13250475 0.0061916956 -0.035264477 -0.093695536 -0.013753943
0.12555923 0.14442448 -0.13355787 -0.11200218 0.14848864 -0.0024884162 -0.050881088 -0.11870771
0.1555629 -0.027992481 0.008698108 0.061251845 0.061088987 0.14528832 0.15434049 0.088862
0.063543804 -0.00921527 0.15832222 0.09474772 -0.013766482 0.13956444 0.2100617 0.0022434143
-0.062777 0.04964804 -0.0031877724 0.18681529 0.085489474 0.04295974 0.07039547 0.15322693
0.12551187 0.08741888 0.24564318 0.13841037 0.2112743 0.24404138 0.09225224 0.23271804
0.06065212 -0.009544506 -0.11109757 -0.11288127 -0.026060784 0.006515878 0.06087771 0.06315333
-0.11405385 0.039958388 0.09242098 0.061192155 0.08473851 0.12926753 -0.063382596 -0.049240395
0.004282486 0.10877863 0.052167438 0.005152234 0.18234101 0.084185876 0.007367269 0.012020238
0.10444864 0.026641477 0.116630785 -0.023488207 0.031419884 0.15003555 0.04037651 -0.09890621
0.06343101 0.057293084 0.11623686 -0.06003448 0.046814404 0.24551177 0.23784201 0.22640577
0.08745869 0.09052422 0.20925201 0.033457477 0.11018557 0.16681044 0.10226772 0.04008526
-0.007277506 0.015256765 0.08372204 0.02126813 0.11662102 0.10817025 0.08181825 0.09820549
0.011233629 -0.0053835297 -0.022536455 0.127699 0.17635985 0.14088151 0.11684554 0.024020988
00000000: 5baa 0c3e 19d4 383d 5bb6 a6b9 eee4 4bbc
00000010: 7b39 cdbd f7b0 23bd 814c 273e bd63 7abd
00000020: 691f 923d e06c 8a3d 6f62 923c c4fd be3d
00000030: bf95 b13d 148c 24bc 605d bbbd 763f 223e
00000040: 17a0 283e 6b95 2f3d dd4b a03d 4d4e 223e
00000050: 27c7 b6bd 43d6 88bd 4693 8f3c 9c52 92bc
00000060: 1a28 a1bc 45dc f5b8 6185 6dbc 15e5 f639
00000070: 49f2 b63c 8749 153d 3818 fd3d adc7 2b3e
00000080: 313c b43d 57e1 a4ba c3e7 383e 0c5d b7bb
00000090: 1e8f 273e 02b7 6cbd c14d 743d b368 2a3e
000000a0: 1afa fb3c 706b e73c 61be 1e3e 908e 6b3e
000000b0: f63e 013e bbda 1cbb fc0d 723d fd04 493d
000000c0: 2ab4 04bd caf4 983c ca5a e93b 2a32 e73d
000000d0: 88b8 023d 6ec5 bc3d b4e4 fe3d 3626 e53d
000000e0: 2b7d efbc 3cb4 193e a0f8 0f3e d1c6 2a3d
000000f0: dfc9 3e3e 46ea 86bb ca3f 2c3c 5df9 df3d
00000100: 78dd 423d c4df b33d c728 033e 3f55 253e
00000110: 3715 1f3e a7c6 cb3d 60d8 133e 1f87 a43d
00000120: 1fa8 ae3d 792c 583e 7278 b0bc 807f 6a3d
00000130: dd39 1c3e 45fe 103e e1cd c73c f707 283e
00000140: 3b64 613d 44e0 1b3e 0efc 89bb d866 de3d
00000150: ac2d a23d 4203 233e d2bf 96bc 3a85 ebbc
00000160: 5eff a4bc dc43 f43d 6070 103e 57fe 9e3c
00000170: 254b cbbd 601f cf3d a840 84ba 0017 873c
00000180: 22be 1bbd de14 0f3e 6c21 69bd 4800 3abd
00000190: 04f6 723d c3ec bb3d 0676 d03d fe3c 95bd
000001a0: ce49 cbbc 0f24 243d 03fc 01be 85a5 ad3d
000001b0: 7ec6 ed3d cd96 a0bc edae 53bd a681 073e
000001c0: c923 f2bc 0fec 0a3e d4f4 c73d 269f 813d
000001d0: 281b 423d 784d 213c 95b7 9c3c 9efd 073e
000001e0: 6d48 9c3c ae49 263e 870d eebb c10c 133e
000001f0: 6451 143e f433 40bb f434 dc3c d035 ad3d
00000200: 3172 0f3c 3145 413e 04ba 323e 2ffc a33b
00000210: 2969 4bbc 5f41 223e bb25 233e be5f 363e
00000220: 4bee e43d 3f19 0f3e ff1f de3d b97a 693e
00000230: 5c74 0a3e a3b2 143e 1340 683e d1a9 babc
00000240: 9049 b93d ed8b 84bd 2891 083d 53af 073e
00000250: b5e3 ca3b 7c71 10bd 72e3 bfbd 3858 61bc
00000260: 9992 003e 03e4 133e 65c3 08be 6661 e5bd
00000270: 680d 183e b214 23bb b068 50bd 071d f3bd
00000280: e14b 1f3e 7d50 e5bc 8282 0e3c 37e3 7a3d
00000290: 7238 7a3d 76c6 143e 6f0b 1e3e 48fd b53d
000002a0: 4123 823d a5fb 16bc 381f 223e 180b c23d
000002b0: cf8c 61bc fbe9 0e3e 6a1a 573e 3f06 133b
000002c0: 3a91 80bd be5b 4b3d f2e9 50bb 824c 3f3e
000002d0: 1b15 af3d 8df6 2f3d 802b 903d 85e7 1c3e
000002e0: 2f86 003e ab08 b33d e389 7b3e 73bb 0d3e
000002f0: 4a58 583e fce5 793e beee bc3d a34d 6e3e
00000300: 5b6e 783d 8f60 1cbc 1f87 e3bd 4c2e e7bd
00000310: 6d7d d5bc 2583 d53b e85a 793d 8856 813d
00000320: 1195 e9bd 68ab 233d 3647 bd3d a0a4 7a3d
00000330: 628b ad3d b55e 043e bcce 81bd 4cb0 49bd
00000340: 1954 8c3b 55c7 de3d 86ad 553d 12d4 a83b
00000350: 9ab7 3a3e a569 ac3d 2269 f13b 88f0 443c
00000360: 2be9 d53d 3a3f da3c 1fdc ee3d 576a c0bc
00000370: 23b2 003d eba2 193e d761 253d 578f cabd
00000380: 1ee8 813d 27ac 6a3d 970d ee3d b7e6 75bd
00000390: 76c0 3f3d 7067 7b3e db8c 733e ead6 673e
000003a0: 8b1d b33d c364 b93d 2946 563e b50a 093d
000003b0: f9a8 e13d 5bd0 2a3e bd71 d13d 7130 243d
000003c0: 2578 eebb 83f7 793c 7676 ab3d 803a ae3c
000003d0: 00d7 ee3d 5d88 dd3d 5490 a73d f61f c93d
000003e0: 410d 383c 5268 b0bb 5f9e b8bc 87c3 023e
000003f0: ad97 343e 3e43 103e b74c ef3d aac7 c43c

decoder.2.bias f4 [3]
0.049360905 -0.1854922 -0.16314231
00000000: a92e 4a3d abf1 3dbe c70e 27be
