weights/simple_cae_ne3_b8_icub_right.pth (torch, 44961 bytes, 8 tensors)

encoder.0.weight f4 [12, 3, 4, 4]
-0.07238942 -0.01946648 -0.13113134 -0.052539937 -0.054612864 0.116324455 -0.06584561 -0.099815466
-0.0069872974 0.056713164 -0.05799256 0.09790866 -0.10330791 0.069955334 -0.101131685 0.08115653
0.019834317 -0.03986377 0.02635109 0.0077273343 0.08622933 0.103952974 -0.015012355 0.06834552
0.16507052 0.16461325 0.14844194 -0.01769026 -0.07577534 0.0075042057 -0.035797566 -0.10354522
0.108460665 0.021863153 -0.019866386 -0.012410196 0.03965928 0.13315706 -0.06413245 0.12726304
-0.055520974 0.07252879 0.06729903 0.15449584 0.069548965 0.04810665 0.14120048 -0.118012086
0.012238011 0.0986314 -0.09799933 -0.14225978 0.07567701 -0.0057627265 0.08945126 -0.025137212
-0.04852942 -0.13467139 -0.17418976 -0.0592598 0.046691637 -0.010831773 -0.051229037 0.056701362
-0.09008962 -0.02562066 0.02756612 -0.08233436 0.029119033 -0.14058237 0.0016693133 0.0040262477
-0.003908307 0.043445963 0.100371026 -0.099380516 -0.03954988 -0.10630766 0.0067386962 0.11222826
-0.015601818 -0.086319886 0.12991776 -0.06136479 0.019377155 0.035465352 -0.10777782 0.0157176
0.13601792 0.021675117 0.1209367 0.13375583 0.038533885 -0.10108079 0.05574854 0.08860047
-0.077905945 -0.0101717925 0.04320235 -0.11839246 0.053847257 0.090429746 -0.10388585 -0.1103658
0.056210015 0.11748632 -0.12871768 0.14542289 0.004135958 -0.14769572 -0.03578489 0.08456018
-0.004003169 -0.05267881 0.1293862 0.13905726 0.10193471 -0.0033407651 -0.06209361 0.014251554
0.0715932 -0.10752322 0.011128845 -0.10911909 -0.06110151 -0.13448715 -0.05526179 0.079465196
-0.00608641 0.14049384 0.10316785 0.02144574 -0.015571775 0.15485255 0.15486823 0.0343147
-0.04880746 0.02762078 0.14508542 -0.041501604 -0.1125781 -0.08332897 -0.08610652 -0.12820233
0.11312402 0.15177199 0.005687597 -0.062321838 0.007192093 -0.08444026 -0.02454964 -0.008078514
0.0004686895 0.14141813 -0.090914756 -0.0077459016 0.16419916 0.02047361 0.16818829 0.115477115
-0.04261873 -0.039926287 0.012692438 -0.03749 -0.12362285 -0.024049256 -0.025078189 0.039963033
0.0039513973 0.10779068 -0.032210946 0.044328794 -0.11182693 0.011267762 0.074612714 0.09553632
-0.16434856 -0.051883314 0.09682348 -0.14883429 -0.1523553 -0.014246216 0.04006352 -0.16165143
0.07755901 -0.10035915 -0.11415234 -0.16072425 0.10998722 0.0863103 -0.012738644 -0.08864054
-0.15896 0.076465376 -0.14006193 0.040163614 0.060828507 0.12746441 -0.109526575 -0.062006388
-0.00033599333 -0.09343392 0.00032632455 0.06672322 -0.093702085 0.1399537 -0.00076828385 -0.04439072
-0.13142487 0.0017194195 -0.020006152 0.1352418 0.07987195 -0.13746382 0.018635677 0.004680467
-0.13533638 -0.0678208 -0.12833871 -0.06888451 -0.02943601 -0.10823333 0.077804044 -0.09569937
-0.030668387 0.15607773 0.00020027197 -0.04628181 0.023643754 -0.011779176 0.06722885 -0.10438072
-0.05368996 0.15301296 0.015727 0.14243987 -0.039257366 0.12580423 0.1376205 0.05770414
-0.13910916 -0.106306665 -0.121297516 -0.060000025 0.08671273 -0.08839668 0.0757634 0.040397562
-0.084452935 0.06642895 0.05188571 -0.0068027475 -0.18797235 -0.14343408 0.012338169 -0.14666735
00000000: e740 94bd 2b78 9fbc 4b47 06be 1e34 57bd
00000010: bdb1 5fbd 843b ee3d 10da 86bd 0d6c ccbd
00000020: b3f5 e4bb 104c 683d 9b89 6dbd 5684 c83d
00000030: 1993 d3bd be44 8f3d 211e cfbd 6535 a63d
00000040: 947b a23c 3148 23bd 3ede d73c 9435 fd3b
00000050: 0199 b03d 4ce5 d43d 61f6 75bc bcf8 8b3d
00000060: 3f08 293e 6090 283e 2a01 183e 2aeb 90bc
00000070: 1a30 9bbd d7e5 f53b 78a0 12bd 840f d4bd
00000080: a020 de3d 5b1a b33c d5be a2bc 2254 4bbc
00000090: c571 223d 535a 083e e057 83bd 3e51 023e
000000a0: f669 63bd f989 943d 13d4 893d 2834 1e3e
000000b0: b06f 8e3d 7b0b 453d dc96 103e 52b0 f1bd
000000c0: f081 483c 42ff c93d dfb3 c8bd 8cac 11be
000000d0: 8cfc 9a3d 41d5 bcbb 3932 b73d 8eec cdbc
000000e0: c9c6 46bd 4ce7 09be cd5e 32be 67ba 72bd
000000f0: bb3f 3f3d c077 31bc 8ad5 51bd b03f 683d
00000100: e880 b8bd 6be2 d1bc 58d2 e13c eb9e a8bd
00000110: 0a8b ee3c d3f4 0fbe dccc da3a 9dee 833b
00000120: 4111 80bb 65f4 313d 538f cd3d 0388 cbbd
00000130: 0eff 21bd d5b7 d9bd 48d0 dc3b eed7 e53d
00000140: c59e 7fbc 7bc8 b0bd 2909 053e a559 7bbd
00000150: d7bc 9e3c 1e44 113d 9eba dcbd 32c2 803c
00000160: 4848 0b3e 0490 b13c a9ad f73d 4af7 083e
00000170: b5d5 1d3d 7203 cfbd 9558 643d 2a74 b53d
00000180: 278d 9fbd 97a7 26bc f3f4 303d bf77 f2bd
00000190: f18e 5c3d 3b33 b93d 1bc2 d4bd 7707 e2bd
000001a0: 793c 663d ab9c f03d 91ce 03be bde9 143e
000001b0: ee86 873b 8c3d 17be 2d93 12bd e32d ad3d
000001c0: 042d 83bb bcc5 57bd d17d 043e 0765 0e3e
000001d0: 25c3 d03d bdf0 5abb df55 7ebd 5a7f 693c
000001e0: 759f 923d 2235 dcbd c255 363c d479 dfbd
000001f0: 9445 7abd 00b7 09be 305a 62bd a6be a23d
00000200: 8270 c7bb 9edd 0f3e aa49 d33d faae af3c
00000210: c220 7fbc ab91 1e3e c795 1e3e 928d 0c3d
00000220: 55ea 47bd f944 e23c 4691 143e 96fd 29bd
00000230: 598f e6bd 61a8 aabd 9d58 b0bd 7947 03be
00000240: 91ad e73d 1e6a 1b3e 065f ba3b 2f45 7fbd
00000250: a6ab eb3b 04ef acbd 541c c9bc be5b 04bc
00000260: 71ba f539 eacf 103e 8431 babd 55d1 fdbb
00000270: d323 283e 46b8 a73c 8d39 2c3e 447f ec3d
00000280: fa90 2ebd bf89 23bd f2f3 4f3c 1d8f 19bd
00000290: fa2d fdbd f202 c5bc c670 cdbc 47b0 233d
000002a0: b97a 813b 5cc1 dc3d a0ef 03bd 1c92 353d
000002b0: 8405 e5bd 6b9c 383c 8dce 983d 8ca8 c33d
000002c0: fd4a 28be 9983 54bd 644b c63d 0468 18be
000002d0: 0703 1cbe f668 69bc a519 243d f487 25be
000002e0: 42d7 9e3d 1989 cdbd b4c8 e9bd e694 24be
000002f0: fb40 e13d 74c3 b03d bfb5 50bc 2c89 b5bd
00000300: 69c6 22be e199 9c3d 656c 0fbe 9a82 243d
00000310: 5027 793d 0886 023e 784f e0bd 69fa 7dbd
00000320: 4328 b0b9 485a bfbd 8a16 ab39 2fa6 883d
00000330: e1e6 bfbd 0650 0f3e a866 49ba 0bd3 35bd
00000340: 3e94 06be 255e e13a f1e3 a3bc d47c 0a3e
00000350: e893 a33d 51c3 0cbe d9a9 983c 9a5e 993b
00000360: 9f95 0abe a2e5 8abd 396b 03be 5213 8dbd
00000370: ca23 f1bc 70a9 ddbd ba57 9f3d 08fe c3bd
00000380: 453c fbbc d7d2 1f3e 1900 5239 ff91 3dbd
00000390: 8cb0 c13c 72fd 40bc 48af 893d 8fc5 d5bd
000003a0: 01ea 5bbd 6eaf 1c3e e9d5 803c c2db 113e
000003b0: 55cc 20bd d3d2 003e 63ec 0c3e 2d5b 6c3d
000003c0: a272 0ebe 4fb7 d9bd d56a f8bd 96c2 75bd
000003d0: 7296 b13d 5209 b5bd d729 9b3d ea77 253d
000003e0: a9f5 acbd e70b 883d 1c86 543d 95e9 debb
000003f0: d37b 40be 62e0 12be 0826 4a3c f72f 16be

encoder.0.bias f4 [12]
-0.0093287155 0.2832651 -0.093262196 0.2866915 0.2566331 0.101670064 -0.030380676 -0.06351572
-0.11300637 -0.20127505 -0.080469154 0.085637845
00000000: 78d7 18bc 2008 913e 4000 bfbd 3ac9 923e
00000010: 6a65 833e 6538 d03d e5e0 f8bc 8814 82bd
00000020: e26f e7bd 0c1b 4ebe 03cd a4bd e562 af3d

encoder.2.weight f4 [24, 12, 4, 4]
-0.0031294813 0.082408644 0.06972996 0.028325723 -0.007454996 0.033162415 0.07964936 0.026784088
0.06499719 0.026190992 0.06958389 0.056758534 0.030843018 0.052112624 0.017465834 -0.022047842
-0.0806536 0.05301369 -0.04897743 0.023144893 0.057209574 -0.054820113 0.056829274 0.052384768
-0.055624764 0.0048323637 -0.022910463 0.038174305 0.04798618 -0.046999656 -0.061330736 -0.07510681
0.04978625 -0.021486768 0.048116546 -0.045321777 0.023967719 -0.015459664 -0.022183223 -0.001979905
0.015064446 0.045354772 0.065017715 0.07244178 0.021295441 0.041799538 -0.062092215 -0.01314592
-0.115394674 -0.03589902 -0.07465459 -0.046544466 -0.0024520499 -0.045245286 -0.12321033 -0.118536316
-0.036606546 -0.015962875 -0.028292384 -0.009084184 -0.03303674 -0.074570395 -0.07326686 -0.029796433
-0.10619244 -0.10597256 -0.110865034 -0.12126461 -0.024711508 -0.03405243 -0.07416285 -0.026431646
-0.019838875 -0.018690903 -0.1348819 -0.12099675 -0.107378066 -0.06578275 -0.09938474 -0.07849078
-0.011039761 0.03727725 -0.06312018 0.03840709 -0.058568668 -0.0415654 0.031887785 0.037762105
-0.07977849 -0.08082251 -0.06903334 -0.07947853 0.015507889 -0.005126037 -0.0061887414 -0.02733431
0.03437644 -0.0044046757 0.075860575 0.07119546 -0.0053734137 0.06464673 0.0010776914 -0.033297434
0.0019007926 -0.060972847 -0.05868982 0.021438992 0.0155689595 0.06605064 -0.0036727586 0.0025439428
0.026293725 0.05584981 -0.0587027 -0.0565011 0.009001396 -0.06267863 0.015547377 -0.072688326
0.06491366 -0.01630885 0.012252196 -0.024223296 -0.017906439 0.014516756 -0.039715923 0.052539133
-0.025636166 0.10555325 -0.018187046 -0.019800365 0.033042397 -0.005159793 -0.004343803 0.07148871
0.04724609 0.08657955 0.04575447 0.06442371 0.08577194 0.04986441 -0.021075523 0.077868626
0.1276762 0.11360225 0.0058551496 0.13113515 0.024622073 0.12495632 0.018822238 0.11562292
0.096693814 0.009123284 -0.01312201 0.027667755 0.060836397 0.039059415 0.0061733346 0.10531826
0.08740303 0.090137236 0.06350937 0.076878086 0.04868023 -0.012488418 0.072508425 0.022672268
-0.011701848 -0.07615633 -0.044295963 -0.022077221 -0.029494077 -0.08505345 -0.0326358 0.025415575
-0.014875454 0.067736425 -0.045566987 0.03797574 0.06339064 0.058000382 0.021007191 0.05324613
0.06951434 -0.016457822 -0.0034478602 0.032842763 -0.01407632 -0.04305749 0.026582245 0.054270003
0.01342536 0.0072500356 0.07429667 0.03956618 0.043104243 0.032755308 -0.048375685 -0.06073571
0.083419725 0.018978758 0.058487598 -0.055830088 -0.11011505 -0.010495063 -0.014245053 -0.005795764
0.21548156 0.20069745 0.1515573 0.15404592 0.25548875 0.11906125 0.17266963 0.16320334
0.16237794 0.16169819 0.20968483 0.10366663 0.0693159 0.16289304 0.1866525 0.10071804
0.0010323783 -0.014716603 -0.081431806 0.012799203 -0.060081195 -0.10686955 -0.060289312 -0.124103546
0.20941706 0.16175255 0.20770477 0.17400868 -0.14498886 -0.07332736 -0.10646958 -0.15350364
-0.018743724 -0.13563538 -0.049710944 -0.06955558 -0.026191495 -0.046653565 -0.10267711 -0.08966131
-0.1333885 -0.101964615 -0.11145476 -0.11717702 -0.112366356 -0.1444864 -0.08141224 -0.16165398
00000000: fc17 4dbb ddc5 a83d 95ce 8e3d 590b e83c
00000010: 0a49 f4bb 50d5 073d 341f a33d 4e6a db3c
00000020: 3f1d 853d 7e8e d63c 0082 8e3d a37b 683d
00000030: 7faa fc3c 0c74 553d 8214 8f3c ad9d b4bc
00000040: b72d a5bd e224 593d 8f9c 48bd 5c9a bd3c
00000050: 9654 6a3d 0e8b 60bd d0c5 683d 6991 563d
00000060: cbd6 63bd ce58 9e3b b9ae bbbc a95c 1c3d
00000070: 288d 443d b682 40bd f035 7bbd 99d1 99bd
00000080: abec 4b3d 0505 b0bc db15 453d 54a3 39bd
00000090: f357 c43c 884a 7dbc 97b9 b5bc 4bc1 01bb
000000a0: ded0 763c edc5 393d 0228 853d 5b5c 943d
000000b0: c773 ae3c fe35 2b3d 6854 7ebd fc61 57bc
000000c0: 0b54 ecbd da0a 13bd 81e4 98bd 69a5 3ebd
000000d0: 92b2 20bb 1f53 39bd b355 fcbd 2bc3 f2bd
000000e0: bff0 15bd 93c4 82bc 6ec5 e7bc d4d5 14bc
000000f0: 8851 07bd 5db8 98bd ef0c 96bd a617 f4bc
00000100: 6c7b d9bd 2408 d9bd 350d e3bd 9459 f8bd
00000110: ca6f cabc 907a 0bbd b1e2 97bd 2e87 d8bc
00000120: 2385 a2bc aa1d 99bc 7b1e 0abe 25cd f7bd
00000130: 08e9 dbbd 1bb9 86bd 3a8a cbbd c6bf a0bd
00000140: 1de0 34bc 08b0 183d 2745 81bd c150 1d3d
00000150: b3e5 6fbd 7b40 2abd c49c 023d 70ac 1a3d
00000160: e862 a3bd 4686 a5bd 5a61 8dbd a4c5 a2bd
00000170: cd14 7e3c 51f8 a7bb edca cabb 34ec dfbc
00000180: 4fce 0c3d 1955 90bb ca5c 9b3d edce 913d
00000190: 7613 b0bb 8165 843d 5341 8d3a e462 08bd
000001a0: 0424 f93a aabe 79bd bd64 70bd d3a0 af3c
000001b0: f314 7f3c 8f45 873d aab2 70bb 47b8 263b
000001c0: f065 d73c c5c2 643d 3e72 70bd b36d 67bd
000001d0: 977a 133c a75d 80bd 6dba 7e3c 9edd 94bd
000001e0: 74f1 843d 239a 85bc 6fbd 483c ef6f c6bc
000001f0: 86b0 92bc b0d7 6d3c 2aad 22bd 4633 573d
00000200: f002 d2bc 4d2c d83d 00fd 94bc 6034 a2bc
00000210: 7757 073d 7b13 a9bb 7656 8ebb ac68 923d
00000220: 1e85 413d 9e50 b13d 0a69 3b3d 94f0 833d
00000230: 33a9 af3d a03e 4c3d 93a6 acbc 9679 9f3d
00000240: 8dbd 023e 4ca8 e83d 8edc bf3b 4b48 063e
00000250: 3bb4 c93c 19e9 ff3d 1831 9a3c b6cb ec3d
00000260: 6807 c63d d479 153c b3fd 56bc 7da7 e23c
00000270: 962f 793d c4fc 1f3d af49 ca3b 1ab1 d73d
00000280: 5c00 b33d df99 b83d 3311 823d 4272 9d3d
00000290: ec64 473d 399c 4cbc 4c7f 943d 31bb b93c
000002a0: 1cb9 3fbc daf7 9bbd af6f 35bd 4adb b4bc
000002b0: 909d f1bc 8130 aebd 1ead 05bd 5334 d03c
000002c0: 2db8 73bc 65b9 8a3d 73a4 3abd 738c 1b3d
000002d0: f4d2 813d cf91 6d3d 4617 ac3c 9d18 5a3d
000002e0: 895d 8e3d 8ed2 86bc 7ff5 61bb 2286 063d
000002f0: 5ea0 66bc 0d5d 30bd 02c3 d93c 394a 5e3d
00000300: 0bf6 5b3c b591 ed3b da28 983d 2610 223d
00000310: 138e 303d 6e2a 063d 9525 46bd 02c6 78bd
00000320: f6d7 aa3d 5779 9b3c b190 6f3d 17ae 64bd
00000330: 0084 e1bd 7cf3 2bbc 1564 69bc 64ea bdbb
00000340: 33a7 5c3e a283 4d3e d631 1b3e 37be 1d3e
00000350: 6ccf 823e 62d6 f33d 4fd0 303e c71e 273e
00000360: 6746 263e 3694 253e 9fb7 563e 2c4f d43d
00000370: 7ff5 8d3d 6fcd 263e d521 3f3e 4245 ce3d
00000380: de50 873a e81d 71bc b8c5 a6bd c0b3 513c
00000390: b317 76bd 6cde dabd edf1 76bd 002a febd
000003a0: 6d71 563e 76a2 253e 8fb0 543e 552f 323e
000003b0: f677 14be a82c 96bd b90c dabd 0f30 1dbe
000003c0: 708c 99bc 00e4 0abe b49d 4bbd 2873 8ebd
000003d0: 8c8f d6bc cf17 3fbd 6048 d2bd 59a0 b7bd
000003e0: ff96 08be d3d2 d0bd 6542 e4bd 81fa efbd
000003f0: 5520 e6bd 3ef4 13be 76bb a6bd 9f88 25be

encoder.2.bias f4 [24]
-0.03350796 0.027276931 -0.079235256 -0.03849629 -0.11005647 -0.026079334 -0.14403221 0.2148716
0.13730524 -0.167852 -0.099858165 -0.07595428 0.24834149 -0.12093807 0.087758325 0.11567437
0.22949252 -0.12426214 0.15586329 -0.06713978 0.15624362 -0.10394962 -0.05910659 0.1792877
00000000: a53f 09bd df73 df3c 1846 a2bd 49ae 1dbd
00000010: 4965 e1bd 54a4 d5bc 2e7d 13be 4d07 5c3e
00000020: bf99 0c3e 65e1 2bbe 7082 ccbd eb8d 9bbd
00000030: 3b4d 7e3e 61ae f7bd a3ba b33d afe6 ec3d
00000040: 1600 6b3e 267d febd a09a 1f3e 9580 89bd
00000050: 54fe 1f3e 8ae3 d4bd c019 72bd 3297 373e

decoder.0.weight f4 [24, 12, 4, 4]
-0.000869176 0.100922756 0.039008208 -0.11700868 0.080022745 -0.06373398 -0.042262286 -0.044791017
0.08373578 0.06275497 0.08813645 -0.13989022 0.055291705 0.026295075 0.06564242 0.06047601
0.0877851 0.072706625 -0.012116045 -0.004360191 0.029962689 0.06741597 -0.043516457 0.05943469
-0.016876554 0.011723804 0.007530411 0.004763688 -0.035288878 -0.016663335 0.06381156 0.05682635
-0.04674637 -0.019671282 0.0017392051 -0.027960366 -0.08926532 -0.050423518 -0.0887374 0.066322654
-0.003302395 -0.033918116 -0.007462128 0.0072694668 -0.0142597305 0.05598028 -0.029139394 0.0049913116
0.05659439 -0.026530733 0.015550209 -0.035751026 -0.0066589997 -0.023418112 0.016906982 -0.060135663
-0.044550695 0.011447998 -0.08150575 -0.046069212 0.058007546 -0.029991865 0.01102229 0.02707836
0.04064092 -0.054432947 0.08528937 0.018855194 -0.01968379 0.01693555 -0.024826668 0.016269207
0.021779846 0.02690554 0.016767332 0.088498674 0.03960937 0.07302357 0.052678652 0.0017008791
-0.033029333 -0.029838452 0.056530006 -0.014060801 -0.0049115964 -0.029711066 -0.08367964 0.046402507
-0.026066309 0.04883819 0.043705273 0.054218866 0.015538007 -0.0692161 0.026215358 -0.024907509
0.04242335 -0.01821772 -0.06291773 0.04259948 0.02322055 0.048012275 -0.009131691 0.098238766
0.017931035 0.045999657 -0.09141167 0.072734304 0.048786715 0.08125802 0.053575672 0.069909416
0.065982334 -0.12979709 0.03566669 -0.11346178 -0.03191582 -0.0022024396 0.0057512764 -0.07076892
0.056861024 0.08880065 0.013587774 -0.014027186 -0.07993584 0.035903487 -0.08358031 0.028831612
-0.0015387543 0.027885182 0.002094049 0.0795521 0.015249193 0.093792126 0.08972934 0.08246505
0.06552162 0.11350117 0.0865964 0.055189352 -0.022278585 -0.042356454 0.054373726 -0.0015919644
0.0055976664 -0.058313016 -0.090123184 0.055256654 0.012930741 0.005170397 0.09024579 0.0031562564
-0.087922506 -0.089560404 -0.07534599 -0.066435255 0.035045095 -0.029457968 0.004002206 0.06413849
0.051167123 0.032907568 0.026198786 0.08628272 -0.085348904 0.07118882 -0.021790678 0.038716678
0.0021576313 0.08954548 0.051079158 0.09341512 0.03218034 0.008178616 -0.018211411 -0.050150655
0.047569375 -0.07390077 -0.007923028 0.034688313 -0.020766668 -0.09572552 -0.06543513 -0.038242776
-0.07296616 -0.020753967 -0.017472442 -0.047922194 0.0594478 -0.067362286 -0.0072405683 -0.0752598
0.004634352 0.3157967 0.06967527 -0.0023131426 -0.0018303306 -0.06566241 -0.001625644 0.05507031
0.08250563 0.3628901 0.07141566 0.025242867 0.05522297 0.043969005 -0.05211575 -0.05647876
-0.12354312 -0.14745656 -0.077239186 -0.024815686 0.08166287 -0.18468957 0.019164298 -0.1263866
-0.17414036 -0.20595644 -0.23145114 -0.19548509 0.114636034 -0.0917573 0.09197955 -0.002697461
0.0055079237 0.030296369 -0.04511785 0.017873233 0.0526485 0.04630246 0.06745389 -0.057793114
-0.009649552 -0.017016992 0.047969718 0.052578837 -0.031870395 0.051177904 0.11893961 -0.007285104
0.020416053 -0.13039698 0.12451763 -0.078748904 -0.108831964 -0.13731974 -0.060642984 -0.04637538
0.11297235 -0.12834112 0.01976869 -0.033910215 -0.105769135 -0.02357666 -0.15398279 -0.10129386
00000000: 6ad9 63ba 97b0 ce3d 12c7 1f3d 3fa2 efbd
00000010: f7e2 a33d f686 82bd 381b 2dbd c976 37bd
00000020: aa7d ab3d ad85 803d e280 b43d 623f 0fbe
00000030: 8e79 623d c568 d73c 886f 863d b1b5 773d
00000040: adc8 b33d 36e7 943d 6082 46bc efdf 8ebb
00000050: 5074 f53c 6211 8a3d 503e 32bd ca71 733d
00000060: b340 8abc 3315 403c aac1 f63b b618 9c3b
00000070: 128b 10bd 8c81 88bc a3af 823d bfc2 683d
00000080: 1f79 3fbd ab25 a1bc 0af6 e33a 230d e5bc
00000090: bcd0 b6bd e488 4ebd f4bb b5bd 2cd4 873d
000000a0: ff6c 58bb b9ed 0abd de84 f4bb b534 ee3b
000000b0: a5a1 69bc 944b 653d bdb5 eebc 288e a33b
000000c0: 85cf 673d fb56 d9bc 4ec6 7e3c ab6f 12bd
000000d0: bd33 dabb 57d7 bfbc 8380 8a3c d050 76bd
000000e0: ca7a 36bd 6290 3b3c 7dec a6bd 12b3 3cbd
000000f0: 5299 6d3d 80b1 f5bc d696 343c 70d3 dd3c
00000100: 1877 263d 15f5 5ebd 31ac ae3d 3576 9a3c
00000110: e63f a1bc 6cbc 8a3c 4c61 cbbc 0047 853c
00000120: a66b b23c 0269 dc3c a55b 893c cb3e b53d
00000130: 6f3d 223d 628d 953d 92c5 573d 08f0 de3a
00000140: c449 07bd c56f f4bc 028c 673d 465f 66bc
00000150: 75f1 a0bb 9f64 f3bc 3b60 abbd 8e10 3e3d
00000160: 0389 d5bc 8e0a 483d 4d04 333d 9a14 5e3d
00000170: 2093 7e3c 2cc1 8dbd 97c1 d63c d50a ccbc
00000180: 1bc4 2d3d 543d 95bc 03db 80bd cb7c 2e3d
00000190: 0639 be3c 85a8 443d 179d 15bc 6831 c93d
000001a0: 1be4 923c 236a 3c3d 0b36 bbbd b9f5 943d
000001b0: 94d4 473d 9b6a a63d 2a72 5b3d ab2c 8f3d
000001c0: bf21 873d 87e9 04be 3c17 123d a65e e8bd
000001d0: 2aba 02bd ce56 10bb 3475 bc3b 4cef 90bd
000001e0: 1be7 683d 1ddd b53d 419f 5e3c 48d2 65bc
000001f0: 67b5 a3bd 890f 133d 272c abbd 4630 ec3c
00000200: 07b0 c9ba 776f e43c 503c 093b 36ec a23d
00000210: c0d7 793c 1616 c03d 04c4 b73d 70e3 a83d
00000220: 3330 863d 4d73 e83d 7459 b13d 3b0e 623d
00000230: 9481 b6bc f67d 2dbd fcb6 5e3d 76a9 d0ba
00000240: a16c b73b a1d9 6ebd 8192 b8bd cd54 623d
00000250: 75db 533c 6f6c a93b c9d2 b83d 32d9 4e3b
00000260: b710 b4bd 726b b7bd 004f 9abd 350f 88bd
00000270: 728b 0f3d d651 f1bc f024 833b 0a5b 833d
00000280: 9e94 513d 16ca 063d d69e d63c ffb4 b03d
00000290: 68cb aebd 72cb 913d 5d82 b2bc 6195 1e3d
000002a0: 0c67 0d3b 9f63 b73d 6138 513d 6d50 bf3d
000002b0: 88cf 033d 9aff 053c 1930 95bc c66a 4dbd
000002c0: 1bd8 423d 4959 97bd 97cf 01bc 5515 0e3d
000002d0: dc1e aabc be0b c4bd da02 86bd 75a4 1cbd
000002e0: 486f 95bd 3904 aabc 5e22 8fbc 104a 44bd
000002f0: 897f 733d 3df5 89bd 4a42 edbb cf21 9abd
00000300: c3db 973b 1bb0 a13e e8b1 8e3d 1898 17bb
00000310: b4e7 efba 037a 86bd 9013 d5ba 6891 613d
00000320: b6f8 a83d bbcc b93e 6042 923d 21ca ce3c
00000330: 7b31 623d d818 343d 5377 55bd 4656 67bd
00000340: 2d04 fdbd dafe 16be 942f 9ebd 444a cbbc
00000350: dd3e a73d 431f 3dbe 72fe 9c3c 7d6b 01be
00000360: da51 32be 3fe6 52be 8701 6dbe 3e2d 48be
00000370: 4cc6 ea3d 40eb bbbd c65f bc3d e3c7 30bb
00000380: d07b b43b 1730 f83c 7fcd 38bd e36a 923c
00000390: f4a5 573d a6a7 3d3d 4425 8a3d 79b8 6cbd
000003a0: 2819 1ebc 3867 8bbc e57b 443d e85c 573d
000003b0: 888a 02bd ec9f 513d 9c96 f33d e2b7 eebb
000003c0: 913f a73c c986 05be 1903 ff3d 1b47 a1bd
000003d0: 4be3 debd 8c9d 0cbe c764 78bd 1cf4 3dbd
000003e0: 0c5e e73d db6b 03be f3f1 a13c 70e5 0abd
000003f0: 7d9d d8bd d723 c1bc aaad 1dbe 2873 cfbd

decoder.0.bias f4 [12]
-0.13968562 0.24450311 -0.10394864 0.10909368 -0.09237818 -0.14450894 -0.08810777 -0.108641595
-0.06180835 -0.06874768 0.00874783 0.07448529
00000000: bf09 0fbe 065f 7a3e 06e3 d4bd 826c df3d
00000010: c530 bdbd 27fa 13be d971 b4bd 7c7f debd
00000020: c12a 7dbd 95cb 8cbd 0f53 0f3c be8b 983d

decoder.2.weight f4 [12, 3, 4, 4]
0.05691333 -0.035011224 -0.026908193 0.03508805 -0.007839053 -0.033839468 -0.0702321 0.105188444
-0.05082448 -0.045107707 -0.018090857 -0.08723637 -0.041340306 -0.00042063315 -0.04027265 0.012528749
0.08052474 0.09472866 0.10535729 0.16047868 0.14970256 -0.023237692 0.012225558 0.08724106
0.0630168 0.14403805 0.11484042 -0.0613097 0.036644384 0.013341182 -0.0042308993 0.010744395
0.11792366 0.16056998 0.16508207 0.14064284 0.10370188 0.2074249 0.0073887645 0.11631446
0.19927709 0.16879517 0.20175038 0.13995788 0.01066867 0.17142732 0.18902749 0.15904112
0.21084946 0.016006863 0.067770146 0.24163197 0.16015354 0.013340462 0.12232333 0.14306794
0.050278146 0.23862892 0.13034019 -0.018198159 0.12798195 0.16377087 0.07474361 0.16073431
0.038667824 -0.070475176 -0.010357715 -0.0038688488 -0.054865073 -0.09311104 -0.18549179 -0.13182057
-0.1091859 -0.124862045 -0.14403042 0.024322063 -0.00522053 -0.015262878 0.06403266 -0.055442255
-0.17141345 -0.14119454 -0.036309447 -0.1671977 -0.17841224 -0.26304874 -0.1602334 -0.1427436
-0.2502305 -0.13024022 -0.2460781 -0.25962856 -0.24429582 -0.085949376 -0.18391621 -0.18861054
-0.040905446 -0.028129594 0.052012593 -0.0068160947 -0.027493643 0.103300415 -0.16645879 0.14963947
0.09456567 0.09074628 -0.07703077 -0.04732112 0.12336516 -0.12137651 0.1230534 -0.084171385
-0.07984073 -0.0675958 -0.033231713 0.011020944 -0.07515746 -0.10697844 -0.07428714 -0.054109685
0.11270266 0.10320355 0.1280897 0.20428486 -0.051148653 -0.0467549 0.090592384 0.1129489
0.13565457 -0.02840657 -0.019213341 0.17972203 0.10470971 -0.09047115 0.038334016 0.18409353
0.19361274 -0.02770661 0.020381743 0.15842342 -0.018657431 0.17273235 0.011135949 0.1344873
-0.08919184 -0.0590545 -0.0036480625 -0.044990227 0.11277521 -0.048804358 0.010367748 0.1018228
0.06953603 0.068482295 -0.060398705 -0.10709155 -0.12669006 -0.05953042 -0.11391759 -0.13998663
-0.0020155425 -0.21315323 -0.16944556 -0.029209757 -0.17894709 -0.14594834 0.018539723 0.009670641
-0.021484682 -0.20280516 -0.08016606 -0.028624246 -0.12970196 -0.015126548 -0.16067775 -0.13950515
-0.15407966 -0.14422278 -0.032900587 -0.06065715 -0.18002403 -0.19264565 -0.17443687 -0.27495435
-0.14079116 -0.18451115 -0.24706653 -0.23391293 -0.0047512804 -0.11764161 -0.0066295275 -0.12573467
0.09128137 -0.03923605 0.07036599 0.013208975 0.06263705 0.031162057 -0.12249933 0.11048739
0.048317045 0.06661936 0.118509345 0.005294198 0.03275336 0.086486615 -0.100230694 0.1383339
0.048339777 0.1229136 0.09073871 -0.066709325 -0.032800697 0.16101778 -0.08029928 0.16125366
0.047168348 0.047159493 -0.033248477 -0.056917887 -0.053706627 0.093281016 -0.013748088 0.15031582
0.036456417 -0.0030331928 0.032870635 -0.052087035 0.1381871 0.06153919 0.19460095 0.13923621
0.11227546 0.23434708 0.146217 0.13020562 -0.02350114 0.11039568 0.03140666 0.0486255
0.059696812 -0.017228255 0.027774852 0.072658844 -0.065225124 0.027948145 -0.01756353 0.10644891
-0.040978253 0.026557593 -0.056570515 0.16875373 -0.03994553 -0.10280927 0.0052800197 0.02092434
00000000: f41d 693d ee67 0fbd 926e dcbc 7db8 0f3d
00000010: 5f6f 00bc 419b 0abd d9d5 8fbd 0a6d d73d
00000020: 542d 50bd dcc2 38bd 4733 94bc fba8 b2bd
00000030: 7454 29bd 6d88 dcb9 eff4 24bd 6245 4d3c
00000040: 28ea a43d 1a01 c23d 90c5 d73d 8654 243e
00000050: a14b 193e f95c bebc b54d 483c 71ab b23d
00000060: f40e 813d b67e 133e 7431 eb3d e11f 7bbd
00000070: 6c18 163d f994 5a3c 5ba3 8abb 4209 303c
00000080: f681 f13d 756c 243e 460b 293e ad04 103e
00000090: a761 d43d 3167 543e 731d f23b 4736 ee3d
000000a0: 4b0f 4c3e a4d8 2c3e a797 4e3e 1e51 0f3e
000000b0: a5cb 2e3c a58a 2f3e 6c90 413e addb 223e
000000c0: ece8 573e d320 833c 13cb 8a3d 5f6e 773e
000000d0: 4aff 233e f491 5a3c a784 fa3d 6780 123e
000000e0: 75f0 4d3d 245b 743e e677 053e 4e14 95bc
000000f0: b30d 033e 8db3 273e 2e13 993d 8997 243e
00000100: 2762 1e3d 4a55 90bd 68b3 29bc 838c 7dbb
00000110: 33ba 60bd 00b1 bebd 8ff1 3dbe f9fb 06be
00000120: db9c dfbd acb7 ffbd b67c 13be 103f c73c
00000130: fb10 abbb 2611 7abc 8e23 833d 6b17 63bd
00000140: 0287 2fbe 4d95 10be 37b9 14bd e035 2bbe
00000150: b3b1 36be 53ae 86be 3914 24be 612b 12be
00000160: 361e 80be b15d 05be e6fb 7bbe 09ee 84be
00000170: af28 7abe 3a06 b0bd 8854 3cbe 1f23 41be
00000180: 788c 27bd 0970 e6bc 280b 553d 8c59 dfbb
00000190: 593a e1bc 2b8f d33d 2c74 2abe 173b 193e
000001a0: a5ab c13d 30d9 b93d 4fc2 9dbd cad3 41bd
000001b0: dfa6 fc3d 3f94 f8bd 6c03 fc3d 0c62 acbd
000001c0: 8983 a3bd ab6f 8abd fa1d 08bd 3191 343c
000001d0: 28ec 99bd 8317 dbbd db23 98bd 1ea2 5dbd
000001e0: a7d0 e63d 625c d33d f229 033e 0d30 513e
000001f0: 4081 51bd 1182 3fbd 8088 b93d c151 e73d
00000200: 08e9 0a3e e5b4 e8bc 4c65 9dbc 0d09 383e
00000210: 0b72 d63d f048 b9bd 2104 1d3d 0483 3c3e
00000220: 6b42 463e f9f8 e2bc 9df7 a63c c039 223e
00000230: 78d7 98bc c0e0 303e 8e73 363c 0ab7 093e
00000240: 36aa b6bd 22e3 71bd 5514 6fbb ac47 38bd
00000250: b0f6 e63d 14e7 47bd 7ddd 293c 7988 d03d
00000260: e868 8e3d 7240 8c3d a264 77bd d152 dbbd
00000270: 0abb 01be 2bd6 73bd a04d e9bd a858 0fbe
00000280: 3117 04bb d744 5abe 2383 2dbe 4d49 efbc
00000290: e83d 37be 7b73 15be 9ee0 973c 9c71 1e3c
000002a0: a500 b0bc 28ac 4fbe 1a2e a4bd 657d eabc
000002b0: 97d0 04be 57d5 77bc b588 24be 70da 0ebe
000002c0: 0fc7 1dbe 23af 13be c4c2 06bd a273 78bd
000002d0: 3858 38be e744 45be 949f 32be d1c6 8cbe
000002e0: 8f2b 10be 7ef0 3cbe 02ff 7cbe df86 6fbe
000002f0: a1b0 9bbb 16ee f0bd 823c d9bb 97c0 00be
00000300: baf1 ba3d fbb5 20bd 0b1c 903d 756a 583c
00000310: db47 803d 9247 ff3c eee0 fabd 3647 e23d
00000320: 18e8 453d bb6f 883d 07b5 f23d f47a ad3b
00000330: 6328 063d e51f b13d c045 cdbd 67a7 0d3e
00000340: eeff 453d 20ba fb3d 37d5 b93d e69e 88bd
00000350: 065a 06bd d8e1 243e f373 a4bd ae1f 253e
00000360: 9933 413d 502a 413d 8e2f 08bd bb22 69bd
00000370: 7bfb 5bbd 1e0a bf3d a93f 61bc 64ec 193e
00000380: 5353 153d 88c8 46bb 5ca3 063d 3759 55bd
00000390: eb80 0d3e 8510 7c3d 7945 473e f093 0e3e
000003a0: adf0 e53d aef8 6f3e e9b9 153e 9f54 053e
000003b0: 7685 c0bc 2117 e23d 45a4 003d 882b 473d
000003c0: a584 743d 4522 8dbc 1688 e33c 29ce 943d
000003d0: c094 85bd 82f3 e43c 64e1 8fbc e301 da3d
000003e0: d0d8 27bd 4f8f d93c 7cb6 67bd c7cd 2c3e
000003f0: ed9d 23bd ab8d d2bd 0404 ad3b 8569 ab3c

decoder.2.bias f4 [3]
-0.063973755 0.054330207 -0.019530319
00000000: ac04 83bd 5a89 5e3d 0cfe 9fbc
