weights/simple_cae_ne3_b8_depthcolormap.pth (torch, 44991 bytes, 8 tensors)

encoder.0.weight f4 [12, 3, 4, 4]
0.25800833 0.14594182 -0.039247505 -0.072113015 0.24952246 0.05546764 0.13588275 -0.11909389
0.1230081 -0.02901963 0.0014409953 0.013732402 -0.034406945 -0.005848289 0.022550859 -0.18548949
0.25016186 0.18413691 0.00501844 0.07911749 0.18942498 0.09442243 0.025673058 -0.09185532
0.09375711 0.12644216 -0.15067756 -0.048698068 0.093995176 0.10615808 0.033418324 0.0222046
0.06387543 -0.012426682 0.12103934 0.011096669 0.154087 -0.03664009 0.08448678 -0.07415035
-0.0095320875 0.01765114 -0.106086336 -0.19380434 0.002298455 -0.124421634 0.09380252 -0.17031218
-0.12415058 0.06413619 0.07618133 -0.11428817 0.013650236 0.14652354 -0.11998896 -0.05032952
-0.04889189 0.12377137 -0.12297725 0.080117345 0.123586334 0.106241226 0.12600218 -0.01052558
-0.017347313 0.09737746 0.090139486 0.14811718 -0.05912341 -0.007883351 0.019073417 -0.071468145
0.10685655 -0.07099954 0.1460429 0.056650467 0.019692693 -0.10703376 -0.10406653 0.13518628
0.032493744 -0.10644332 0.024860159 0.06627522 0.104721166 -0.121177554 0.14980917 0.061833575
-0.048060402 0.03303021 -0.1252388 -0.007613448 0.08949244 -0.018332198 0.08389232 0.1347273
-0.09173461 0.019341933 0.07210603 0.13204475 0.041791268 -0.12250751 -0.13130032 -0.1250071
-0.13015632 0.13448474 -0.12593009 0.142851 0.12342012 -0.11436901 -0.025767995 0.020328835
-0.14117077 0.025654592 0.12551896 0.12735246 0.091925174 0.06601975 0.0009873239 -0.10436147
0.0524946 -0.12370546 0.021955982 -0.11362461 0.08130974 0.024979208 0.1293213 -0.08756893
0.13039999 -0.067324564 -0.05065036 -0.027628569 -0.08892618 0.042869214 0.13441417 0.05904782
0.024621725 -0.09687928 0.10590818 -0.12919077 -0.11214997 -0.054607898 -0.108298816 -0.034425598
-0.08853459 -0.06362508 -0.069404796 -0.05957766 -0.08360493 -0.12298251 -0.025425095 -0.11408221
-0.06471568 0.10688921 -0.13271685 -0.10890056 0.11062772 0.07847345 0.009628525 -0.036203705
-0.14635158 0.009567026 0.096568435 0.10191114 -0.06872008 0.001433126 -0.034884334 -0.053959493
-0.12446916 -0.08497117 -0.03949589 0.013993363 0.010479311 0.04381975 0.05217972 -0.012715781
0.070356734 0.0118109165 -0.0014256405 -0.013582493 0.13254757 0.0433363 0.07988191 0.03694255
0.005505854 -0.10629922 0.07779033 -0.14091995 -0.101298235 0.049572196 0.054637495 -0.041392338
0.10267109 -0.12798718 -0.11475486 -0.052464116 -0.03402858 -0.048422813 -0.11359594 0.12445412
-0.0075169965 0.057518736 0.09312212 -0.13255538 0.009417648 -0.139634 0.11008243 -0.018863203
-0.016284414 0.03409039 0.033856712 -0.051657517 0.083376996 0.001697706 -0.14077704 0.08327438
0.027261019 0.07789199 -0.0012693728 0.09137088 -0.14835988 -0.062149473 -0.034424666 -0.14110157
0.06924804 -0.0068747434 0.0894491 0.046558954 -0.076127864 -0.08727579 -0.088355325 -0.05303562
-0.045696925 0.103407174 0.099996276 0.058350414 -0.109224215 -0.04389889 -0.06986153 -0.025745317
0.024081593 -0.15850466 0.017103303 0.081276596 -0.02940589 0.070574924 0.047520522 -0.099506
-0.039927423 0.07176388 0.05901368 -0.07959162 0.059424866 -0.05788435 -0.11648618 -0.06930224
00000000: ab19 843e c671 153e fec1 20bd fdaf 93bd
00000010: d182 7f3e 0932 633d d924 0b3e 7fe7 f3bd
00000020: aceb fb3d 93ba edbc c7df bc3a defd 603c
00000030: 4cee 0cbd 01a3 bfbb 94bc b83c f5f0 3dbe
00000040: 3715 803e 638e 3c3e ba71 a43b 5a08 a23d
00000050: 9ff8 413e 8c60 c13d 4e50 d23c a41e bcbd
00000060: ba03 c03d 0e7a 013e 384b 1abe a077 47bd
00000070: 8b80 c03d 6869 d93d a7e1 083d 6ce6 b53c
00000080: 1fd1 823d 4899 4bbc 79e3 f73d cece 353c
00000090: fcc8 1d3e eb13 16bd 6807 ad3d 24dc 97bd
000000a0: 792c 1cbc 2099 903c cb43 d9bd a574 46be
000000b0: ada1 163b c5d0 febd 891b c03d 5166 2ebe
000000c0: a942 febd d659 833d f504 9c3d eb0f eabd
000000d0: 3da5 5f3c 440a 163e c6bc f5bd 5426 4ebd
000000e0: dd42 48bd d87b fd3d 7fdb fbbd 9014 a43d
000000f0: d51a fd3d 0095 d93d b706 013e 7b73 2cbc
00000100: f41b 8ebc d56d c73d 0d9b b83d 08ac 173e
00000110: 642b 72bd 2c29 01bc db3f 9c3c e45d 92bd
00000120: 9bd7 da3d 3568 91bd 458c 153e 520a 683d
00000130: 9252 a13c 8434 dbbd d520 d5bd 466e 0a3e
00000140: 2918 053d f5fe d9bd 88a7 cb3c 4dbb 873d
00000150: 0d78 d63d f02b f8bd 9367 193e 3445 7d3d
00000160: fcda 44bd af4a 073d 9a3e 00be 3b7a f9bb
00000170: d047 b73d 682d 96bc bdcf ab3d f4f5 093e
00000180: 5bdf bbbd f972 9e3c 54ac 933d bd36 073e
00000190: 522d 2b3d 38e5 fabd 9773 06be dc01 00be
000001a0: b347 05be 5eb6 093e d1f3 00be 8847 123e
000001b0: b0c3 fc3d 4d3a eabd 6717 d3bc a888 a63c
000001c0: 128f 10be 9429 d23c 0b88 003e af68 023e
000001d0: 4443 bc3d 5d35 873d 1869 813a 77bb d5bd
000001e0: 9404 573d 4a59 fdbd 08dd b33c 05b4 e8bd
000001f0: b985 a63d 32a1 cc3c ce6c 043e 5757 b3bd
00000200: 9387 053e 76e1 89bd c076 4fbd 4f55 e2bc
00000210: ee1e b6bd a197 2f3d dea3 093e 20dc 713d
00000220: 80b3 c93c a568 c6bd 63e6 d83d 964a 04be
00000230: e2ae e5bd 88ac 5fbd c5cb ddbd db01 0dbd
00000240: a051 b5bd de4d 82bd 1a24 8ebd b407 74bd
00000250: 1039 abbd 41de fbbd 4a48 d0bc efa3 e9bd
00000260: a889 84bd bbe8 da3d ede6 07be 4207 dfbd
00000270: c990 e23d b0b6 a03d f6c0 1d3c 564a 14bd
00000280: 30dd 15be 04bf 1c3c acc5 c53d cab6 d03d
00000290: 1dbd 8cbd bbd7 bb3a e0e2 0ebd a104 5dbd
000002a0: b0e9 febd 5d05 aebd 71c6 21bd 6b44 653c
000002b0: 6bb1 2b3c 577c 333d 67ba 553d da55 50bc
000002c0: 3117 903d 9382 413c 8fdc baba 1b89 5ebc
000002d0: 8dba 073e 6781 313d 2099 a33d 1251 173d
000002e0: 736a b43b 68b3 d9bd 8950 9f3d 524d 10be
000002f0: 7375 cfbd 370c 4b3d 91cb 5f3d 038b 29bd
00000300: 3845 d23d 120f 03be 9904 ebbd 9de4 56bd
00000310: 8d61 0bbd 0057 46bd fda4 e8bd cde1 fe3d
00000320: 2351 f6bb c498 6b3d cfb6 be3d 99bc 07be
00000330: 7b4c 1a3c 37fc 0ebe e672 e13d 0187 9abc
00000340: e466 85bc 5da2 0b3d 56ad 0a3d d596 53bd
00000350: 8fc1 aa3d 8f85 de3a db27 10be c28b aa3d
00000360: 8052 df3c d685 9f3d 1561 a6ba a820 bb3d
00000370: a7eb 17be 7290 7ebd e100 0dbd ee7c 10be
00000380: ebd1 8d3d 8745 e1bb 1731 b73d 9ab4 3e3d
00000390: ede8 9bbd a6bd b2bd a3f3 b4bd e13b 59bd
000003a0: b32c 3bbd 24c7 d33d d9ca cc3d d800 6f3d
000003b0: f2b0 dfbd 53cf 33bd 9013 8fbd d8e7 d2bc
000003c0: c346 c53c 0c4f 22be 3a1c 8c3c 5874 a63d
000003d0: 9fe4 f0bc 9689 903d e1a4 423d cdc9 cbbd
000003e0: f08a 23bd f1f8 923d 54b8 713d ee00 a3bd
000003f0: 7d67 733d 2418 6dbd 4e90 eebd 55ee 8dbd

encoder.0.bias f4 [12]
0.037805926 0.026745858 0.20918022 0.13413349 0.17634673 0.1211237 0.03612264 0.15347233
-0.149311 0.06918183 0.039865993 0.12511818
00000000: 63da 1a3d 211a db3c 5733 563e 4a5a 093e
00000010: 3d94 343e b40f f83d 55f5 133d da27 1d3e
00000020: fce4 18be 34af 8d3d 864a 233d fb1e 003e

encoder.2.weight f4 [24, 12, 4, 4]
0.14321658 0.12272364 0.026683653 -0.06199458 0.22796859 0.17547867 -0.11799296 -0.22830768
0.2535235 0.08452867 -0.1633565 -0.2706958 0.039914753 -0.15617403 -0.048952974 -0.15827528
-0.0714132 -0.0686598 -0.03682141 0.0032738491 0.016784932 -0.08148883 0.030183703 -0.056358658
-0.035466228 0.036107503 -0.08270267 -0.07073593 0.057623953 -0.077175766 0.01870726 -0.019031605
0.11758197 0.108307436 0.019966222 0.09227603 0.09892593 0.06730967 0.056813117 0.14637022
0.06469728 0.11925836 0.08171745 0.081076846 0.028164862 0.058958646 0.100203246 0.057510696
0.0055912193 0.08912433 0.020380743 0.091047496 0.021516263 0.13608123 0.022217961 0.08255645
0.11030483 0.06891293 0.13102782 0.06835174 -0.00094917894 0.05223422 0.109665595 0.029508797
0.06470449 0.09756505 0.056892894 0.09975331 0.07140535 0.08523465 0.031595472 -0.024360942
0.10284757 0.074120685 0.10828001 -0.03223728 0.005976361 -0.030227702 0.020366646 -0.012160116
-0.03298125 0.07485324 -0.031335972 0.03351151 -0.020290388 0.06846745 0.037734583 -0.007861643
-0.04053224 -0.0151811335 0.07796727 0.04369413 0.024558363 -0.0029730678 0.06450559 -0.048687816
0.05130696 -0.05833202 0.026121926 -0.07795045 -0.03598118 0.041344192 0.051758252 0.0357233
0.010578426 -0.05066981 0.038402107 0.056752156 0.036245022 0.019775448 0.026838526 -0.0064873504
0.13450265 0.12552448 0.03839092 0.12401992 0.07504209 0.02640577 0.1568409 0.066415876
0.040795993 0.14011838 0.08279857 0.12079389 0.110944584 0.0057556853 0.12628853 -0.010624858
0.045316156 0.06956179 -0.033202965 0.012785166 -0.046291146 -0.048501626 0.0022409577 -0.052656207
0.014023181 -0.0080077965 -0.062589645 -0.016439348 0.06510596 0.03981947 0.05222987 0.015115127
0.025909703 0.06443706 0.043056577 0.08517787 0.033813983 0.04254688 0.0064558242 0.052290484
0.07944215 0.098181546 0.045880895 0.03640531 0.01324802 0.07435502 0.0009849512 0.102717966
-0.0650877 -0.009701124 -0.03663146 -0.029047495 -0.032929637 -0.070191875 -0.0750439 0.07603421
-0.05182149 -0.0397795 0.01471212 -0.06309047 0.0022834914 0.01982257 -0.08267814 -0.022407558
0.05133618 0.02392951 0.029235238 0.10801757 -0.0047421604 -0.011724773 0.032704927 0.06312976
0.10481548 -0.009719833 0.05330733 0.046235323 0.0054093045 0.06287131 0.040434897 0.025597943
0.0004169371 0.01715216 0.070349485 0.0850733 0.018355131 -0.080173105 -0.11752066 -0.07025349
0.046155643 0.03845762 -0.11124163 -0.14343713 0.009189876 -0.16097762 -0.08603267 -0.07299801
-0.046888918 0.046967324 0.029057443 -0.059684526 0.03158495 0.025150564 -0.026358549 0.04097194
0.04622528 -0.024495626 0.042905122 0.018877538 0.015944256 0.067024566 -0.05268709 0.010727978
0.13512526 0.14143598 0.061544824 0.0143330665 0.12363054 0.07524859 0.10920165 0.1146732
0.013938147 0.035198875 0.04524648 0.051855784 0.055952318 -0.0041536577 0.062121145 0.12347732
0.09648278 0.023099415 0.09824211 0.0008043336 0.11006195 0.044702187 -0.002865596 0.06589507
0.12342347 0.026019199 0.054999433 0.083595715 -0.011059928 0.07660647 0.096789986 0.103248015
00000000: 5ea7 123e 8856 fb3d ad97 da3c 07ee 7dbd
00000010: 9970 693e aeb0 333e 4ba6 f1bd 7dc9 69be
00000020: d5cd 813e 5e1d ad3d ed46 27be a498 8abe
00000030: a77d 233d 16ec 1fbe ea82 48bd ea12 22be
00000040: 1541 92bd 829d 8cbd 0cd2 16bd 138e 563b
00000050: 8e80 893c 9ee3 a6bd d043 f73c 56d8 66bd
00000060: 0945 11bd 76e5 133d 0460 a9bd 00de 90bd
00000070: 1807 6c3d 540e 9ebd f83f 993c 2be8 9bbc
00000080: d1ce f03d 4ad0 dd3d 3490 a33c 37fb bc3d
00000090: ae99 ca3d a7d9 893d dfb4 683d 13e2 153e
000000a0: 0280 843d ba3d f43d 7a5b a73d 9e0b a63d
000000b0: ffb9 e63c 9f7e 713d 5c37 cd3d 5690 6b3d
000000c0: 8c36 b73b d186 b63d 84f5 a63c 1c77 ba3d
000000d0: e042 b03c e158 0b3e 7102 b63c 5b13 a93d
000000e0: 80e7 e13d 3922 8d3d 282c 063e fffb 8b3d
000000f0: 52d2 78ba 8df3 553d 5b98 e03d 6fbc f13c
00000100: ca83 843d 2fd0 c73d 8608 693d 774b cc3d
00000110: f83c 923d 818f ae3d 416a 013d 9990 c7bc
00000120: bfa1 d23d 96cc 973d e9c1 dd3d 3d0b 04bd
00000130: 5ad5 c33b 16a0 f7bc f4d7 a63c 393b 47bc
00000140: 5917 07bd a84c 993d 265a 00bd 5d43 093d
00000150: 0738 a6bc aa38 8c3d 948f 1a3d 1fce 00bc
00000160: 2205 26bd 4aba 78bc 4ead 9f3d 9ef8 323d
00000170: 9f2e c93c cdd7 42bb 821b 843d e06c 47bd
00000180: 3f27 523d 8eed 6ebd a6fd d53c 7ca4 9fbd
00000190: 0061 13bd 8758 293d 7600 543d 9852 123d
000001a0: 2251 2d3c 268b 4fbd 874b 1d3d f374 683d
000001b0: a975 143d 1f00 a23c 78dc db3c d793 d4bb
000001c0: 10bb 093e 7d89 003e cc3f 1d3d 28fe fd3d
000001d0: abaf 993d ea50 d83c e79a 203e 0c05 883d
000001e0: b319 273d 317b 0f3e 4c92 a93d c962 f73d
000001f0: ea36 e33d 309a bc3b c851 013e e213 2ebc
00000200: 6f9d 393d 6976 8e3d d5ff 07bd df78 513c
00000210: c99b 3dbd a4a9 46bd 08dd 123b 09ae 57bd
00000220: 7cc1 653c 2233 03bc 002f 80bd d0ab 86bc
00000230: 4656 853d be19 233d fdee 553d 70a5 773c
00000240: 9640 d43c 94f7 833d 185c 303d bc71 ae3d
00000250: 8880 0a3d a345 2e3d 618b d33b 8c2e 563d
00000260: 91b2 a23d 6813 c93d 9bed 3b3d bc1d 153d
00000270: 390e 593c 7247 983d 7a19 813a cc5d d23d
00000280: b34c 85bd 77f1 1ebc df0a 16bd 03f5 edbc
00000290: 3ae1 06bd c2c0 8fbd 9eb0 99bd d3b7 9b3d
000002a0: c542 54bd d4ef 22bd 1b0b 713c 9435 81bd
000002b0: a1a6 153b f162 a23c 2853 a9bd 0e90 b7bc
000002c0: e345 523d d207 c43c bd7e ef3c 5138 dd3d
000002d0: 2064 9bbb 4319 40bc 9af5 053d 2d4a 813d
000002e0: 80a9 d63d ef3f 1fbc c958 5a3d 4061 3d3d
000002f0: 8940 b13b acc2 803d 109f 253d c7b2 d13c
00000300: 5a98 da39 b082 8c3c 6413 903d e93a ae3d
00000310: 805d 963c cc31 a4bd acae f0bd 10e1 8fbd
00000320: b30d 3d3d bd85 1d3d a7d2 e3bd 2fe1 12be
00000330: 2291 163c 51d7 24be e631 b0bd fb7f 95bd
00000340: 980e 40bd cf60 403d e009 ee3c c377 74bd
00000350: 385f 013d 8e08 ce3c e2ed d7bc 31d2 273d
00000360: b856 3d3d 0dab c8bc 48bd 2f3d 11a5 9a3c
00000370: 879d 823c 2d44 893d 6bce 57bd 67c4 2f3c
00000380: 475e 0a3e 98d4 103e 6d16 7c3d 3dd5 6a3c
00000390: 0232 fd3d ef1b 9a3d 1da5 df3d c8d9 ea3d
000003a0: d35c 643c b22c 103d 5f54 393d bb66 543d
000003b0: 422e 653d 681b 88bb be72 7e3d ade1 fc3d
000003c0: c498 c53d fc3a bd3c 2933 c93d ead9 523a
000003d0: 2968 e13d a419 373d b9cc 3bbb fff3 863d
000003e0: 72c5 fc3d 3726 d53c 1647 613d 3b34 ab3d
000003f0: b334 35bc dae3 9c3d d439 c63d b273 d33d

encoder.2.bias f4 [24]
0.07116001 0.036525525 0.12291436 0.036514364 0.11367668 0.10745973 0.10716814 0.10163074
0.06670136 0.11683247 -0.09708651 0.12274658 0.053654984 0.018953567 0.03412493 0.033839576
0.17005274 0.108842015 0.032498 0.19316775 0.105287805 0.114820614 0.10040974 0.061967105
00000000: 57bc 913d ca9b 153d 86ba fb3d 1690 153d
00000010: 52cf e83d d913 dc3d f87a db3d c723 d03d
00000020: b99a 883d dd45 ef3d 4bd5 c6bd 8f62 fb3d
00000030: 54c5 5b3d 8344 9b3c 95c6 0b3d 5e9b 0a3d
00000040: 4e22 2e3e 90e8 de3d 9f1c 053d c4cd 453e
00000050: 22a1 d73d 1227 eb3d 9fa3 cd3d 38d1 7d3d

decoder.0.weight f4 [24, 12, 4, 4]
-0.028334297 0.28311417 -0.05531617 0.01907251 -0.029902412 0.028523777 -0.017429939 -0.05287651
0.021071497 0.22940975 -0.0625165 -0.025893323 -0.05022505 0.008470403 -0.05809357 0.008730938
-0.028942408 -0.080681615 -0.006947434 -0.023109322 -0.12697418 -0.0005942749 0.29358503 0.00395742
0.10343706 -0.07030069 0.05209074 0.03520468 -0.09732568 -0.001043831 0.1604052 0.09061966
-0.012025253 0.031371906 0.05839808 0.091338314 0.044191148 0.092343345 0.00962672 0.11946999
0.012667338 0.11551559 0.13237354 0.0035442081 0.08908116 0.10473804 0.0965807 -0.010722228
0.057442952 0.011870433 0.037494663 -0.011841554 0.043751854 0.054230567 0.07332256 0.037202813
0.020322537 0.11051609 0.089223936 0.09404629 -0.013460075 0.056997165 -0.0153359985 0.013521519
-0.031657744 -0.021608535 0.095802344 0.06173999 0.005999068 0.102690466 -0.0009916618 0.074077226
0.028652752 0.12399608 0.060827237 0.0040988694 -0.01974386 -0.012911324 -0.027475165 0.08316233
0.064312704 -0.062094554 -0.028488338 -0.013729895 0.067814566 0.05774358 0.104666114 0.0998449
0.109191634 -0.070939384 0.06237821 -0.06288973 -0.028745454 0.056495346 0.077404425 0.016491646
-0.04722525 -0.08319981 -0.07809853 0.048256814 -0.07645135 0.43966398 0.3157204 0.081509754
-0.033183035 0.045998693 0.023528008 0.057892922 -0.012905537 0.37612185 -0.038959395 -0.2449954
-0.027232734 0.022176333 -0.0004923788 0.038735393 -0.024517834 0.033978503 0.14049204 0.08782182
0.008044819 0.1469667 0.0838873 0.07536011 0.007300491 0.03531271 0.0726788 0.088580735
0.039199624 -0.02187348 0.0063387286 -0.07049419 -0.0646249 -0.0635606 0.04522795 -0.0030658767
-0.039894033 -0.039989773 -0.0033683015 -0.025300972 0.06545515 0.020656187 -0.030731002 -0.04295753
-0.113859124 -0.08295328 -0.13897966 -0.06390649 -0.020761915 0.020216933 0.026778387 -0.053186115
-0.16608293 -0.05790253 -0.25402653 0.032232095 0.0050661266 -0.038528718 0.03716471 -0.0050025294
0.01540492 0.10399833 0.1136258 -0.057660684 -0.08930269 0.08540856 0.11628831 0.0101495655
0.0929916 0.124892764 0.11849234 -0.014799841 0.06327911 0.039742883 -0.05268011 -0.12670651
0.05586255 -0.025786323 -0.04953189 0.014285074 -0.06648262 -0.06823422 -0.027730515 -0.021948433
-0.06936365 -0.04476138 -0.045294635 0.013843406 0.012575275 -0.0640089 0.041458603 -0.02724703
0.0565798 0.07626651 -0.077715605 -0.009045359 -0.001995276 0.047591012 -0.033890728 0.005474815
-0.043311786 0.093058094 -0.08519092 -0.1558252 -0.06383278 0.019354979 -0.071819685 -0.026196722
-0.0018468625 -0.0096420925 -0.04794826 -0.064125896 0.040960446 0.07297107 0.26578617 -0.005069675
0.00999865 -0.057084106 0.06651974 0.031829994 -0.1322067 0.089524254 -0.021647112 -0.00959131
-0.005380282 -0.0137130665 0.0014587177 0.04110644 0.093733676 0.07662828 -0.0013875327 0.080519624
0.046993095 0.087120056 0.054274034 0.04102818 0.007431243 -0.003210955 -0.01983419 0.05042469
0.007948076 0.0245716 0.0077730776 0.052562065 -0.0024951072 0.014185998 -0.031676445 0.0880269
-0.024831427 0.081506744 0.099719204 0.07047594 0.07454647 0.0990578 0.047597438 0.07146402
00000000: 541d e8bc 57f4 903e 3593 62bd f43d 9c3c
00000010: e7f5 f4bc b2aa e93c 3bc9 8ebc 0a95 58bd
00000020: 229e ac3c 64ea 6a3e a708 80bd 3c1e d4bc
00000030: c8b8 4dbd 72c7 0a3c 86f3 6dbd 350c 0f3c
00000040: a118 edbc 673c a5bd 4da7 e3bb c34f bdbc
00000050: 8505 02be 1dc9 1bba c750 963e 3fad 813b
00000060: cfd6 d33d cff9 8fbd 1a5d 553d c832 103d
00000070: b052 c7bd 28d1 88ba 4341 243e cd96 b93d
00000080: 9105 45bc d47f 003d d332 6f3d 950f bb3d
00000090: c701 353d 821e bd3d 64b9 1d3c afac f43d
000000a0: ab8a 4f3c 7093 ec3d ee8c 073e f245 683b
000000b0: 2f70 b63d e680 d63d 1acc c53d 49ac 2fbc
000000c0: 4d49 6b3d 347c 423c 0194 193d 1403 42bc
000000d0: 2535 333d df20 5e3d 232a 963d fa61 183d
000000e0: 737b a63c 4356 e23d 0abb b63d 579b c03d
000000f0: a587 5cbc dc75 693d d743 7bbc 5c89 5d3c
00000100: 8dab 01bd 6204 b1bc 0534 c43d 12e3 7c3d
00000110: d493 c43b 614f d23d a6fa 81ba cdb5 973d
00000120: 2db9 ea3c a8f1 fd3d fb25 793d cf4f 863b
00000130: e0bd a1bc 058a 53bc 9913 e1bc 0351 aa3d
00000140: 61b6 833d dc56 7ebd 6060 e9bc 5bf3 60bc
00000150: 5de2 8a3d 8884 6c3d 305b d63d 7c7b cc3d
00000160: dd9f df3d ab48 91bd 4b80 7f3d 55cc 80bd
00000170: 967b ebbc aa67 673d 3686 9e3d 7d19 873c
00000180: 446f 41bd a964 aabd 1ff2 9fbd f0a8 453d
00000190: 8692 9cbd a31b e13e 1ba6 a13e 96ee a63d
000001a0: efea 07bd 2069 3c3d cfbd c03c 2121 6d3d
000001b0: bf71 53bc 0b93 c03e e393 1fbd 13e0 7abe
000001c0: 2f17 dfbc 24ab b53c fb12 01ba 01a9 1e3d
000001d0: a0d9 c8bc 0b2d 0b3d 25dd 0f3e eddb b33d
000001e0: 6bce 033c 707e 163e 1bcd ab3d 6756 9a3d
000001f0: f538 ef3b 0fa4 103d 9fd8 943d d169 b53d
00000200: c98f 203d 0330 b3bc 1cb5 cf3b 425f 90bd
00000210: 0f5a 84bd 0f2c 82bd f140 393d e0ec 48bb
00000220: ed67 23bd 51cc 23bd b9be 5cbb fc43 cfbc
00000230: 5a0d 863d 2a37 a93c 95bf fbbc 3cf4 2fbd
00000240: f92e e9bd 69e3 a9bd af50 0ebe 68e1 82bd
00000250: e414 aabc fb9d a53c 595e db3c afd9 59bd
00000260: a511 2abe 342b 6dbd c40f 82be cd05 043d
00000270: c001 a63b 4ad0 1dbd 063a 183d 42ec a3bb
00000280: eb64 7c3c 14fd d43d a5b4 e83d 9c2d 6cbd
00000290: 54e4 b6bd afea ae3d 9128 ee3d 5d4a 263c
000002a0: 6172 be3d c7c7 ff3d 1dac f23d 087b 72bc
000002b0: 7a98 813d 6fc9 223d 19c7 57bd 5abf 01be
000002c0: 21d0 643d d73d d3bc f3e1 4abd f10b 6a3c
000002d0: 0a28 88bd 62be 8bbd 1b2b e3bc 33cd b3bc
000002e0: 880e 8ebd b557 37bd de86 39bd 74cf 623c
000002f0: 8708 4e3c 1917 83bd 7fd0 293d 2a35 dfbc
00000300: 38c0 673d 9e31 9c3d 5c29 9fbd fc32 14bc
00000310: 2dc3 02bb cbee 423d 01d1 0abd 1466 b33b
00000320: b367 31bd 3e95 be3d 9478 aebd a490 1fbe
00000330: c3ba 82bd 558e 9e3c 3316 93bd 829a d6bc
00000340: 6c12 f2ba def9 1dbc 6565 44bd 7054 83bd
00000350: 24c6 273d db71 953d 2015 883e 841f a6bb
00000360: 61d1 233c 06d1 69bd 803b 883d 2b60 023d
00000370: 3161 07be 7e58 b73d 4955 b1bc df24 1dbc
00000380: 144d b0bb c5ac 60bc 7232 bf3a 3a5f 283d
00000390: 71f7 bf3d 4aef 9c3d dfdd b5ba 79e7 a43d
000003a0: d57b 403d 006c b23d 734e 5e3d 2a0d 283d
000003b0: c981 f33b e36e 52bb 507b a2bc 1f8a 4e3d
000003c0: a638 023c 614a c93c 4db5 fe3b 524b 573d
000003d0: f484 23bb 636c 683c 29bf 01bd 7347 b43d
000003e0: 476b cbbc 02ed a63d 9539 cc3d b155 903d
000003f0: d2ab 983d d1de ca3d 88f5 423d ba5b 923d

decoder.0.bias f4 [12]
-0.010438686 -0.002561518 0.08457969 0.110450044 0.12864035 0.05132904 -0.008124056 0.12601872
0.040908918 -0.005479475 0.06803467 0.0058669327
00000000: 0607 2bbc 24df 27bb 1e38 ad3d a233 e23d
00000010: 4cba 033e 663e 523d c31a 05bc 0d0b 013e
00000020: 1c90 273d 2b8d b3bb c355 8b3d 663f c03b

decoder.2.weight f4 [12, 3, 4, 4]
0.18749957 -0.13161422 0.12375455 -0.0629977 0.16280964 -0.0953647 -0.0502909 0.07598265
0.16940263 -0.18255821 0.15898372 0.05291922 0.21309662 -0.08502032 0.16710807 0.021322992
0.20997907 -0.053460844 0.03908113 -0.0078184875 0.1355419 -0.08153898 0.039550874 0.032979734
0.21978952 -0.035431497 0.0059983707 0.052419793 0.1833335 -0.035210676 -0.017168239 0.027029848
0.18092453 -0.07888507 0.110408194 -0.062080465 0.13709734 -0.23026587 0.054022633 -0.08687739
0.19795899 -0.0075704143 0.09564623 0.095157176 0.26013923 -0.15489624 0.21618173 0.058166526
-0.0952676 -0.12880515 -0.073735595 -0.07191049 -0.027480712 -0.084288076 -0.118618056 0.09734085
-0.21954572 -0.05871686 -0.20505081 -0.095311925 0.032858826 0.004215568 -0.21484257 -0.04137269
-0.13705769 -0.002323583 -0.14410265 -0.08669498 -0.12674122 0.02965512 -0.13654697 -0.037191316
-0.09369272 -0.0075016953 -0.046029776 -0.087335065 -0.029755728 -0.01274838 -0.114281066 0.014980285
-0.062206104 -0.07889887 -0.015430597 -0.051174775 -0.19977014 -0.07764316 -0.012603411 -0.01450822
-0.17558825 -0.20766146 -0.15368807 -0.09459829 -0.034361783 -0.033405248 0.02241889 -0.058527887
0.06393456 -0.024361605 0.026882635 0.055389933 -0.15448906 -0.13926363 -0.14990956 -0.17008752
-0.18959476 -0.10655936 -0.17793381 -0.15682267 0.06260415 -0.059638046 -0.032602888 0.017464371
-0.13240127 0.025474219 0.088965416 0.06086263 -0.14546567 -0.1644668 -0.009807103 -0.080226585
-0.003432788 -0.065521516 -0.07927136 0.029085552 -0.014072195 -0.116984524 -0.04260409 -0.020024324
-0.07486513 -0.026629096 -0.17465149 0.006695278 -0.17619283 -0.04451917 0.011405659 -0.103984326
-0.039844222 -0.006762473 -0.03584853 -0.10378222 -0.15833779 -0.07247179 0.06543828 -0.06639452
-0.057596736 0.057123628 0.03457807 -0.15017955 -0.054726645 -0.034499716 -0.13704096 -0.16168088
-0.028216153 -0.13099301 0.02700762 -0.051180903 -0.15226866 0.060875796 0.012959738 -0.1016233
-0.152511 -0.008960073 0.012147039 0.09505296 0.08883179 -0.014551147 -0.1859749 -0.16894805
-0.14800328 -0.12194784 -0.09799226 -0.17251374 0.030428154 0.07122293 0.03925007 -0.06673573
-0.122769214 0.00126379 0.008391787 0.014746357 0.027128251 0.026212957 0.02526363 -0.04571578
-0.1812476 -0.07232395 -0.22793137 -0.103426106 -0.08029061 0.031562995 -0.20676827 -0.10956395
-0.078337476 0.055863217 -0.03336863 -0.109031685 0.027778355 -0.09419204 -0.018798556 -0.14387913
-0.029400809 -0.07613433 -0.18038674 0.064641654 0.030851252 -0.1479966 -0.08951559 0.07838371
-0.14748396 -0.110723525 -0.15627612 -0.1421771 0.00075310434 -0.18668295 -0.10297046 0.07943246
-0.1384795 -0.18543833 -0.1805786 -0.07965555 -0.1533159 -0.034319177 0.039637774 -0.12692046
-0.027438669 -0.009431442 -0.07697328 -0.17412135 -0.0694429 -0.16194388 -0.040450986 -0.121494584
0.023263188 -0.059687167 0.008964175 -0.097036056 -0.10194767 -0.17480198 -0.09859938 -0.1587232
-0.015973827 0.061865907 -0.0934363 -0.0036311918 0.07029187 -0.05381483 -0.1596776 -0.12450658
-0.080341674 -0.14871517 -0.04717439 0.0007848471 -0.14511271 -0.024647353 0.058875475 -0.009278518
00000000: e3ff 3f3e e1c5 06be 0773 fd3d f004 81bd
00000010: 92b7 263e 914e c3bd d5fd 4dbd cb9c 9b3d
00000020: e277 2d3e 8af0 3abe a1cc 223e d3c1 583d
00000030: 0036 5a3e 221f aebd 611e 2b3e 8ead ae3c
00000040: c104 573e c2f9 5abd 8913 203d 1d19 00bc
00000050: 7fcb 0a3e e9fd a6bd 1900 223d c215 073d
00000060: 8110 613e 9e20 11bd fb8d c43b 23b6 563d
00000070: c7bb 3b3e 1239 10bd 68a4 8cbc b36d dd3c
00000080: 4844 393e 7f8e a1bd b11d e23d 1648 7ebd
00000090: 3f63 0c3e d1ca 6bbe d646 5d3d c6ec b1bd
000000a0: c3b5 4a3e 3d11 f8bb 2ce2 c33d c4e1 c23d
000000b0: f830 853e 1f9d 1ebe be5e 5d3e 0640 6e3d
000000c0: a91b c3bd 7fe5 03be b002 97bd cf45 93bd
000000d0: 3b1f e1bc 3a9f acbd 06ee f2bd a45a c73d
000000e0: 98d0 60be 1781 70bd d7f8 51be e632 c3bd
000000f0: fa96 063d bf22 8a3b b1ff 5bbe 6976 29bd
00000100: da58 0cbe 4147 18bb a58f 13be 238d b1bd
00000110: 73c8 01be 4bef f23c f8d2 0bbe ec55 18bd
00000120: f8e1 bfbd c8d0 f5bb b889 3cbd badc b2bd
00000130: 49c2 f3bc 95de 50bc 310c eabd df6f 753c
00000140: d4cb 7ebd bb95 a1bd 9dd0 7cbc a49c 51bd
00000150: 8b90 4cbe 6103 9fbd 8a7e 4ebc e3b3 6dbc
00000160: 68cd 33be 35a5 54be 6860 1dbe c0bc c1bd
00000170: f1be 0cbd f1d3 08bd d2a7 b73c f0ba 6fbd
00000180: 1ff0 823d fd91 c7bc f938 dc3c 8ee0 623d
00000190: 6132 1ebe 209b 0ebe e481 19be 6c2b 2ebe
000001a0: 2125 42be cb3b dabd 4834 36be 1f96 20be
000001b0: 9b36 803d 0647 74bd 9b8a 05bd 7111 8f3c
000001c0: 3394 07be 4faf d03c 8033 b63d 184b 793d
000001d0: f4f4 14be fc69 28be f9ad 20bc d64d a4bd
000001e0: a0f8 60bb 2530 86bd 0659 a2bd d344 ee3c
000001f0: 108f 66bc 9595 efbd a081 2ebd 0d0a a4bc
00000200: e452 99bd 4325 dabc d7d7 32be 1064 db3b
00000210: e56b 34be bc59 36bd cdde 3a3c bcf5 d4bd
00000220: b233 23bd bc97 ddbb e8d5 12bd c68b d4bd
00000230: 4d23 22be 176c 94bd 8104 863d daf9 87bd
00000240: 8eea 6bbd 77fa 693d bca1 0d3d abc8 19be
00000250: 0c29 60bd 934f 0dbd 7754 0cbe ac8f 25be
00000260: 9025 e7bc 0823 06be 163f dd3c 11a3 51bd
00000270: 51ec 1bbe e658 793d 1555 543c e01f d0bd
00000280: d82b 1cbe 45cd 12bc 6004 473c 20ab c23d
00000290: 71ed b53d ef67 6ebc 3470 3ebe b800 2dbe
000002a0: 2c8e 17be cabf f9bd 2ab0 c8bd 71a7 30be
000002b0: 7744 f93c 54dd 913d aec4 203d beac 88bd
000002c0: 6d6e fbbd c1a5 a53a b57d 093c b49a 713c
000002d0: 113c de3c 8ebc d63c acf5 ce3c 7840 3bbd
000002e0: f998 39be 941e 94bd d766 69be 11d1 d3bd
000002f0: 676f a4bd 3348 013d 10bb 53be 1063 e0bd
00000300: 666f a0bd d4d0 643d 8bad 08bd 014c dfbd
00000310: 6f8f e33c c2e7 c0bd 6eff 99bc 0d55 13be
00000320: f7d9 f0bc 51ec 9bbd 4db7 38be d862 843d
00000330: c4bb fc3c 6c8c 17be f353 b7bd a387 a03d
00000340: 0906 17be 04c3 e2bd d906 20be e096 11be
00000350: fa6b 453a d129 3fbe 2de2 d2bd 7cad a23d
00000360: 92cd 0dbe 8ce3 3dbe 99e9 38be 7322 a3bd
00000370: d8fe 1cbe 4492 0cbd 385b 223d 70f7 01be
00000380: 0fc7 e0bc 5686 1abc 2ba4 9dbd de4c 32be
00000390: 1438 8ebd 9ed4 25be efaf 25bd 27d2 f8bd
000003a0: 7192 be3c 887a 74bd 7ade 123c d7ba c6bd
000003b0: f1c9 d0bd 4aff 32be 79ee c9bd 5688 22be
000003c0: 8bdb 82bc 1b67 7d3d 885b bfbd 4af9 6dbb
000003d0: 2ff5 8f3d f06c 5cbd 8682 23be 4efd febd
000003e0: 2d8a a4bd ca48 18be ef39 41bd 33be 4d3a
000003f0: 6d98 14be 3fe9 c9bc 6927 713d ed04 18bc

decoder.2.bias f4 [3]
0.023700384 -0.03769701 0.009027171
00000000: 4f27 c23c 2e68 1abd b3e6 133c
