weights/simple-color-b8-e2.pth (torch, 44669 bytes, 8 tensors)

encoder.0.weight f4 [12, 3, 4, 4]
-0.03656598 -0.10688153 -0.10962865 0.017676711 -0.030145999 0.14853002 0.018668666 0.07069664
0.06660817 0.04397748 -0.03527721 0.045783214 0.060427412 0.12262747 -0.09819336 -0.009013332
-0.13361429 -0.040333986 0.12960039 0.061020393 -0.049362402 0.11384095 0.050199747 -0.11111656
-0.10096693 -0.032072444 0.10082919 0.034346666 0.05474927 0.027430434 -0.10033415 0.053088244
0.0149517795 -0.011126221 -0.14927228 -0.104636244 -0.10876269 -0.06288632 -0.043177504 -0.05483714
0.11511552 0.057120748 0.11394595 0.043731503 -0.039636176 -0.056780588 0.036331397 -0.14453392
0.029187955 0.07429365 0.123660944 0.12629008 0.071470916 -0.13669062 0.06354698 0.07746892
-0.05231703 0.1469998 -0.06665949 -0.081251256 0.041836936 0.06309705 0.1101359 0.0019365544
0.07275098 0.098769926 -0.059148237 0.13410522 -0.0054213796 0.089332856 0.088287935 0.06559232
-0.1484745 0.003121031 -0.11807926 -0.026994398 -0.03806209 -0.0016287316 0.077759676 -0.11014687
-0.041507896 -0.053469133 0.03740391 0.051220387 -0.09708624 0.0464354 0.07137698 -0.083370626
0.07416039 -0.07082094 0.04979929 0.12089912 0.13325408 -0.104784764 0.024880206 -0.101375595
-0.010320556 -0.018107165 0.037492223 -0.024907961 -0.087068014 -0.007366778 -0.09475485 0.036605872
0.051488277 0.13980883 -0.054069452 0.07268861 0.058875233 0.086515985 -0.11205506 0.12349409
-0.12931356 0.08056032 -0.023439351 -0.09382328 0.11236768 0.047294904 0.114742756 -0.06732377
0.058010694 -0.046009466 -0.091048665 0.056264 0.13376293 -0.08043081 0.011453072 0.027645223
0.03847783 -0.04298489 0.06490138 -0.043272696 -0.05596446 -0.08272945 -0.016864521 0.044658963
0.057628646 -0.0046777274 -0.042094562 -0.022778332 -0.07775595 0.04454083 0.10910791 -0.101610996
-0.055045497 0.017664524 -0.06848531 -0.123978294 -0.118093126 0.021484504 -0.072852686 -0.03159801
0.09897603 -0.07922773 -0.09449498 -0.0029898917 0.009049858 0.091767035 0.12304745 0.118271165
-0.117755935 0.08651855 -0.069004394 -0.12764081 -0.002211088 -0.071334764 -0.10658712 0.13827659
0.0035941398 -0.09923993 0.0014724588 0.04882532 -0.057161827 0.113561705 0.1400036 -0.016614243
-0.113438986 -0.13879165 -0.036919713 0.029911779 0.0057219127 0.1422527 0.010385109 0.037461303
-0.09073888 0.08279118 -0.10141601 0.12646337 -0.12354195 0.07127052 -0.012172213 -0.032804005
-0.13316195 0.09280211 -0.1282742 -0.11852548 0.042901136 0.08551987 0.055907767 -0.04777024
0.045345504 -0.041034114 0.048312336 0.1100691 0.04296756 0.0068021514 0.09999264 -0.11928911
0.11324062 0.09836409 -0.13680403 0.023950638 -0.089212194 0.108086035 0.090833746 0.04002747
0.13433157 0.14021067 -0.007520638 -0.01821236 0.059805453 0.13500337 -0.03169841 -0.017760728
-0.012553388 0.12078609 -0.07988222 -0.034415368 0.004921729 -0.084641024 0.09712127 -0.020077065
-0.007076825 0.06623908 0.111540034 0.049368944 -0.01861165 -0.024454426 -0.07331418 -0.03102892
-0.045647338 -0.008861036 0.041900206 0.123151116 -0.000850668 -0.021066818 -0.11320159 -0.062057335
0.05555823 0.0017053188 -0.085735 -0.107310146 -0.123509355 -0.11743661 -0.09387693 0.10825356
00000000: 36c6 15bd b4e4 dabd fc84 e0bd c0ce 903c
00000010: bef4 f6bc 4118 183e 08ef 983c 66c9 903d
00000020: dd69 883d bb21 343d d67e 10bd 2e87 3b3d
00000030: bc82 773d 1c24 fb3d 9a19 c9bd a8ac 13bc
00000040: 2fd2 08be 4035 25bd f7b5 043e 85f0 793d
00000050: 3b30 4abd 7225 e93d 409e 4d3d 1491 e3bd
00000060: c0c7 cebd 655e 03bd 897f ce3d 17af 0c3d
00000070: c540 603d cab5 e03c fe7b cdbd 0f73 593d
00000080: 4ff8 743c c14a 36bc d5da 18be 874b d6bd
00000090: f9be debd 8bca 80bd e5da 30bd e99c 60bd
000000a0: b0c1 eb3d 72f7 693d 7f5c e93d ce1f 333d
000000b0: 8b59 22bd c392 68bd 3bd0 143d b300 14be
000000c0: 941b ef3c 4527 983d f341 fd3d 3052 013e
000000d0: 585f 923d a0f8 0bbe eb24 823d 06a8 9e3d
000000e0: 624a 56bd 1e87 163e c584 88bd 0f67 a6bd
000000f0: 355d 2b3d 0739 813d ee8e e13d fcd3 fd3a
00000100: 77fe 943d e347 ca3d 6c45 72bd e152 093e
00000110: d4a5 b1bb 25f4 b63d 4ed0 b43d 4455 863d
00000120: b309 18be 368a 4c3b 8ad3 f1bd 5b23 ddbc
00000130: fee6 1bbd 2a7b d5ba 7740 9f3d af94 e1bd
00000140: 2f04 2abd 7302 5bbd d834 193d 78cc 513d
00000150: 27d5 c6bd 0c33 3e3d 182e 923d 38be aabd
00000160: 67e1 973d 920a 91bd 57fa 4b3d f599 f73d
00000170: c273 083e 6599 d6bd 93d1 cb3c 029e cfbd
00000180: 8d17 29bc 7a55 94bc 7291 193d c80b ccbc
00000190: b750 b2bd 0365 f1bb d50e c2bd 0af0 153d
000001a0: 5fe5 523d 0c2a 0f3e ee77 5dbd c4dd 943d
000001b0: 2827 713d 4b2f b13d 207d e5bd 78ea fc3d
000001c0: c66a 04be cffc a43d e203 c0bc 6b26 c0bd
000001d0: 0721 e63d 4db8 413d 40fe ea3d 0be1 89bd
000001e0: 9f9c 6d3d 6c74 3cbd b977 babd 1475 663d
000001f0: 26f9 083e e9b8 a4bd aaa5 3b3c 3c78 e23c
00000200: ee9a 1d3d ed10 30bd 04eb 843d b63e 31bd
00000210: fd3a 65bd 0f6e a9bd 7727 8abc 51ec 363d
00000220: 040c 6c3d 9f47 99bb 596b 2cbd a099 babc
00000230: 833e 9fbd 7270 363d f873 df3d 6d19 d0bd
00000240: 6377 61bd 31b5 903c 0742 8cbd 55e8 fdbd
00000250: cfda f1bd 4500 b03c ca33 95bd ea6c 01bd
00000260: f2b3 ca3d 2642 a2bd 9686 c1bd 0ff2 43bb
00000270: db45 143c 5bf0 bb3d 4d00 fc3d 2738 f23d
00000280: 062a f1bd a330 b13d 2d52 8dbd 46b4 02be
00000290: e7e7 10bb f617 92bd 594a dabd 6198 0d3e
000002a0: a98b 6b3b 4e3e cbbd 85ff c03a 0ffd 473d
000002b0: 8522 6abd 0a93 e83d 1b5d 0f3e 981a 88bc
000002c0: b352 e8bd 661f 0ebe 2039 17bd 8c09 f53c
000002d0: e27e bb3b b1aa 113e 4e26 2a3c 0671 193d
000002e0: 4ed5 b9bd 6c8e a93d 32b3 cfbd 9d7f 013e
000002f0: 9003 fdbd 47f6 913d f66d 47bc 7e5d 06bd
00000300: 9b5b 08be 080f be3d 505a 03be 7dbd f2bd
00000310: 1ab9 2f3d 0b25 af3d 8bff 643d baaa 43bd
00000320: 35bc 393d 6313 28bd 28e3 453d e96b e13d
00000330: c1fe 2f3d 95e4 de3b f1c8 cc3d d94d f4bd
00000340: b3ea e73d 1d73 c93d 5b16 0cbe 2134 c43c
00000350: e2b4 b6bd 365c dd3d 0b07 ba3d d8f3 233d
00000360: 378e 093e 6393 0f3e af6f f6bb 1632 95bc
00000370: 90f6 743d 533e 0a3e 31d6 01bd f27e 91bc
00000380: baac 4dbc b35e f73d 4a99 a3bd 21f7 0cbd
00000390: 7546 a13b 4658 adbd 84e7 c63d a878 a4bc
000003a0: b6e4 e7bb 5ba8 873d 1a6f e43d 1737 4a3d
000003b0: 7677 98bc a654 c8bc bf25 96bd 5d30 febc
000003c0: b4f8 3abd e12d 11bc 8d9f 2b3d a736 fc3d
000003d0: 5dff 5eba 5294 acbc 3cd6 e7bd d52f 7ebd
000003e0: 0791 633d 0185 df3a d595 afbd 6cc5 dbbd
000003f0: 79f2 fcbd 9b82 f0bd 8c42 c0bd 0bb4 dd3d

encoder.0.bias f4 [12]
0.105946444 0.13589647 -0.0015242326 -0.10051858 -0.10576989 -0.1117571 -0.090321034 0.14349906
0.11813596 0.0955895 0.04194922 0.13702439
00000000: 73fa d83d 7228 0b3e c2c8 c7ba afdc cdbd
00000010: e29d d8bd e8e0 e4bd 3cfa b8bd 6bf1 123e
00000020: 44f1 f13d 6ec4 c33d f2d2 2b3d 1f50 0c3e

encoder.2.weight f4 [24, 12, 4, 4]
0.049019795 0.05147723 -0.05423046 -0.013477097 0.031884473 0.052633446 -0.07441803 0.06721698
0.050868507 -0.009499197 -0.05541522 0.050615612 -0.051845856 -0.02473581 0.062943056 0.03728631
-0.07444899 -0.034076955 -0.006982341 -0.073222935 -0.06823294 0.018056737 0.036323424 -0.07017326
-0.04567682 4.5618504e-05 0.0284091 -0.02490019 0.038131684 0.047425784 0.025242407 -0.0669028
-0.019535542 0.00049754186 -0.03132102 0.018459149 -0.047298674 0.002647218 -0.06926709 0.035848092
-0.04998243 -0.0370266 -0.003824286 0.044766095 -0.048799135 -0.024606807 -0.013411321 -0.027204582
-0.009013471 -0.019121885 -0.017128307 0.042770673 0.049398217 0.02919775 0.01104873 -0.03417705
0.06951305 -0.038815223 -0.0013725263 0.03881001 0.04830488 -0.07062308 -0.068844646 0.000963467
0.03980348 0.028742544 0.045117877 -0.03986589 0.06306399 0.020593083 0.022093644 0.05050682
0.007723331 0.042055238 0.019649852 -0.0053615677 -0.04728856 0.06911529 0.06513848 0.047894612
0.04659444 0.0020621961 -0.027683184 -0.03373085 -0.027416807 0.05797038 0.050763953 0.057725307
-0.006940165 0.022815233 0.019391507 -0.06496024 0.0032277775 0.006612418 -0.0257599 0.05039841
-0.04005577 0.00016018693 0.041375633 -0.024311818 -0.014092184 -0.05082019 -0.011448361 0.039178796
0.06564376 0.055092596 -0.027207412 -0.024061982 0.014009344 -0.06558438 -0.016997475 -0.028037485
0.0032618286 0.0010314193 -0.049906597 0.04562138 0.008358333 0.033929948 -0.031019276 -0.057023715
0.025030024 -0.063025795 0.045272738 0.0129370615 0.027034108 -0.055052225 -0.028261486 -0.051959857
-0.074589975 -0.021399833 0.003109335 -0.062450677 0.045349423 0.037409823 0.02804137 -0.039516434
-0.01906342 -0.026148522 -0.06064975 -0.07080595 0.006652507 -0.03788082 -0.05893964 -0.06495867
0.0018998808 -0.06680337 -0.009873004 0.014610878 -0.0077738697 0.014452039 -0.06445164 -0.039504156
0.015875665 0.058408607 0.06229869 -0.008613664 0.03798094 0.025828462 -0.026772507 -0.01052959
-0.0063825585 -0.0048060617 -0.07343213 -0.06052638 0.061973263 0.042309526 -0.023751337 0.037906084
-0.031568564 0.017846312 -0.007714644 0.01581035 -0.038668323 -0.04327845 0.0029879138 0.04102726
0.008473518 -0.012071348 0.04510917 -0.0067453114 0.066161186 -0.040700734 -0.006713903 0.032690257
0.042697463 0.047805406 0.036743127 0.0648633 0.04843638 0.028083496 0.0061447984 0.05574162
-0.013073197 0.0032079397 0.07601108 0.055480625 -0.02541365 -0.014001414 0.023663176 -0.04495151
0.047481883 0.033044115 -0.0014472018 0.05306782 0.03536725 0.036302175 0.044849608 0.049895186
0.074682586 -0.040286615 -0.003240152 -0.015084344 0.013600811 -0.0006284808 0.022406176 0.006630649
0.01945306 0.0046298034 0.06933311 -0.0030008866 0.061127827 0.026571946 -0.044685513 -0.02681871
0.036772627 -0.020242592 -0.06515131 0.02355491 0.0010566748 0.05358292 0.032597397 0.02756068
-0.018179554 -0.027242161 -0.001012432 0.0016312753 0.044559285 0.050510824 0.017292466 0.02534777
0.028313307 0.02701588 0.01265442 -0.058064822 -0.06410377 -0.018332634 0.019390954 0.04191338
-0.044552114 -0.0050468007 0.046767794 0.023142816 0.0060259635 -0.062296283 0.016072309 -0.012596026
00000000: fbc8 483d cad9 523d c220 5ebd 0bcf 5cbc
00000010: 4b99 023d 2b96 573d 7b68 98bd 0ea9 893d
00000020: 7f5b 503d 85a2 1bbc 12fb 62bd 5152 4f3d
00000030: 525c 54bd c1a2 cabc 4ae8 803d 88b9 183d
00000040: b678 98bd 4794 0bbd 1fcc e4bb e8f5 95bd
00000050: b6bd 8bbd b9eb 933c dfc7 143d 00b7 8fbd
00000060: 9e17 3bbd 7f56 3f38 33ba e83c 7cfb cbbc
00000070: f82f 1c3d 8a41 423d 2ac9 ce3c 5604 89bd
00000080: 0009 a0bc 786d 023a 784a 00bd a437 973c
00000090: 41bc 41bd f37c 2d3b e7db 8dbd 73d5 123d
000000a0: 60ba 4cbd 34a9 17bd dfa0 7abb a75c 373d
000000b0: 9ae1 47bd 3794 c9bc 28bb 5bbc 25dc debc
000000c0: 3dad 13bc 80a5 9cbc aa50 8cbc 4d30 2f3d
000000d0: c955 4a3d 1f30 ef3c bc05 353c 3cfd 0bbd
000000e0: dc5c 8e3d b6fc 1ebd 57e6 b3ba 3ff7 1e3d
000000f0: 56db 453d d5a2 90bd 6cfe 8cbd 2d91 7c3a
00000100: f908 233d 7c75 eb3c 86cd 383d 6a4a 23bd
00000110: b127 813d d3b2 a83c bbfd b43c 3de0 4e3d
00000120: ff13 fd3b 1d42 2c3d baf8 a03c 17b0 afbb
00000130: a6b1 41bd 518c 8d3d 5367 853d 242d 443d
00000140: d0d9 3e3d e925 073b d8c7 e2bc 5c29 0abd
00000150: 3699 e0bc 5972 6d3d dded 4f3d 5f71 6c3d
00000160: 536a e3bb 03e7 ba3c f0da 9e3c e009 85bd
00000170: 1f89 533b fcac d83b 6d06 d3bc 906e 4e3d
00000180: 8511 24bd daf7 2739 7f79 293d 9429 c7bc
00000190: e7e2 66bc d528 50bd e891 3bbc f279 203d
000001a0: 3c70 863d c6a8 613d 14e2 debc a21d c5bc
000001b0: 7387 653c 1a51 86bd 4a3e 8bbc deae e5bc
000001c0: 67c4 553b b030 873a dc6a 4cbd 7cdd 3a3d
000001d0: 64f1 083c 21fa 0a3d 231c febc b391 69bd
000001e0: c40b cd3c ab13 81bd e86f 393d f8f5 533c
000001f0: a276 dd3c 717e 61bd a284 e7bc dcd3 54bd
00000200: a1c2 98bd b44e afbc fcc5 4b3b 48cc 7fbd
00000210: 51c0 393d 0b3b 193d 04b7 e53c fcdb 21bd
00000220: e42a 9cbc 6d35 d6bc df6b 78bd b602 91bd
00000230: 46fd d93b eb28 1bbd b16a 71bd 0d09 85bd
00000240: 6c05 f93a 35d0 88bd 61c2 21bc 7762 6f3c
00000250: f2bb febb 3fc8 6c3c 39ff 83bd 1ccf 21bd
00000260: af0d 823c dd3d 6f3d e92c 7f3d 5320 0dbc
00000270: e791 1b3d 3696 d33c 0452 dbbc 4d84 2cbc
00000280: c824 d1bb 2b7c 9dbb 9663 96bd 82ea 77bd
00000290: add7 7d3d c14c 2d3d 2a92 c2bc 6943 1b3d
000002a0: 0a4e 01bd 6e32 923c 20cb fcbb b584 813c
000002b0: ad62 1ebd be44 31bd e0d0 433b 330c 283d
000002c0: 83d4 0a3c e7c6 45bc 65c4 383d c607 ddbb
000002d0: 847f 873d d0b5 26bd 4d00 dcbb 38e6 053d
000002e0: 89e3 2e3d 9acf 433d f67f 163d 0dd7 843d
000002f0: 3a65 463d 5c0f e63c 4e5a c93b 5351 643d
00000300: f630 56bc 4c3c 523b b2ab 9b3d a73f 633d
00000310: 4930 d0bc 3066 65bc 47d9 c13c 131f 38bd
00000320: 5d7c 423d 4459 073d 09b0 bdba a45d 593d
00000330: 40dd 103d 97b1 143d 39b4 373d e55e 4c3d
00000340: 2ff3 983d 9403 25bd bb58 54bb 5324 77bc
00000350: f0d5 5e3c a2c0 24ba 288d b73c ea45 d93b
00000360: 065c 9f3c 9bb5 973b 84fe 8d3d 86aa 44bb
00000370: 2c61 7a3d 69ad d93c 2808 37bd e9b2 dbbc
00000380: e59e 163d cbd3 a5bc 0d6e 85bd 3af6 c03c
00000390: 1f80 8a3a c479 5b3d d984 053d efc6 e13c
000003a0: 4aed 94bc f42a dfbc 95b3 84ba 84d0 d53a
000003b0: cc83 363d 70e4 4e3d eea8 8d3c 20a6 cf3c
000003c0: 4ff1 e73c 6850 dd3c 7c54 4f3c 61d5 6dbd
000003d0: d648 83bd 522e 96bc c7d9 9e3c 5dad 2b3d
000003e0: 477c 36bd a25f a5bb 968f 3f3d 0196 bd3c
000003f0: 7275 c53b 632a 7fbd 13aa 833c 905f 4ebc

encoder.2.bias f4 [24]
0.013153019 -0.010606423 0.058014404 -0.03399057 0.069311164 0.058402948 -0.022977313 0.05653739
-0.0278178 0.046717554 -0.057105623 -0.050452735 -0.046367086 -0.02591964 0.067838356 -0.06078858
0.05784328 0.07582524 -0.061735228 0.01635381 0.066107124 -0.0043192892 0.035468753 -0.03398747
00000000: c37f 573c 90c6 2dbc 83a0 6d3d b239 0bbd
00000010: 03f3 8d3d ee37 6f3d eb3a bcbc c093 673d
00000020: 28e2 e3bc e85a 3f3d 96e7 69bd 87a7 4ebd
00000030: 6aeb 3dbd 6d55 d4bc d6ee 8a3d 72fd 78bd
00000040: 13ed 6c3d 434a 9b3d 14de 7cbd 6df8 853c
00000050: 2c63 873d d388 8dbb af47 113d 7236 0bbd

decoder.0.weight f4 [24, 12, 4, 4]
0.055485845 -0.031444665 0.013918243 0.050018847 0.0025713365 -0.06523744 0.033574447 -0.009539187
0.055320635 -0.06830026 -0.04655409 -0.0056150705 -0.04095451 0.070748165 -0.023101704 -0.048904896
0.06442333 -0.053411715 -0.048237626 -0.05911717 -0.039952867 -0.0023225022 0.0052316105 -0.053871736
-0.0008000283 0.00612193 -0.03837029 0.01641709 -0.064267635 -0.041275106 -0.00450355 0.061159354
0.04723094 -0.0036582563 0.03380699 0.06470087 0.0060195713 -0.052526135 0.038884502 0.06099403
-0.04353677 0.008428781 -0.05714101 0.058262523 0.06244656 -0.07132 0.018946666 -0.017905302
-0.028669521 0.011284184 -0.06163324 -0.028312368 0.046621095 -3.263783e-05 -0.072855785 -0.05479675
-0.0107935555 0.063061975 -0.040287353 -0.07090424 0.03354687 -0.038284242 0.00042852687 0.055742007
-0.036804862 0.013724328 0.034162886 -0.02288853 0.012968483 0.008460215 0.030569602 -0.039187454
-0.02787182 0.01578028 0.046400685 -0.016535435 0.009260434 0.027117394 -0.046098474 0.0037012226
-0.0025025613 -0.07188824 -0.050566334 0.049141325 0.03250932 -0.034608237 0.05892226 -0.0051681474
0.0066929073 0.04532955 0.070988975 -0.049300525 -0.017185532 0.019276597 0.068215996 0.067873135
0.017479286 -0.048804298 0.059275806 0.0045933076 -0.046627697 0.025949439 -0.036141593 0.054559387
-0.059858453 0.024817869 -0.001697585 -0.0014324262 -0.06658201 -0.06603309 -0.029170824 -0.05061275
-0.06235098 -0.053454183 -0.014037193 -0.060035687 -0.062727004 -0.015341441 -0.049988188 -0.0251316
0.042433772 0.05286494 0.011991559 0.054271962 -0.047655568 0.037720844 -0.055558626 0.040059425
0.036385484 -0.041932542 -0.06908436 -0.067313716 0.024414547 -0.04383301 -0.0066448525 -0.05536253
0.013639376 -0.055521615 0.027254224 -0.051413253 -0.011588417 0.061077714 0.065381825 -0.047825534
-0.04123971 0.014887919 -0.019450627 -0.03219581 0.064677864 -0.035086107 -0.04229198 -0.047127433
-0.06801251 0.051690634 -0.05484322 -0.01870446 0.014300177 0.028628916 -0.041026406 0.0050068595
-0.06515813 -0.056083847 0.010134592 0.010015531 0.06267262 -0.03110613 0.02102828 -0.037482757
-0.0385517 0.015956108 -0.04363631 0.01573366 -0.062367175 0.012704091 0.0559087 0.05745135
-0.05070157 0.049439438 -0.0016268071 -0.019973705 0.061721668 0.035183094 0.032838047 0.07151304
-0.040694434 0.006785513 0.037086178 -0.032112535 -0.013111729 -0.03502902 -0.06770748 -0.05624594
0.033477977 -0.048770465 0.07548665 -0.064740956 -0.02193907 0.043558367 0.0076281875 -0.03453549
0.0076564597 0.037238598 0.06727626 -0.03687965 -0.041593734 0.06833038 0.029382652 -0.0122277215
-0.046045482 0.012870473 0.039927408 -0.06239843 -0.051554576 0.05584501 -0.06416607 0.03526464
-0.027346566 0.046811014 -0.0036278525 -0.0034740902 -0.03296151 0.06988825 0.03611965 0.06503281
0.054910623 0.06826551 0.06337201 0.072655186 -0.0653434 -0.03403901 0.030846246 -0.067612424
0.02148836 -0.030195538 -0.015744735 0.03959463 -0.011391254 0.0107131945 0.018643381 -0.030026354
0.03751043 0.06460517 -0.048649106 -0.001827283 -0.05332978 0.01923906 0.058138948 0.031430323
-0.050477643 -0.053603966 -0.02399408 0.011151489 0.058868863 0.008224257 0.032435942 -0.004314482
00000000: 2045 633d 1fcc 00bd 5809 643c 90e0 4c3d
00000010: de83 283b 359b 85bd 5c85 093d 404a 1cbc
00000020: e497 623d 02e1 8bbd 80af 3ebd a0fe b7bb
00000030: ebbf 27bd 6ae4 903d c93f bdbc 8050 48bd
00000040: 61f0 833d 3ec6 5abd d194 45bd d824 72bd
00000050: 9ea5 23bd 1f35 18bb ee6d ab3b 9ca8 5cbd
00000060: feb8 51ba 799a c83b 2a2a 1dbd 227d 863c
00000070: c09e 83bd 1610 29bd 8492 93bb 3b82 7a3d
00000080: 3b75 413d 5bbf 6fbb 3379 0a3d e481 843d
00000090: d33f c53b a525 57bd 5b45 1f3d e0d4 793d
000000a0: 9d53 32bd df18 0a3c b10c 6abd afa4 6e3d
000000b0: f7c7 7f3d 3810 92bd 0a36 9b3c 24ae 92bc
000000c0: 58dc eabc 4ce1 383c 2373 7cbd 57ef e7bc
000000d0: c3f5 3e3d 9ae4 08b8 6a35 95bd 8f72 60bd
000000e0: 74d7 30bc a326 813d 5a04 25bd 3e36 91bd
000000f0: 7168 093d f0cf 1cbd e7ab e039 bb51 643d
00000100: b2c0 16bd 01dc 603c 62ee 0b3d ba80 bbbc
00000110: c379 543c b79c 0a3c 1a6d fa3c 0683 20bd
00000120: 7153 e4bc a545 813c a50e 3e3d 5275 87bc
00000130: 13b9 173c 4c25 de3c c1d1 3cbd 3690 723b
00000140: 0302 24bb 243a 93bd a51e 4fbd 6a48 493d
00000150: 7e28 053d 5ec1 0dbd 7858 713d 9059 a9bb
00000160: 2d50 db3b 7aab 393d ab62 913d 59ef 49bd
00000170: acc8 8cbc f4e9 9d3c d4b4 8b3d 1201 8b3d
00000180: b830 8f3c 04e7 47bd 30cb 723d 7583 963b
00000190: affc 3ebd eb93 d43c 3509 14bd aa79 5f3d
000001a0: 232e 75bd d84e cb3c 8081 deba 3fc0 bbba
000001b0: 265c 88bd 5b3c 87bd a7f7 eebc 514f 4fbd
000001c0: be63 7fbd c6f2 5abd 41fc 65bc fbe7 75bd
000001d0: 0477 80bd ab5a 7bbc 6ac0 4cbd c9e0 cdbc
000001e0: 09cf 2d3d e888 583d 3e78 443c 474c 5e3d
000001f0: 7c32 43bd 2c81 1a3d 7191 63bd 5a15 243d
00000200: f208 153d 75c1 2bbd 1a7c 8dbd c6db 89bd
00000210: 0401 c83c 3e8a 33bd 10bd d9bb d2c3 62bd
00000220: b077 5f3c a26a 63bd 4044 df3c b496 52bd
00000230: 58dd 3dbc a02c 7a3d e8e6 853d b5e4 43bd
00000240: f8ea 28bd 75ec 733c ec56 9fbc c1df 03bd
00000250: d475 843d 73b6 0fbd 5b3a 2dbd b208 41bd
00000260: 254a 8bbd 8fb9 533d 49a3 60bd 183a 99bc
00000270: 4a4b 6a3c 3087 ea3c 4e0b 28bd 9510 a43b
00000280: a071 85bd 2db8 65bd 8f0b 263c 2f18 243c
00000290: 815a 803d 48d2 febc 8043 ac3c 8587 19bd
000002a0: 63e8 1dbd 62b6 823c fdbb 32bd e0e3 803c
000002b0: b974 7fbd d224 503c 8500 653d 1b52 6b3d
000002c0: 73ac 4fbd 0281 4a3d 973a d5ba e59f a3bc
000002d0: dccf 7c3d 261c 103d 3081 063d 6e75 923d
000002e0: 35af 26bd 0259 de3b ade7 173d 6f88 03bd
000002f0: 94d2 56bc 977a 0fbd 38aa 8abd 2562 66bd
00000300: 3420 093d 8ac3 47bd bf98 9a3d e896 84bd
00000310: 91b9 b3bc 426a 323d e0f5 f93b 1675 0dbd
00000320: 0ae3 fa3b 8087 183d 23c8 893d 1e0f 17bd
00000330: 315e 2abd ccf0 8b3d e3b3 f03c c856 48bc
00000340: 309a 3cbd adde 523c ec8a 233d 7f95 7fbd
00000350: e42a 53bd bdbd 643d 8069 83bd a871 103d
00000360: e805 e0bc e8bc 3f3d 44c1 6dbb 90ad 63bb
00000370: a602 07bd 9221 8f3d 33f2 133d ec2f 853d
00000380: f6e9 603d cace 8b3d 2fc9 813d 3ecc 943d
00000390: c3d2 85bd 7d6c 0bbd 44b1 fc3c 6278 8abd
000003a0: 5b08 b03c a25c f7bc 1afb 80bc fb2d 223d
000003b0: 62a2 3abc 6586 2f3c 01ba 983c d4f9 f5bc
000003c0: 89a4 193d b74f 843d 4944 47bd 7181 efba
000003d0: 5470 5abd 3c9b 9d3c 1b23 6e3d 15bd 003d
000003e0: a5c1 4ebd d58f 5bbd 3c8f c4bc bcb4 363c
000003f0: 7a20 713d 09bf 063c 8ddb 043d 8060 8dbb

decoder.0.bias f4 [12]
-0.049811874 0.039976753 0.014006161 0.002230506 -0.03816081 -0.072045825 -0.013245778 0.003923907
-0.064873494 0.07167803 0.06133672 0.013456965
00000000: 8907 4cbd aabe 233d 197a 653c ae2d 123b
00000010: 824e 1cbd c38c 93bd d204 59bc 1e94 803b
00000020: 65dc 84bd eecb 923d 363c 7b3d 9a7a 5c3c

decoder.2.weight f4 [12, 3, 4, 4]
-0.094821446 -0.097960435 0.07439865 -0.10622617 0.1409066 0.114237964 -0.12463176 -0.06502136
0.007854648 0.03138195 0.0051842066 0.014468891 0.032961998 0.026749857 -0.10937402 0.09397527
-0.1473157 -0.011029557 0.06499334 -0.06417161 -0.12825611 -0.03709053 -0.013612906 0.01595154
0.075179 -0.0374146 0.13089697 -0.013308896 -0.047143474 -0.08478174 0.078456774 -0.115730084
-0.024315655 0.09960364 0.05214399 0.0189473 0.12113801 0.0049960306 0.00475919 -0.1476753
-0.076317616 0.10125058 -0.00661736 -0.06450403 -0.023549438 -0.035415027 -0.077040814 0.019639425
-0.120517485 0.0023439468 0.05821301 -0.041217536 -0.0043492806 0.058524728 -0.13357477 -0.06983194
-0.12637669 -0.0010657519 -0.06713225 -0.041685443 -0.07474593 0.08535702 -0.10892771 0.122423135
0.074365705 -0.015395795 -0.09870982 -0.14183325 0.041909102 0.042540062 -0.0940122 -0.1433751
0.037403237 0.068785995 -0.12873743 -0.1420625 -0.09072779 0.017862445 -0.104792684 -0.12683637
-0.0068717315 0.032514453 -0.026218025 -0.05877828 -0.0033687726 -0.06203837 0.024223665 0.0044509107
-0.08406589 -0.13978735 -0.09479276 0.11669613 -0.073926225 -0.06513168 -0.024262665 0.10134678
0.007574359 -0.1379612 -0.056332525 -0.12139522 -0.10137267 -0.031466782 0.07482371 0.06305635
0.1089217 -0.02984049 -0.1293553 -0.07497745 0.100460395 -0.037274845 -0.01588094 0.04942185
0.10941274 0.019227374 -0.12625504 -0.10862798 -0.114901096 -0.10177487 -0.0032816802 -0.0010284701
0.116326794 0.11446778 0.05985912 -0.11155178 -0.1363304 -0.037142366 0.09315273 -0.038227975
-0.10153743 0.06722204 -0.14479564 0.11186441 0.1268996 -0.051854122 -0.066848226 0.026017575
-0.1362906 0.032421492 -0.11276709 -0.1439047 -0.10247101 -0.113942884 0.06382907 -0.106172465
0.081610866 -0.14622863 -0.11927764 -0.12554379 0.015129939 -0.098020494 0.0377323 0.09323598
0.09401195 -0.03176913 -0.117068194 0.12864642 -0.06988328 0.035485625 -0.12937807 -0.030873172
0.029054536 -0.007404137 -0.0301258 0.040170394 0.06098413 -0.07940514 -0.023490077 -0.07877802
0.10175849 -0.051722214 0.12245892 -0.008662284 0.101012945 -0.1368902 0.0167825 0.04217989
0.103967555 0.003100105 0.080425605 -0.0005579219 0.007528932 -0.005044576 0.10817271 -0.032153092
0.039288804 -0.0184792 0.07286902 0.08258619 -0.09183063 0.009644932 -0.050865304 0.080899626
0.0022011185 0.0048721693 0.13344802 0.0063553466 0.12579356 0.1240055 0.007816682 -0.05358303
0.10823361 -0.135425 -0.12944636 0.06405391 0.053172417 0.115343824 0.009170036 -0.12255774
0.102369405 -0.13441223 -0.075470015 0.10199725 -0.112051 0.091915056 0.00826949 0.11729999
-0.119802706 -0.040958267 -0.0771963 0.1079162 -0.13604197 -0.123033345 0.050207343 0.11798494
-0.017406035 0.14033113 0.10413776 -0.124007404 0.10221291 -0.029288156 0.024973912 0.097984344
0.08586869 0.11568139 0.09587935 0.10529443 -0.079650626 -0.09026032 0.0045163557 -0.11882669
-0.07917661 0.11645929 0.080520235 -0.032636743 0.11860074 0.094158165 -0.065009356 0.030225959
-0.014799751 -0.1343547 0.11360539 0.10502152 -0.073226735 -0.079525135 -0.058159444 -0.07423383
00000000: bf31 c2bd 7b9f c8bd 525e 983d 1b8d d9bd
00000010: d249 103e 98f5 e93d f03e ffbd eb29 85bd
00000020: c8b0 003c 5c8a 003d 47e0 a93b ed0e 6d3c
00000030: 2903 073d 8422 db3c 7cff dfbd 1b76 c03d
00000040: edd9 16be 51b5 34bc 3a1b 853d 686c 83bd
00000050: 9255 03be 3dec 17bd ab08 5fbc ceac 823c
00000060: 73f7 993d 0d40 19bd db09 063e 8e0d 5abc
00000070: 8419 41bd 0da2 adbd f2ad a03d e503 edbd
00000080: a031 c7bc fefc cb3d f094 553d 5e37 9b3c
00000090: 3417 f83d beb5 a33b fbf2 9b3b 3238 17be
000000a0: 694c 9cbd 775c cf3d 70d6 d8bb b01a 84bd
000000b0: c0ea c0bc 590f 11bd 93c7 9dbd dce2 a03c
000000c0: dfd1 f6bd e79c 193b c470 6e3d b8d3 28bd
000000d0: 6984 8ebb a0b7 6f3d d3c7 08be 0c04 8fbd
000000e0: e468 01be b3b0 8bba a27c 89bd 5bbe 2abd
000000f0: 6514 99bd a9cf ae3d 7e15 dfbd fbb8 fa3d
00000100: 0c4d 983d a53e 7cbc 6028 cabd bc3c 11be
00000110: e1a8 2b3d 7d3e 2e3d 7889 c0bd ecd0 12be
00000120: 2334 193d acdf 8c3d bfd3 03be d578 11be
00000130: 7ecf b9bd 4354 923c 8c9d d6bd 65e1 01be
00000140: 432c e1bb e02d 053d 2fc7 d6bc 7ec1 70bd
00000150: a0c6 5cbb f21b 7ebd b570 c63c f2d8 913b
00000160: bd2a acbd 6a24 0fbe b522 c2bd 61fe ee3d
00000170: a266 97bd c263 85bd 7fc2 c6bc e78e cf3d
00000180: 5432 f83b b345 0dbe efbc 66bd 0f9e f8bd
00000190: 799c cfbd 50e3 00bd 2c3d 993d b023 813d
000001a0: 5712 df3d 0b74 f4bc b775 04be c78d 99bd
000001b0: 2ebe cd3d 82ad 18bd bf18 82bc 916e 4a3d
000001c0: c913 e03d ba82 9d3c 0049 01be 5978 debd
000001d0: 4451 ebbd 586f d0bd 7511 57bb bbcd 86ba
000001e0: be3c ee3d 156e ea3d d62e 753d 4275 e4bd
000001f0: 329a 0bbe 9822 18bd dcc6 be3d f094 1cbd
00000200: dbf2 cfbd b5ab 893d 4f45 14be 2b19 e53d
00000210: f8f1 013e fd64 54bd b9e7 88bd cf22 d53c
00000220: c38f 0bbe 66cc 043d 6ff2 e6bd c15b 13be
00000230: 52dc d1bd e35a e9bd d1b8 823d f370 d9bd
00000240: 9923 a73d f5bc 15be d647 f4bd 8d8e 00be
00000250: 90e3 773c f8be c8bd 2f8d 1a3d 81f2 be3d
00000260: 5689 c03d 5920 02bd 73c1 efbd e3bb 033e
00000270: f71e 8fbd 6059 113d af7b 04be bce9 fcbc
00000280: c703 ee3c 679e f2bb 62ca f6bc b689 243d
00000290: 7fca 793d 299f a2bd 436e c0bc 5f56 a1bd
000002a0: c166 d03d acda 53bd becb fa3d 41ec 0dbc
000002b0: e0df ce3d f22c 0cbe 747b 893c d2c4 2c3d
000002c0: f1ec d43d 222b 4b3b 2eb6 a43d 8141 12ba
000002d0: 42b5 f63b f84c a5bb a789 dd3d f6b2 03bd
000002e0: 4ced 203d b161 97bc 5a3c 953d f322 a93d
000002f0: b311 bcbd c705 1e3c 2358 50bd b4ae a53d
00000300: a440 103b b8a6 9f3b 99a6 083e 8340 d03b
00000310: 07d0 003e 98f6 fd3d 8a11 003c e179 5bbd
00000320: 95a9 dd3d daac 0abe 968d 04be b22e 833d
00000330: 52cb 593d 6239 ec3d eb3d 163c 8dff fabd
00000340: 0da7 d13d 5ca3 09be 0690 9abd efe3 d03d
00000350: ff7a e5bd f63d bc3d c17c 073c fa3a f03d
00000360: 1f5b f5bd dbc3 27bd 1819 9ebd 2b03 dd3d
00000370: 964e 0bbe e8f8 fbbd 37a6 4d3d 17a2 f13d
00000380: 1a97 8ebc f7b2 0f3e 2e46 d53d 98f7 fdbd
00000390: 0155 d13d b7ed efbc 1796 cc3c 04ac c83d
000003a0: ecdb af3d 5dea ec3d 655c c43d 9ba4 d73d
000003b0: de1f a3bd 67da b8bd f0fd 933b 685b f3bd
000003c0: 5927 a2bd 3582 ee3d cbe7 a43d 1bae 05bd
000003d0: f2e4 f23d ffd5 c03d a023 85bd 6e9c f73c
000003e0: a87a 72bc 4794 09be f1a9 e83d 8615 d73d
000003f0: e6f7 95bd 13de a2bd 9938 6ebd e807 98bd

decoder.2.bias f4 [3]
0.12143929 0.05862851 -0.09616867
00000000: 2ab5 f83d 7324 703d 14f4 c4bd
